TaNP/save_model_dir/lastfm_20/gating-film_1741713768/model_best.pt (torch, 821538 bytes, 46 tensors)

np.item_emb.first_embedding_layer.weight f4 [32, 3846]
0.022154894 -0.0003693281 0.0028488433 -0.003644621 0.033507545 0.0006175687 0.021300606 0.03052256
0.014561142 0.003290544 0.017014362 0.009779909 0.0250191 0.03152925 0.02264444 0.034478024
0.02068597 -0.01230555 -0.010466313 0.031550236 -0.0027931994 0.022792578 0.04216384 -0.0012647874
0.034887157 0.010801685 -0.0039564315 0.01882848 -0.010776194 0.0016380755 0.01436303 0.01998464
0.019144695 -0.015635666 0.043190647 0.018079348 0.048790067 0.02871811 0.026793553 0.015828744
0.0008481511 0.041172173 0.016186673 0.029849287 0.02892578 0.012180021 0.04946005 0.042513493
0.038841967 0.0052975477 0.027583027 0.030187065 0.047597565 0.020701433 0.042725384 0.028164897
0.045989495 0.033152316 0.027037838 -0.010343899 0.012889472 0.034530606 0.01694394 0.008536122
0.01274582 0.011248194 0.019990051 0.0155678615 0.012844338 0.010571995 0.021367675 0.0018222419
0.023585202 0.029825974 0.021000525 0.03160952 -0.0005408236 0.022412842 0.016264066 0.033517085
0.023210267 0.026377302 0.011089091 -0.010112412 0.00080348895 0.003516086 -0.0034574529 0.028045371
0.005853777 -0.011592718 0.033441953 0.045018274 -0.019712266 0.0058732443 -0.011564225 -0.0043988763
0.02419742 -0.02132037 0.047160525 0.023209099 0.02755732 -0.0004888748 0.044925287 0.0127205225
0.025915034 0.03364518 0.019111589 0.022899948 -0.015779821 0.034306936 0.018254917 0.04243703
0.018330796 0.003230182 0.015266142 0.020195335 0.013040507 0.03111703 0.03301854 0.0047559435
-0.017887384 -0.001726417 0.00040432133 0.0044405367 0.02849218 0.011666443 0.01868736 0.017805628
0.03632342 0.0020824324 0.026204558 0.037406117 0.042853396 0.01263679 0.032463506 0.028807744
0.03627642 0.040016185 -0.00483145 -0.00937935 -0.0041851313 0.024604948 0.0001066143 0.027053565
0.0045112167 0.004519082 0.008582994 0.009741498 0.012461134 0.018408159 -0.0060589155 0.010326855
0.020089252 -0.0010260277 0.0459134 0.029302236 0.0379405 0.03902965 0.022529015 0.044212
0.020829847 0.020469846 -0.0037626026 0.013789747 0.027337829 0.047158588 -0.023729373 0.026622318
-0.010104213 0.011794289 0.002962337 0.0198669 -0.01794891 -0.02352102 -0.021537343 -0.00012785524
0.018974796 0.011645521 -0.011239739 -0.021624975 0.003818428 0.016157255 0.009254793 0.022920383
0.03177061 0.04537956 0.01048383 0.04737644 0.00901299 -0.0044444795 0.03934975 0.0055855517
0.036726013 -0.014636167 0.00925591 0.0030258654 0.028569164 0.0336717 0.0062022503 0.004108637
0.03160337 -0.015615048 0.01664185 0.009766841 0.0045759445 0.014317825 0.031669736 -0.018120125
0.028670056 0.035356045 0.026562817 0.021909611 0.022930784 0.0032446652 0.0143134445 0.013992084
0.012176594 0.03414427 0.010157138 0.0023371319 0.01118984 0.035313867 0.0047420175 0.022895277
0.024587292 -0.013014036 0.007384925 0.021390004 0.015491024 0.01250713 0.0039354945 0.012509689
0.018626915 0.02480449 0.013182253 0.042683605 0.021126658 0.014537211 0.026897782 0.01771549
-0.0019712439 -0.006574584 0.036575142 -0.00033222188 0.010232972 0.019386316 -0.0037855827 0.007239629
-0.0068677235 -0.0131746745 0.019300992 -0.00813665 0.028515812 0.032069292 0.01647608 0.034570504
00000000: 2e7e b53c 61a2 c1b9 a9b3 3a3b 98da 6ebb
00000010: 353f 093d 55e4 213a 9c7e ae3c 730a fa3c
00000020: db91 6e3c 2ba6 573b b461 8b3c e93b 203c
00000030: dbf4 cc3c d124 013d d580 b93c d438 0d3d
00000040: a075 a93c 389d 49bc e67a 2bbc d23a 013d
00000050: 1c0e 37bb 80b7 ba3c feb3 2c3d 39c7 a5ba
00000060: d6e5 0e3d 8df9 303c f4a4 81bb 2f3e 9a3c
00000070: a28e 30bc b1b4 d63a ea52 6b3c d4b6 a33c
00000080: 56d5 9c3c 5e16 80bc ade8 303d 241b 943c
00000090: 18d8 473d 3e42 eb3c 277e db3c 48ab 813c
000000a0: 7556 5e3a 27a4 283d ea99 843c 7e86 f43c
000000b0: c2f5 ec3c b68e 473c 9f96 4a3d a122 2e3d
000000c0: c118 1f3d 0d97 ad3b cdf5 e13c dd4a f73c
000000d0: aaf5 423d 0d96 a93c d000 2f3d 12ba e63c
000000e0: 7b5f 3c3d b9ca 073d 757e dd3c 7579 29bc
000000f0: 5d2e 533c f76f 0d3d 05ce 8a3c 17db 0b3c
00000100: d8d3 503c 584a 383c 2dc2 a33c 5810 7f3c
00000110: 0f71 523c 2936 2d3c 430b af3c 4bd8 ee3a
00000120: c135 c13c 9a55 f43c 4b09 ac3c fc78 013d
00000130: 0fc6 0dba 239b b73c 383c 853c 3649 093d
00000140: 7523 be3c 3615 d83c 05af 353c 88ae 25bc
00000150: 3ba1 523a 226e 663b 6f96 62bb 68bf e53c
00000160: 0ad1 bf3b 62ef 3dbc 6efa 083d 1565 383d
00000170: 9e7b a1bc 5874 c03b e077 3dbc 7324 90bb
00000180: ab39 c63c 0ea8 aebc 652b 413d 0221 be3c
00000190: e4bf e13c d527 00ba 9403 383d bd69 503c
000001a0: c44b d43c 87cf 093d e88f 9c3c ac98 bb3c
000001b0: af44 81bc 6e85 0c3d 568b 953c 73d2 2d3d
000001c0: 772a 963c 76b1 533b d71e 7a3c b070 a53c
000001d0: daa7 553c 24e9 fe3c 733e 073d bfd7 9b3b
000001e0: 9088 92bc f148 e2ba 17fb d339 ec81 913b
000001f0: 6f68 e93c 9c24 3f3c 3c16 993c 1cdd 913c
00000200: dec7 143d 6b79 083b f1aa d63c 2837 193d
00000210: 0b87 2f3d 8a0a 4f3c 74f8 043d 38fe eb3c
00000220: 9596 143d 03e8 233d 2451 9ebb d8ab 19bc
00000230: 6d23 89bb 5190 c93c 1e96 df38 709f dd3c
00000240: d4d2 933b cf14 943b b09f 0c3c ce9a 1f3c
00000250: c929 4c3c b5cc 963c de89 c6bb f831 293c
00000260: 3792 a43c c77b 86ba b00f 3c3d 3e0b f03c
00000270: 7f67 1b3d 8edd 1f3d c58e b83c a417 353d
00000280: 5ba3 aa3c 61b0 a73c ff95 76bb 64ee 613c
00000290: 95f3 df3c 5d29 413d 1a64 c2bc 0c17 da3c
000002a0: 248c 25bc d53c 413c c523 423b e9bf a23c
000002b0: 9809 93bc 27af c0bc 156f b0bc e110 06b9
000002c0: 0871 9b3c dbcc 3e3c e226 38bc dc26 b1bc
000002d0: 973e 7a3b 385c 843c 6aa1 173c 87c3 bb3c
000002e0: e621 023d ebdf 393d 5fc4 2b3c cc0d 423d
000002f0: 38ab 133c ffa2 91bb 342d 213d 0107 b73b
00000300: 046e 163d 89cc 6fbc 1aa6 173c 994d 463b
00000310: e109 ea3c 56eb 093d 3f3c cb3b bfa1 863b
00000320: 8972 013d 42d6 7fbc 7d54 883c 1a05 203c
00000330: cef1 953b 5095 6a3c 20b8 013d a870 94bc
00000340: 77dd ea3c 80d1 103d 449a d93c c97b b33c
00000350: 57d9 bb3c 73a4 543b f082 6a3c 0e3f 653c
00000360: 5680 473c ddda 0b3d 206a 263c 912a 193b
00000370: 9755 373c 46a5 103d ed62 9b3b e08e bb3c
00000380: 4a6b c93c d338 55bc 3efd f13b 173a af3c
00000390: 10ce 7d3c b5ea 4c3c 52f5 803b 70f5 4c3c
000003a0: 7997 983c c932 cb3c 60fa 573c 01d5 2e3d
000003b0: d011 ad3c 7b2d 6e3c bd58 dc3c 1320 913c
000003c0: fc2f 01bb 9c6f d7bb d1cf 153d 112e aeb9
000003d0: 32a8 273c 0dd0 9e3c 8a17 78bb 693a ed3b
000003e0: a40a e1bb 97da 57bc 1d1d 9e3c 954f 05bc
000003f0: fe99 e93c 175b 033d d8f8 863c cd99 0d3d

np.item_emb.first_embedding_layer.bias f4 [32]
0.022938874 0.042715594 0.05755829 -0.011105663 0.03310423 0.048968416 0.03682963 0.017506042
-0.016118564 0.050490633 -0.016010676 0.05342086 -0.010140091 0.05309412 0.035741333 -0.011168749
0.04878367 0.033226818 0.036069766 0.036458366 0.037722647 0.03289245 -0.012419444 0.020765148
0.019029206 -0.010264584 -0.015546757 0.01860643 0.03121131 0.051439106 0.03270026 0.045222186
00000000: 4eea bb3c 8cf6 2e3d 3ec2 6b3d 87f4 35bc
00000010: 4d98 073d 1b93 483d abda 163d d568 8f3c
00000020: 140b 84bc 44cf 4e3d d228 83bc d5cf 5a3d
00000030: a022 26bc 3879 593d 8165 123d 21fd 36bc
00000040: 63d1 473d d818 083d e4bd 133d 5e55 153d
00000050: 1083 1a3d 3cba 063d ec7a 4bbc ac1b aa3c
00000060: 23e3 9b3c c92c 28bc d3b7 7ebc 836c 983c
00000070: dcae ff3c d0b1 523d b5f0 053d e63a 393d

np.item_emb.second_embedding_layer.weight f4 [16, 32]
-0.00745327 0.055415098 -0.008395147 -0.15415506 0.04940272 -0.041064054 0.17377348 -0.07967643
0.031842176 0.08264093 0.09147851 -0.0018209968 0.064873904 0.026744282 0.08596602 0.09655672
0.06545104 0.06565375 0.07093346 0.07619752 0.070191845 -0.120247126 0.028099071 -0.031159902
-0.17143631 0.03393424 0.09932284 0.16956712 -0.100250304 -0.06824287 0.15785885 0.06928004
0.04125718 0.10512834 0.021564666 -0.13714577 0.086312145 0.071919285 0.12780744 0.033494946
-0.07128754 -0.07108908 -0.07031953 0.055721145 0.08207058 0.04945575 0.21028227 -0.029016364
-0.031181738 0.107621215 0.09943671 0.15057532 0.0126941465 0.013334567 -0.15844618 0.10850959
-0.04758596 -0.09715209 -0.09973517 0.12086517 0.08219966 0.27496052 0.047317073 0.080294356
0.077712506 -0.025483796 -0.048620414 -0.061886344 -0.05034972 -0.014302153 0.011640875 -0.07285462
0.08742681 -0.017564466 0.04582753 0.016039215 -0.13139252 0.018695014 0.11542194 0.12161043
0.054213766 -0.12636013 0.08360196 0.104657575 0.09503493 -0.062761754 0.079336196 0.04988661
0.044569492 0.12042482 -0.1495405 0.11796875 0.112698056 0.15433967 -0.0775046 0.15774523
0.073959164 0.16079421 0.10315205 -0.012328817 -0.044489115 -0.06516518 -0.1249508 -0.049075283
-0.1664714 0.1273745 -0.071814775 -0.009513639 0.17040017 0.004794794 -0.075264364 -0.11370303
0.021425623 -0.12389205 0.13732137 -0.119620696 0.1534886 -0.028749144 -0.036526166 0.028376736
0.034551352 0.1512306 -0.14272897 0.0943662 0.072008945 0.015255242 -0.03860388 0.044081874
0.09584014 -0.088782676 0.10215426 -0.13797732 0.048094716 0.031565398 0.025261493 0.041496605
-0.06905544 -0.06857908 0.10079419 -0.13365771 0.12929152 0.17437826 0.003506955 -0.029153565
0.12565161 -0.04771059 -0.11716356 -0.15867919 -0.064726494 -0.15067428 -0.025254391 -0.047736194
-0.015479083 0.13612463 0.027978742 -0.08755055 0.14995535 -0.06385441 -0.14374042 -0.049469147
-0.009813767 0.104327865 -0.16741903 0.083108 0.05542905 0.11139266 -0.047871526 -0.07985146
-0.15970425 -0.012830091 -0.16733864 -0.12551977 0.037679788 -0.11256279 0.007399743 -0.093570784
-0.15806414 0.16333175 -0.009245838 -0.11605208 0.16417913 0.13571514 0.13036798 -0.07305648
-0.10028071 0.014503658 -0.14819531 -0.053938504 -0.06814414 -0.16502292 -0.059209578 -0.058221214
0.11261222 0.1605054 -0.06590056 -0.006116868 0.016752759 0.18802117 -0.05091926 0.19323182
0.110213965 -0.046715204 0.091099046 -0.019876378 -0.05410162 0.07714035 0.021108584 -0.09507336
0.013867593 0.0995781 -0.0133894775 -0.063683845 -0.06447024 0.106557555 -0.043487784 0.12684941
0.12128588 -0.14274436 -0.029914234 -0.12800987 0.042286634 -0.02934757 0.17424801 0.14574352
0.105546094 0.09522566 0.09439179 -0.11370381 -0.04632418 0.17882055 0.14292656 0.1548716
0.00802033 0.21515949 -0.041605845 0.06496544 -0.006071275 0.06600694 0.20021799 0.13464841
-0.006092619 0.20962769 0.06575905 0.06531589 0.12893824 0.20716234 -0.1155708 0.18769601
0.117483765 -0.12600237 -0.15990934 0.09933018 -0.11304888 -0.11159192 0.1727852 0.17751105
00000000: 8f3a f4bb f1fa 623d cc8b 09bc d3da 1dbe
00000010: 825a 4a3d c832 28bd adf1 313e 652d a3bd
00000020: f16c 023d a63f a93d 1659 bb3d 83ae eeba
00000030: 9cdc 843d d316 db3c f40e b03d 88bf c53d
00000040: 320b 863d 7975 863d 9045 913d 720d 9c3d
00000050: bec0 8f3d 2044 f6bd 0630 e63c 0d43 ffbc
00000060: 008d 2fbe a1fe 0a3d c669 cb3d 01a3 2d3e
00000070: 0850 cdbd ebc2 8bbd c0a5 213e b2e2 8d3d
00000080: 4afd 283d 874d d73d 62a8 b03c f16f 0cbe
00000090: 6cc4 b03d 6b4a 933d f4df 023e ff31 093d
000000a0: 34ff 91bd 2797 91bd b003 90bd db3b 643d
000000b0: 9f14 a83d 1d92 4a3d 3c54 573e bab3 edbc
000000c0: d870 ffbc 8368 dc3d 79a5 cb3d 6b30 1a3e
000000d0: 1cfb 4f3c 3a79 5a3c b73f 22be 473a de3d
000000e0: 7fe9 42bd adf7 c6bd f441 ccbd 2988 f73d
000000f0: 4c58 a83d a0c7 8c3e 8ccf 413d 5e71 a43d
00000100: bc27 9f3d 65c3 d0bc 3326 47bd 897c 7dbd
00000110: 823b 4ebd 9453 6abc 5eb9 3e3c ce34 95bd
00000120: d40c b33d 5be3 8fbc a6b5 3b3d ac64 833c
00000130: c38b 06be 4926 993c 5762 ec3d e40e f93d
00000140: 410f 5e3d 8d64 01be 8137 ab3d b656 d63d
00000150: aca1 c23d 3c89 80bd 047b a23d e755 4c3d
00000160: 808e 363d 4aa1 f63d 2521 19be 9a99 f13d
00000170: 3dce e63d 380b 1e3e bbba 9ebd f787 213e
00000180: e777 973d 3da7 243e 6241 d33d cefe 49bc
00000190: 383a 36bd 5275 85bd 34e6 ffbd 2a03 49bd
000001a0: 7b77 2abe 766e 023e a013 93bd 18df 1bbc
000001b0: 627d 2e3e a61d 9d3b 3424 9abd 22dd e8bd
000001c0: ca84 af3c 1dbb fdbd f99d 0c3e b2fb f4bd
000001d0: 1e2c 1d3e 5383 ebbc 769c 15bd 5476 e83c
000001e0: b885 0d3d 32dc 1a3e 8b27 12be 1143 c13d
000001f0: 6d79 933d 1ff1 793c 1a1f 1ebd 328f 343d
00000200: d647 c43d b1d3 b5bd 4136 d13d ed49 0dbe
00000210: f7fe 443d b84a 013d 31f1 ce3c 58f8 293d
00000220: f06c 8dbd 3073 8cbd 2f6d ce3d 91dd 08be
00000230: ff64 043e 3790 323e f1d4 653b 75d3 eebc
00000240: d1aa 003e 2e6c 43bd 73f3 efbd cc7c 22be
00000250: 538f 84bd 5c4a 1abe 4ce2 cebc 0787 43bd
00000260: fb9b 7dbc 4164 0b3e ad33 e53c b44d b3bd
00000270: e58d 193e 1ac6 82bd b030 13be 29a0 4abd
00000280: ecc9 20bc d9a9 d53d e56f 2bbe 8734 aa3d
00000290: 9209 633d d621 e43d ef14 44bd 2a89 a3bd
000002a0: 8389 23be 4d35 52bc d25a 2bbe 4188 00be
000002b0: 1f56 1a3d 5287 e6bd 8b79 f23b 0aa2 bfbd
000002c0: 91db 21be 7040 273e db7b 17bc b7ac edbd
000002d0: 931e 283e e9f8 0a3e 2f7f 053e a39e 95bd
000002e0: f95f cdbd c0a0 6d3c 83c0 17be 9fee 5cbd
000002f0: 288f 8bbd c5fb 28be be85 72bd 5e79 6ebd
00000300: 3ca1 e63d 875b 243e dff6 86bd 0270 c8bb
00000310: 153d 893c 9f88 403e b790 50bd 90de 453e
00000320: dcb7 e13d 7158 3fbd 2392 ba3d c9d3 a2bc
00000330: a999 5dbd c3fb 9d3d e9eb ac3c d2b5 c2bd
00000340: e734 633c 9aef cb3d 8a5f 5bbc ad6c 82bd
00000350: f908 84bd d93a da3d 3f20 32bd d0e4 013e
00000360: bb64 f83d 942b 12be b20e f5bc 0515 03be
00000370: c034 2d3d 516a f0bc 126e 323e ca3d 153e
00000380: 8d28 d83d ac05 c33d 7c50 c13d 8bdd e8bd
00000390: 6cbe 3dbd bc1c 373e 575b 123e a996 1e3e
000003a0: b467 033c c552 5c3e e46a 2abd 9a0c 853d
000003b0: 8cf1 c6bb a62e 873d f205 4d3e 46e1 093e
000003c0: 98a4 c7bb a4a8 563e aeac 863d 56c4 853d
000003d0: 6308 043e 5d22 543e 62b0 ecbd 6233 403e
000003e0: 549b f03d c406 01be 46bf 23be 9f6d cb3d
000003f0: 2c86 e7bd 4e8a e4bd 9aee 303e 75c5 353e

np.item_emb.second_embedding_layer.bias f4 [16]
-0.09215804 0.10790948 -0.106430545 -0.044515185 -0.159817 -0.043471355 0.07553837 0.044074986
0.19121943 -0.14853472 0.08585363 0.06084467 0.13154808 -0.1680567 -0.10695163 0.020245085
00000000: 5bbd bcbd a5ff dc3d 42f8 d9bd 8e55 36bd
00000010: 11a7 23be 050f 32bd dcb3 9a3d f987 343d
00000020: 07cf 433e 7c19 18be 07d4 af3d 4338 793d
00000030: 8ab4 063e 0e17 2cbe 7509 dbbd 05d9 a53c

np.user_emb.first_embedding_layer.weight f4 [32, 1872]
-0.0037290049 0.022059932 0.014152629 -0.013196916 0.016862664 0.011376572 0.013344354 0.0013421393
0.0062478515 -0.011883379 0.01227116 -0.011350086 0.011828676 -0.0074662426 0.013014961 0.014197237
-0.007918772 -0.013427678 -0.010382211 -0.018641116 0.009982059 -0.013752667 0.009010817 -0.021503503
-0.0014434048 0.0092275925 -0.005675828 0.0047111134 0.017235924 -0.0012309218 0.012806735 -0.0048769973
0.016640339 -0.016429802 -0.0125664 0.0186925 0.0076965243 0.017593263 -0.0020374341 -0.020374866
0.021419724 0.019269627 0.00650951 -0.022171395 -0.007486292 0.021332944 0.008399758 -0.011366364
9.788215e-05 -0.0050362 -0.0024587 -0.0051178318 -0.011545813 0.009542994 0.020729555 0.016957207
0.022283386 -0.0033553909 -0.006986351 -0.017852055 -0.014347562 0.008011659 0.007090967 0.021791678
0.00068089337 0.0049388884 0.0092490595 -0.012445147 0.013792072 0.0051974603 0.033871617 0.0040981006
-0.022450577 0.022997113 0.008539227 0.014964586 0.0035449532 0.014227794 0.0105511965 0.014687919
0.019371063 0.028447041 0.004453497 0.013878438 -0.00910345 0.021079356 0.013020943 0.019924395
0.012705406 0.017002359 0.017140696 -0.009879024 0.036347095 -0.007260945 -0.007844069 0.01681894
-0.0067278175 -0.0024336218 -0.013110821 0.020845251 0.025847608 -0.0013193921 0.020427015 0.032345537
0.018788286 0.010920715 -0.020780245 -0.0109493 -0.017522555 0.0067365346 -0.006458389 -0.020871038
0.0047718883 0.02109684 0.021867437 0.0020862431 0.001986628 0.019880582 -0.0011278626 0.020234112
-0.0028211582 -0.001264183 0.01515654 0.012888934 0.0152731445 -0.015732678 0.022863196 -0.012605678
0.004678026 -0.004864683 -0.020128231 -0.017187864 0.019917168 -0.0044686864 -0.006584014 0.011069217
0.0040621725 -0.022633774 -0.020778658 -0.010102669 0.00064860214 0.020457104 -0.0061537083 0.013530607
0.009786049 -0.0022255473 0.01876108 -0.014651144 0.008542188 0.0068279533 0.009380675 0.02976489
0.0042417855 -0.005367954 -0.00546858 -0.022813993 -0.022363478 0.02074745 -0.016858041 -8.7015535e-05
0.0028392242 0.009837318 0.01766114 -0.01253181 -0.0017012857 0.010640332 0.031361245 0.002264623
-0.002800483 0.0006293624 0.0045322715 -0.01238389 -0.005516918 0.006905386 0.018052895 0.011753734
0.0009269626 0.011156606 0.009918164 0.011082994 -0.010186852 0.006170807 -0.020720208 0.022093628
-0.019663338 0.02158417 0.005375142 -0.012849642 0.0047752163 0.0003425379 -0.012546396 -0.017451743
0.010220468 0.012100389 -0.010318937 -0.0016325603 0.021008587 -0.0112590585 0.020578595 -0.015153686
-0.008843271 -0.003785768 -0.0051019145 -0.014929231 -0.004898455 0.017240394 0.018869882 0.01840643
0.0044148634 -0.0018247777 0.020580469 0.016862635 0.0018852273 0.013894415 0.0058363862 -0.0053897533
0.0023253332 -0.013193156 -0.0042335335 0.0028680067 -0.014291509 0.020504953 0.016904827 0.014773933
-0.0091720605 -0.017507007 -0.019106947 0.003119538 0.004478173 0.022215076 0.020788105 -0.0030016669
-0.000958802 -0.0032738114 0.0076684677 -0.020371497 0.018091504 -0.019352363 0.03290304 0.008462623
0.016615437 -0.009143924 0.005801025 -0.00048581517 0.009394189 0.007943767 -0.009197089 0.006318303
-0.0006984194 -0.014000927 -0.015887469 -0.018358197 0.0026114744 -0.01762857 0.002096104 -0.00467297
00000000: 5262 74bb 08b7 b43c 6ee0 673c e137 58bc
00000010: 9223 8a3c cd64 3a3c 47a2 5a3c b9ea af3a
00000020: c7ba cc3b 81b2 42bc fa0c 493c b6f5 39bc
00000030: 10cd 413c 62a7 f4bb b43c 553c 879b 683c
00000040: bdbd 01bc c3ff 5bbc 261a 2abc 41b5 98bc
00000050: ca8b 233c de52 61bc 1ba2 133c 1d28 b0bc
00000060: a130 bdba 542f 173c 4cfc b9bb af5f 9a3b
00000070: 5a32 8d3c e256 a1ba 57d3 513c 38cf 9fbb
00000080: 5251 883c cb97 86bc 4de3 4dbc 0421 993c
00000090: 2033 fc3b bf1f 903c 7986 05bb 31e9 a6bc
000000a0: 6b78 af3c 56db 9d3c ba4d d53b c9a0 b5bc
000000b0: 924f f5bb 6dc2 ae3c 239f 093c fc39 3abc
000000c0: 1446 cd38 b506 a5bb 2422 21bb 7cb3 a7bb
000000d0: a62a 3dbc 385a 1c3c 07d1 a93c d7e9 8a3c
000000e0: a68b b63c 1ee6 5bbb c3ed e4bb 793e 92bc
000000f0: 0912 6bbc 5543 033c 585b e83b 7684 b23c
00000100: fb7d 323a 66d6 a13b 5e89 173c bbe6 4bbc
00000110: 25f8 613c 754f aa3b f7bc 0a3d 5c49 863b
00000120: 46ea b7bc 7164 bc3c 1de8 0b3c 062e 753c
00000130: 7252 683b b11b 693c edde 2c3c 99a5 703c
00000140: 10b0 9e3c c509 e93c a4ee 913b 6362 633c
00000150: a326 15bc 9dae ac3c cb55 553c 7c38 a33c
00000160: 562a 503c 8848 8b3c a56a 8c3c a1db 21bc
00000170: b1e0 143d 39ed edbb 6984 00bc e0c7 893c
00000180: 0675 dcbb 667d 1fbb c5ce 56bc a9c3 aa3c
00000190: 5dbe d33c 74ef acba 8e56 a73c c17c 043d
000001a0: e4e9 993c ccec 323c 553b aabc b164 33bc
000001b0: 768b 8fbc 26be dc3b e5a0 d3bb bdf9 aabc
000001c0: 805d 9c3b 48d3 ac3c 5723 b33c 5ab9 083b
000001d0: 1632 023b 9adc a23c cad4 93ba 02c2 a53c
000001e0: 2ee3 38bb f1b2 a5ba 2353 783c 1c2c 533c
000001f0: 363c 7a3c d1e1 80bc 994b bb3c 0c88 4ebc
00000200: 204a 993b eb67 9fbb f6e3 a4bc 90cd 8cbc
00000210: 5429 a33c 0f6e 92bb b6be d7bb a95b 353c
00000220: f91b 853b 776a b9bc 0138 aabc aa85 25bc
00000230: f406 2a3a a895 a73c 0ca5 c9bb 7baf 5d3c
00000240: aa55 203c 7dda 11bb d6b0 993c 5a0b 70bc
00000250: 89f4 0b3c 06bd df3b 67b1 193c 80d5 f33c
00000260: adfe 8a3b a9e5 afbb c631 b3bb 69e4 babc
00000270: 9d33 b7bc 8ef6 a93c e019 8abc 1c7c b6b8
00000280: 4712 3a3b b42c 213c 18ae 903c 3952 4dbc
00000290: adfd deba c954 2e3c a674 003d 126a 143b
000002a0: 4f88 37bb ccfb 243a 7383 943b cde5 4abc
000002b0: 43c7 b4bb 9446 e23b aae3 933c bc92 403c
000002c0: 68ff 723a 32ca 363c cc7f 223c 7295 353c
000002d0: c1e6 26bc 7b34 ca3b 6dbd a9bc b2fd b43c
000002e0: 0215 a1bc 49d1 b03c f621 b03b 4e87 52bc
000002f0: 6b79 9c3b a996 b339 668f 4dbc f5f6 8ebc
00000300: c073 273c b640 463c c210 29bc a2fb d5ba
00000310: 331a ac3c ea77 38bc 7194 a83c 2a47 78bc
00000320: 5ee3 10bc a61a 78bb f62d a7bb bc99 74bc
00000330: 3883 a0bb ba3b 8d3c 0395 9a3c 15c9 963c
00000340: 8faa 903b 612d efba 5f98 a83c 8223 8a3c
00000350: bb19 f73a 67a5 633c 283f bf3b 879c b0bb
00000360: 9e64 183b 1b28 58bc 74b9 8abb 2bf5 3b3b
00000370: ef26 6abc 01fa a73c fe7b 8a3c 5e0e 723c
00000380: 6946 16bc db6a 8fbc 2c86 9cbc 2a71 4c3b
00000390: a3bd 923b 64fc b53c d14b aa3c 9db7 44bb
000003a0: 1d58 7bba 718d 56bb c547 fb3b 20e2 a6bc
000003b0: a234 943c d988 9ebc 57c5 063d d0a6 0a3c
000003c0: 191d 883c 66d0 15bc 8616 be3b 02b5 feb9
000003d0: 16ea 193c 9326 023c 63af 16bc c409 cf3b
000003e0: 2216 37ba 2564 65bc 7026 82bc ee63 96bc
000003f0: 4525 2b3b ca69 90bc ca5e 093b b71f 99bb

np.user_emb.first_embedding_layer.bias f4 [32]
0.0457844 0.03493168 0.06369787 -0.01791077 0.029592903 0.016999008 0.05578002 0.013788023
0.05151188 0.039472293 -0.0007322678 0.05690743 -0.022936162 0.029725648 0.043929458 0.022638204
0.025431346 0.027202914 0.0296936 0.047221594 -0.022559527 0.047061224 0.040831253 0.040841736
0.044464875 0.028146341 -0.017560024 0.0416873 -0.006346951 -0.012760756 -0.016597943 -0.0176941
00000000: 6c88 3b3d 8514 0f3d 0774 823d 9bb9 92bc
00000010: d16c f23c 8141 8b3c 9779 643d 29e7 613c
00000020: 1ffe 523d b3ad 213d a9f5 3fba c417 693d
00000030: 9ee4 bbbc 3483 f33c 60ef 333d c173 b93c
00000040: 6655 d03c a5d8 de3c fe3f f33c 6e6b 413d
00000050: c2ce b8bc 45c3 403d ac3e 273d aa49 273d
00000060: cd20 363d 2893 e63c 0ada 8fbc 4dc0 2a3d
00000070: 15fa cfbb 7d12 51bc 69f8 87bc 38f3 90bc

np.user_emb.second_embedding_layer.weight f4 [16, 32]
-0.085212044 -0.011967192 -0.10923419 0.108459696 -0.10496861 -0.13249472 -0.07265273 -0.17396013
-0.18495612 0.004211492 0.078915454 0.10420352 -0.06358482 -0.10266373 -0.15443464 0.12530571
-0.07473499 -0.18656646 0.13823463 -0.098404706 0.02098671 0.10267469 -0.14755827 0.03958173
0.14039278 -0.14414628 -0.009355821 0.09913218 0.15422663 -0.17252709 0.13224052 -0.021775251
0.19897054 -0.11386297 -0.062053047 0.066410296 0.052050833 0.052625183 0.13430867 0.062877804
-0.0459517 0.14577408 0.20056401 0.17914481 -0.052902304 0.04685454 -0.06414686 0.061185952
0.19885343 0.037415136 -0.006781711 -0.046606645 -0.12794417 -0.06809742 0.1311444 0.08862542
-0.08163815 0.16651134 0.0024542888 0.15510057 -0.10516021 0.026592955 0.06804013 -0.010467858
-0.16544701 -0.12014898 0.17209078 0.009109877 0.12745444 0.13386439 0.1191832 -0.069489226
-0.12204591 0.062109314 0.11930269 -0.12862706 0.13897021 0.025485238 0.1166932 0.1570756
-0.067894116 -0.050695036 0.084517226 -0.01635739 -0.13226207 0.07342835 0.12564759 -0.017034993
-0.14757234 0.13084963 -0.046799988 -0.021432374 0.08086377 0.13893384 0.10148927 -0.08626306
-0.13528644 0.108840145 -0.025950741 0.058311682 -0.0175451 -0.088384725 -0.05359412 -0.07010557
-0.1332357 0.011778232 0.07885121 0.14409772 -0.16707785 0.12350076 0.07010053 -0.086710334
-0.076523796 0.05002738 0.17032544 -0.07354374 -0.11483975 0.08353292 -0.15753697 0.031047286
-0.027490934 0.16518629 -0.07922415 0.053244535 -0.13798033 -0.054826073 -0.11225484 -0.011012781
-0.07579529 0.067663185 0.11148465 0.09042977 -0.07110435 0.025692128 -0.01733148 0.0073183575
0.014874761 0.10665184 -0.13199124 -0.097957686 -0.009780049 0.06840418 0.09938094 -0.13599367
0.14839144 0.029385688 -0.14988504 0.1282766 0.043390073 0.01369191 0.11712255 -0.0314151
0.046211552 -0.1021404 0.03607551 -0.073888 0.020309808 0.07372997 -0.09940488 0.09464296
0.06207091 0.10542075 -0.07109722 -0.048671007 0.0932264 0.053418927 0.123327725 0.12757905
-0.06783127 -0.03436398 -0.021649344 0.13354567 0.045544896 -0.012334561 0.04837575 0.039605055
-0.11009424 0.069437474 0.1259825 0.0881086 0.023558965 0.21824145 -0.077426694 0.06999912
0.11244 0.078345366 -0.08559987 0.15460004 0.1239045 0.009569911 0.031017644 -0.12999474
-0.11766627 0.13355297 -0.08606726 0.12097877 -0.024227694 0.13887763 -0.16804524 -0.06555917
0.11065771 -0.06709812 -0.15108709 -0.0127610965 0.053411394 0.06017352 0.12850055 0.11905279
0.047122747 0.13766935 -0.005050141 0.036494114 0.12273744 0.0088217985 0.17265321 0.13593192
-0.11674649 -0.13387097 -0.007652371 -0.14942178 0.09605136 0.14071819 -0.0941977 0.15727806
0.047413744 0.14020254 0.16226265 -0.11074842 -0.119367175 0.105097495 0.007152213 0.018503102
0.1939491 0.05846995 0.06625584 -0.04123139 0.15173933 -0.06943626 0.09660814 -0.11280695
0.12099631 -0.04779495 0.10745108 0.12917551 0.030803794 0.08087783 -0.041537367 0.12498274
0.1772197 -0.08996868 -0.030150617 0.087802306 -0.04826255 -0.037636444 -0.080795705 -0.10513383
00000000: a783 aebd 0b12 44bc 2db6 dfbd 1e20 de3d
00000010: c8f9 d6bd b2ac 07be f4ca 94bd 9b22 32be
00000020: 2365 3dbe 8e00 8a3b 6d9e a13d a868 d53d
00000030: c238 82bd 5d41 d2bd 1d24 1ebe 2450 003e
00000040: a90e 99bd 470b 3fbe 618d 0d3e 6888 c9bd
00000050: 52ec ab3c 1c47 d23d 8419 17be 7420 223d
00000060: 20c3 0f3e 159b 13be 2849 19bc d005 cb3d
00000070: 96ed 1d3e f1aa 30be 0f6a 073e 0362 b2bc
00000080: efbe 4b3e fd30 e9bd 562b 7ebd 1f02 883d
00000090: 4133 553d 818d 573d 3688 093e 14c6 803d
000000a0: da37 3cbd cd45 153e a760 4d3e bd71 373e
000000b0: 16b0 58bd 8cea 3f3d 6e5f 83bd 1f9e 7a3d
000000c0: 3ca0 4b3e 9d40 193d 1d39 debb 9ce6 3ebd
000000d0: cc03 03be a976 8bbd b84a 063e 3f81 b53d
000000e0: e731 a7bd f381 2a3e 22d8 203b afd2 1e3e
000000f0: 3c5e d7bd 78d9 d93c a058 8b3d 6181 2bbc
00000100: f16a 29be ab10 f6bd 9138 303e 9841 153c
00000110: 6b83 023e bf13 093e 5216 f43d 5e50 8ebd
00000120: 35f3 f9bd 5666 7e3d f854 f43d d0b6 03be
00000130: 354e 0e3e 6bc6 d03c d8fc ee3d 6dd8 203e
00000140: 120c 8bbd 99a5 4fbd 5e17 ad3d efff 85bc
00000150: b56f 07be 9a61 963d c3a9 003e f88c 8bbc
00000160: 341d 17be 72fd 053e 58b1 3fbd f292 afbc
00000170: e79b a53d ac44 0e3e 9bd9 cf3d b0aa b0bd
00000180: 8788 0abe 95e7 de3d a696 d4bc 3bd8 6e3d
00000190: beba 8fbc 0d03 b5bd 8285 5bbd 8293 8fbd
000001a0: f06e 08be 7cf9 403c be7c a13d 5a8e 133e
000001b0: 7516 2bbe f7ed fc3d de90 8f3d 3095 b1bd
000001c0: 82b8 9cbd 83e9 4c3d cb69 2e3e 1a9e 96bd
000001d0: 1a31 ebbd 4f13 ab3d 5f51 21be e156 fe3c
000001e0: ab34 e1bc 9826 293e 4540 a2bd f116 5a3d
000001f0: b74a 0dbe 4e91 60bd dee5 e5bd f46e 34bc
00000200: 903a 9bbd ff92 8a3d 1052 e43d 3e33 b93d
00000210: 289f 91bd 4c78 d23c bffa 8dbc d5ce ef3b
00000220: 45b5 733c 486c da3d b628 07be 0a9e c8bd
00000230: 803c 20bc 7e17 8c3d 3c88 cb3d ed41 0bbe
00000240: edf3 173e 41ba f03c 777b 19be f15a 033e
00000250: cab9 313d 0854 603c f3dd ef3d 1fad 00bd
00000260: 5348 3d3d fc2e d1bd eac3 133d 9752 97bd
00000270: c160 a63c bdff 963d c994 cbbd 2bd4 c13d
00000280: 113e 7e3d d6e6 d73d 6b9b 91bd 405b 47bd
00000290: 7ced be3d cecd 5a3d 3f93 fc3d 15a4 023e
000002a0: 1feb 8abd 3fc1 0cbd f759 b1bc 32c0 083e
000002b0: 498d 3a3d e616 4abc a725 463d e938 223d
000002c0: 1779 e1bd 3c35 8e3d 8e01 013e 4872 b43d
000002d0: bbfe c03c b07a 5f3e e391 9ebd b35b 8f3d
000002e0: f146 e63d 8973 a03d fc4e afbd 794f 1e3e
000002f0: a4c1 fd3d 1ecb 1c3c b718 fe3c 571d 05be
00000300: 03fb f0bd 1cc2 083e 0844 b0bd b8c3 f73d
00000310: 2879 c6bc f035 0e3e 0d14 2cbe e343 86bd
00000320: 82a0 e23d bd6a 89bd 93b6 1abe eb13 51bc
00000330: e8c5 5a3d 8278 763d a695 033e f3d1 f33d
00000340: c803 413d 32f9 0c3e a77b a5bb da7a 153d
00000350: c45d fb3d 4e89 103c 01cc 303e bd31 0b3e
00000360: c918 efbd 7915 09be bec0 fabb 0602 19be
00000370: 93b6 c43d 6e18 103e b9ea c0bd 800d 213e
00000380: ea34 423d 4191 0f3e 2e28 263e 11d0 e2bd
00000390: c776 f4bd 5b3d d73d 1c5d ea3b d193 973c
000003a0: 989a 463e 307e 6f3d 24b1 873d 3fe2 28bd
000003b0: 8e61 1b3e 9934 8ebd 7dda c53d 5507 e7bd
000003c0: eacc f73d a3c4 43bd 500f dc3d 9646 043e
000003d0: 3d58 fc3c 47a3 a53d 1623 2abd f3f6 ff3d
000003e0: 1579 353e 8041 b8bd 6dfe f6bc b2d1 b33d
000003f0: f4ae 45bd ac28 1abd 3878 a5bd 6850 d7bd

np.user_emb.second_embedding_layer.bias f4 [16]
0.01996103 0.06769369 0.16963957 -0.12063507 -0.15474066 0.11569332 -0.1367323 0.16093148
0.121808745 -0.14791146 -0.09745573 -0.16733417 0.19074807 0.20675945 -0.12744606 0.12884006
00000000: 5085 a33c fda2 8a3d ffb5 2d3e 850f f7bd
00000010: 5674 1ebe 9ff0 ec3d 8d03 0cbe 39cb 243e
00000020: dd76 f93d 1a76 17be df96 c7bd a659 2bbe
00000030: 7653 433e c0b8 533e 3881 02be a6ee 033e

np.xy_to_z.input_to_hidden.0.weight f4 [32, 33]
-0.07596001 0.00028052507 -0.0628152 -0.06827637 -0.09306491 0.012286195 0.08130062 0.15311448
-0.0028479672 -0.08101342 0.14165111 -0.05924908 0.01705404 0.068195395 -0.039417744 0.08232438
0.15080436 -0.057333764 -0.09901743 0.058648154 0.038187895 -0.058447026 0.15334666 -0.113224365
0.15212178 -0.041293528 -0.05141167 -0.03479647 -0.024937218 -0.09353802 0.06565446 -0.15567663
0.14882591 -0.16644521 -0.14316425 -0.17011741 0.08347456 -0.050199274 -0.09448262 0.08385679
-0.003930886 0.06910689 0.007774926 0.018794542 0.16635774 -0.07393419 0.17091395 0.10340698
0.08593569 -0.16450097 -0.107576475 -0.17355435 0.008759821 -0.06377863 -0.1382384 -0.13568681
0.091187045 -0.16750517 -0.022599258 0.02434854 0.11099298 0.1629805 -0.11905887 0.046164818
0.15642498 -0.13730673 0.008705784 -0.10563434 0.08449791 0.106193125 -0.054526083 -0.092534825
-0.0987667 0.07373629 0.0091503505 0.07805344 -0.072811 -0.07818706 -0.21040618 -0.037779335
0.13996013 -0.04613009 0.030282121 0.0050627934 -0.04573935 -0.015213717 -0.0156098455 0.12726142
0.04297931 -0.06536938 -0.19107442 -0.08440596 -0.15294085 -0.009894357 -0.0036319562 -0.030511895
0.040084306 -0.05329106 -0.033992678 -0.15983213 -0.1142726 -0.10041932 0.024922179 -0.033437215
0.13637528 0.099121764 -0.12441664 -0.095002994 0.11073409 -0.13775127 -0.03240347 0.1495618
-0.04786662 -0.17188962 0.10773049 0.033032577 -0.1546768 0.14955516 -0.07985946 -0.034386624
0.027431866 -0.051934488 0.14646728 -0.0013565577 0.024855588 -0.11776293 0.13706839 -0.15055375
0.02308848 -0.030519903 0.077772565 -0.052373573 0.12936883 -0.044776138 0.09784852 -0.17029351
0.027433464 0.1365858 0.17219484 0.057458315 -0.14926961 -0.08558067 0.13585585 0.14269376
0.025354935 0.109184474 0.10977115 -0.050875034 0.06144965 0.046494104 -0.003777946 -0.050851893
-0.13154024 -0.16846375 -0.0065743793 -0.16399725 0.02727187 -0.062181916 0.11181631 0.14668234
-0.06439518 -0.059870303 0.12991175 -0.045371357 -0.08621918 -0.13526726 0.17928639 0.13193889
-0.033851378 0.09795616 0.090558976 0.06183604 -0.08044433 -0.037741765 0.07277799 0.0064724535
0.15098643 -0.093377315 -0.17129073 -0.054576922 -0.018314654 -0.08629977 0.13423581 -0.05856315
0.0944081 -0.028145455 -0.07960317 0.019386442 0.1915951 0.13518026 -0.17307785 -0.089350484
-0.12466849 -0.034486465 0.111134596 -0.12732752 0.018521287 0.15274243 -0.024876755 -0.071438245
0.0637716 -0.1131467 -0.12756519 0.07501892 0.20562416 -0.036852337 0.11164324 -0.12574282
0.041268814 0.18206601 0.014685253 0.021405393 -0.08000976 -0.08738575 -0.17167667 -0.032392405
-0.11847491 -0.06667531 0.04035244 -0.062270924 -0.113982745 -0.017980257 0.016168498 -0.16722341
-0.051370084 0.12352602 -0.070613675 0.05592815 -0.1549201 -0.11380595 0.1316822 -0.08213624
0.03632906 0.13703889 -0.15108801 -0.019968547 -0.094562516 -0.1390924 -0.070519276 -0.031867024
-0.091961935 -0.06073214 -0.025049007 0.016254839 -0.030220248 0.14167604 0.029265704 -0.099306904
0.017824916 0.15184571 -0.15010384 -0.051940154 0.14152704 -0.03510789 -0.15384863 -0.06283636
00000000: ec90 9bbd 7013 9339 41a5 80bd 7bd4 8bbd
00000010: d198 bebd 094c 493c f180 a63d 0bca 1c3e
00000020: f6a4 3abb 5dea a5bd fd0c 113e 2aaf 72bd
00000030: eab4 8b3c 07aa 8b3d 8074 21bd af99 a83d
00000040: 756c 1a3e cfd6 6abd a6c9 cabd 0c39 703d
00000050: e96a 1c3d 2666 6fbd e806 1d3e 2de2 e7bd
00000060: d0c5 1b3e 6723 29bd 0b95 52bd be86 0ebd
00000070: 2349 ccbc dd90 bfbd d875 863d b269 1fbe
00000080: d265 183e 9d70 2abe a699 12be 4233 2ebe
00000090: b6f4 aa3d c19d 4dbd 1b80 c1bd 1cbd ab3d
000000a0: a9ce 80bb ea87 8d3d cec4 fe3b 03f7 993c
000000b0: af59 2a3e cf6a 97bd 1104 2f3e 0ac7 d33d
000000c0: 0dff af3d f172 28be 0e51 dcbd 3bb8 31be
000000d0: 5a85 0f3c 5f9e 82bd 5e8e 0dbe 7cf1 0abe
000000e0: 46c0 ba3d 7a86 2bbe 1422 b9bc 9776 c73c
000000f0: 4a50 e33d 5ce4 263e 23d5 f3bd 5217 3d3d
00000100: df2d 203e 239a 0cbe b4a2 0e3c d156 d8bd
00000110: 3e0d ad3d c87b d93d be56 5fbd e682 bdbd
00000120: 3246 cabd 0d03 973d 5aeb 153c 7bda 9f3d
00000130: ef1d 95bd 8a20 a0bd b874 57be 81be 1abd
00000140: b551 0f3e e8f2 3cbd 3612 f83c cae5 a53b
00000150: 2f59 3bbd f442 79bc 70c0 7fbc d150 023e
00000160: 130b 303d 62e0 85bd 03a9 43be 08dd acbd
00000170: 879c 1cbe f11b 22bc 1d06 6ebb 15f4 f9bc
00000180: 712f 243d ba47 5abd e83b 0bbd 09ab 23be
00000190: c107 eabd a5a8 cdbd 9929 cc3c 76f5 08bd
000001a0: f6a5 0b3e 5a00 cb3d 27ce febd ee90 c2bd
000001b0: 8ec8 e23d ab0e 0dbe 80b9 04bd ba26 193e
000001c0: ca0f 44bd d503 30be cea1 dc3d 2b4d 073d
000001d0: 9863 1ebe fd24 193e 5b8d a3bd fdd8 0cbd
000001e0: cbb8 e03c 42b9 54bd 85fb 153e 86ce b1ba
000001f0: f29d cb3c b12d f1bd a85b 0c3e c32a 1abe
00000200: 0d24 bd3c e004 fabc 3947 9f3d ac85 56bd
00000210: 4379 043e 2f67 37bd ce64 c83d 6c61 2ebe
00000220: 25bc e03c 26dd 0b3e d853 303e 6959 6b3d
00000230: 22da 18be eb44 afbd cc1d 0b3e 501e 123e
00000240: 27b5 cf3c 1c9c df3d b2cf e03d 5762 50bd
00000250: a1b2 7b3d 9a70 3e3d 6b97 77bb 134a 50bd
00000260: 7cb2 06be c381 2cbe e46d d7bb e5ee 27be
00000270: 4269 df3c 77b2 7ebd f3ff e43d e533 163e
00000280: 9fe1 83bd 903a 75bd 9607 053e 51d7 39bd
00000290: ae93 b0bd 8083 0abe da96 373e fd1a 073e
000002a0: bea7 0abd 3d9d c83d fc76 b93d ca47 7d3d
000002b0: ffbf a4bd 1c97 1abd a00c 953d e016 d43b
000002c0: 309c 1a3e 9b3c bfbd d666 2fbe 0d8c 5fbd
000002d0: 9d08 96bc efbd b0bd 1d75 093e eadf 6fbd
000002e0: 0959 c13d 4c91 e6bc fd06 a3bd 51d0 9e3c
000002f0: 8231 443e b26c 0a3e 523b 31be 63fd b6bd
00000300: 3152 ffbd ae41 0dbd 899a e33d 2562 02be
00000310: f4b9 973c 8368 1c3e 56ca cbbc 374e 92bd
00000320: af9a 823d 75b9 e7bd 73a0 02be 85a3 993d
00000330: 248f 523e 7af2 16bd 36a5 e43d bac2 00be
00000340: 7d09 293d 836f 3a3e 6a9a 703c 5d5a af3c
00000350: 28dc a3bd 4df7 b2bd 02cc 2fbe e6ad 04bd
00000360: f9a2 f2bd 118d 88bd 9a48 253d cc0f 7fbd
00000370: c96f e9bd 554b 93bc cc73 843c 9d3c 2bbe
00000380: 7069 52bd 36fb fc3d e79d 90bd ea14 653d
00000390: 60a3 1ebe 1813 e9bd b3d7 063e 0c37 a8bd
000003a0: c8cd 143d ec53 0c3e d1b6 1abe 1495 a3bc
000003b0: fea9 c1bd 3d6e 0ebe 696c 90bd ff86 02bd
000003c0: 8a56 bcbd 44c2 78bd 9333 cdbc de28 853c
000003d0: 7490 f7bc 8613 113e a1be ef3c 6b61 cbbd
000003e0: 8f05 923c 717d 1b3e d2b4 19be 33bf 54bd
000003f0: 77ec 103e 4acd 0fbd 7f8a 1dbe 59b0 80bd

np.xy_to_z.input_to_hidden.0.bias f4 [32]
0.15277791 -0.010150909 0.12519081 -0.13837582 -0.16158012 0.18846847 0.10267601 0.13259019
-0.11673173 0.09692762 0.037423797 -0.021299208 -0.16992179 -0.009993199 -0.06591688 0.07690378
0.06812277 -0.13109341 -0.11511512 -0.005283718 -0.09571027 0.08588616 -0.03139977 0.15793581
0.0034882948 -0.04539259 -0.06057745 -0.1510851 -0.07781467 -0.090590455 -0.018926201 0.06527997
00000000: d071 1c3e 0050 26bc 0532 003e 64b2 0dbe
00000010: 4275 25be e1fd 403e cd47 d23d b9c5 073e
00000020: 0c11 efbd fd81 c63d b249 193d ad7b aebc
00000030: faff 2dbe 84ba 23bc 6eff 86bd bb7f 9d3d
00000040: f383 8b3d 5a3d 06be 7ac1 ebbd 0a23 adbb
00000050: bf03 c4bd 15e5 af3d 0c9d 00bd edb9 213e
00000060: e09b 643b 95ed 39bd 0f20 78bd 0db6 1abe
00000070: 4c5d 9fbd 7d87 b9bd 1f0b 9bbc 81b1 853d

np.xy_to_z.input_to_hidden.3.weight f4 [16, 32]
-0.08573883 -0.16917408 0.021302177 -0.08032161 -0.07874884 0.015165489 0.13783512 0.15109466
-0.09644191 0.13211125 -0.1451568 -0.04652346 -0.05133526 -0.11396316 0.03942277 0.08950781
-0.17426892 -0.014822456 0.1004854 0.13600063 0.11649677 -0.06693718 -0.015131119 -0.10084067
0.077694826 -0.1723525 -0.070534185 -0.11831906 0.0871102 -0.15204328 -0.05214682 0.14000264
0.12639418 0.14741334 -0.14059703 0.050115637 -0.03097142 0.04368244 -0.14953779 0.008873035
0.132832 -0.050463073 -0.12740964 0.14733522 0.038618755 0.1285235 -0.07470672 -0.05815645
0.04966082 -0.04580454 0.005757835 0.084332384 0.06658359 -0.058182392 -0.10106823 -0.049019728
-0.18010345 0.10438292 0.07778197 -0.041488893 -0.0012923067 -0.15475911 -0.16672598 -0.1991681
-0.030401291 -0.07784944 0.16187213 0.14776097 0.15369919 -0.09306385 0.10970522 0.08013543
-0.051425394 -0.13639082 -0.090303265 0.17466116 -0.10851848 -0.01972169 0.003578731 0.1613224
0.1337101 -0.089344785 0.11150486 0.061166387 -0.008978438 0.031616397 0.15013784 0.085312344
-0.039967943 0.042825256 0.07309226 -0.046108674 0.07593949 -0.0015328176 -0.06384419 0.12278335
0.12287481 -0.16278033 -0.19265924 0.10129643 -0.14333043 -0.07442313 -0.1431983 0.04561245
0.15962794 0.013300758 -0.02316804 0.15208557 -0.025849167 -0.15797727 -0.026521305 0.12137921
0.12115508 -0.13121532 0.0671865 0.047465187 -0.12096183 0.0031587551 0.09566854 -0.19165061
0.0007639314 0.096942596 0.17300683 0.16063538 0.08194157 -0.0015514465 -0.18476787 -0.15099005
-0.07576041 -0.1272172 -0.09583998 0.046287164 0.030242302 0.17824705 0.085195564 -0.08587756
-0.07124095 -0.0651381 0.028985623 -0.12476224 0.13251336 0.04927241 0.17302197 -0.08523546
0.064202815 -0.027626142 0.020043913 0.03240365 -0.1760006 0.1827884 -0.1239699 0.16999501
-0.06861571 0.012437474 -0.14124385 -0.00939919 -0.14482147 0.0001036391 -0.059388135 0.20390326
0.007880501 -0.13199331 -0.046654604 0.11849844 0.0012866168 0.1512682 -0.14102134 -0.19153261
0.16389938 0.113117106 -0.0060455417 -0.015381935 0.083631545 -0.14018762 0.09581709 -0.12186814
-0.07950414 0.06806743 0.10026631 0.04459025 -0.004294511 -0.14296149 -0.084049284 -0.061551694
-0.07443531 -0.083141714 -0.094214626 0.10796315 -0.1182143 0.14069937 -0.12084236 0.08988365
-0.00874701 -0.14190075 -0.10487204 0.1660036 0.04875779 -0.0042407736 0.14144318 -0.030229405
0.05559909 0.09573073 0.106315255 -0.08043281 0.116221406 0.010842993 0.099972725 -0.07203693
-0.059389733 -0.15456735 0.11514805 0.07220708 -0.0013884858 -0.13052219 -0.13170624 0.046991818
0.0059814807 0.009747681 0.12885159 0.069954894 0.08183253 0.16843456 0.00710128 0.08941888
-0.13129427 0.13380593 -0.0041854214 0.09224335 -0.17401679 -0.12779151 -0.04781349 0.0053873267
0.10221108 -0.031003835 -0.13339762 0.028211182 0.15990558 -0.0102061825 -0.052453313 0.05269662
0.10826752 -0.07062777 -0.014741281 -0.16234036 -0.058338277 0.03206489 -0.015277305 0.15887561
-0.053094827 -0.16390382 -0.08103251 0.08346848 -0.033185713 -0.13988572 -0.1480583 0.050998587
00000000: d797 afbd f83b 2dbe e781 ae3c a87f a4bd
00000010: 1247 a1bd ac78 783c a624 0d3e 8fb8 1a3e
00000020: 5683 c5bd 2c48 073e fca3 14be 628f 3ebd
00000030: ec44 52bd 8465 e9bd c579 213d df4f b73d
00000040: 8d73 32be e3d9 72bc 4acb cd3d c043 0b3e
00000050: dc95 ee3d 5c16 89bd 83e8 77bc 8e85 cebd
00000060: 771e 9f3d 2c7d 30be 3a74 90bd 4351 f2bd
00000070: d566 b23d 3cb1 1bbe e797 55bd da5c 0f3e
00000080: 7a6d 013e 86f3 163e abf8 0fbe 0e46 4d3d
00000090: c7b7 fdbc 5cec 323d 6f20 19be 3560 113c
000000a0: 1d05 083e 5eb2 4ebd ac77 02be 0bdf 163e
000000b0: b32e 1e3d aa9b 033e d6ff 98bd 7535 6ebd
000000c0: 2569 4b3d 8b9d 3bbd 39ac bc3b 75b6 ac3d
000000d0: fa5c 883d a950 6ebd dcfc cebd e9c8 48bd
000000e0: 0a6d 38be b6c6 d53d 274c 9f3d 42f0 29bd
000000f0: 9e62 a9ba 2c79 1ebe 37ba 2abe b9f2 4bbe
00000100: 210c f9bc 876f 9fbd cfc1 253e a74e 173e
00000110: 5263 1d3e 4398 bebd 21ad e03d 0b1e a43d
00000120: 6fa3 52bd 09aa 0bbe ebf0 b8bd 60da 323e
00000130: f03e debd 628f a1bc 2589 6a3b b331 253e
00000140: 4deb 083e 66fa b6bd a95c e43d 9b89 7a3d
00000150: 4c1a 13bc 3280 013d bcbd 193e 3db8 ae3d
00000160: 6db5 23bd 8969 2f3d 65b1 953d 73dc 3cbd
00000170: 2a86 9b3d d3e8 c8ba bec0 82bd d675 fb3d
00000180: caa5 fb3d e3af 26be 7748 45be 8174 cf3d
00000190: 36c5 12be 276b 98bd 93a2 12be 1fd4 3a3d
000001a0: 8275 233e 6ceb 593c e7ca bdbc 52bc 1b3e
000001b0: a2c1 d3bc cbc4 21be 3543 d9bc aa95 f83d
000001c0: 2820 f83d 4f5d 06be 1399 893d db6a 423d
000001d0: d6ba f7bd 1e03 4f3b deed c33d 0f40 44be
000001e0: 9242 483a d789 c63d b428 313e 9a7d 243e
000001f0: fbd0 a73d e859 cbba ca33 3dbe 239d 1abe
00000200: 4628 9bbd 3a45 02be c047 c4bd 9c97 3d3d
00000210: b4be f73c 6586 363e 037b ae3d 93e0 afbd
00000220: c6e6 91bd 2067 85bd 4273 ed3c 5883 ffbd
00000230: 95b1 073e ded1 493d ac2c 313e ee8f aebd
00000240: c47c 833d 3850 e2bc 2233 a43c b1b9 043d
00000250: 8039 34be e22c 3b3e eee3 fdbd 2c13 2e3e
00000260: 6586 8cbd 8cc6 4b3c 3aa2 10be 0fff 19bc
00000270: 144c 14be d158 d938 f940 73bd 04cc 503e
00000280: 381d 013c 4129 07be e618 3fbd 4faf f23d
00000290: b2a3 a83a 0de6 1a3e e667 10be 2021 44be
000002a0: 3dd5 273e f1a9 e73d ae19 c6bb 8304 7cbc
000002b0: 0447 ab3d 588d 0fbe c03b c43d 0196 f9bd
000002c0: 11d3 a2bd f066 8b3d 6c58 cd3d 44a4 363d
000002d0: f8b8 8cbb 7f64 12be 0822 acbd a11d 7cbd
000002e0: 8a71 98bd 3446 aabd 99f3 c0bd c91b dd3d
000002f0: 571a f2bd 7f13 103e 337c f7bd eb14 b83d
00000300: 9e4f 0fbc 6e4e 11be 27c7 d6bd d9fc 293e
00000310: 40b6 473d 30f6 8abb 7bd6 103e a8a3 f7bc
00000320: dfbb 633d 790e c43d d0bb d93d f5b9 a4bd
00000330: 7d05 ee3d cfa6 313c 80be cc3d 1988 93bd
00000340: a642 73bd e746 1ebe bed2 eb3d 4ee1 933d
00000350: dafd b5ba 9ca7 05be 00de 06be 7e7a 403d
00000360: 4c00 c43b bdb4 1f3c acf1 033e 8344 8f3d
00000370: d097 a73d 1c7a 2c3e dbb1 e83b 3f21 b73d
00000380: 0172 06be 6c04 093e dc25 89bb 15ea bc3d
00000390: 7531 32be c7db 02be 14d8 43bd 2c88 b03b
000003a0: 0b54 d13d c1fb fdbc 6399 08be 231b e73c
000003b0: 4abe 233e d537 27bc 49d9 56bd 69d8 573d
000003c0: 5dbb dd3d 4ba5 90bd 6a85 71bc 8d3c 26be
000003d0: 1ef4 6ebd 7956 033d a94d 7abc 4ab0 223e
000003e0: f679 59bd 67d6 27be 5ff4 a5bd 86f1 aa3d
000003f0: beed 07bd 343e 0fbe 989c 17be e5e3 503d

np.xy_to_z.input_to_hidden.3.bias f4 [16]
-0.10218508 0.06674676 0.10297836 0.06698269 0.22009018 0.05144936 -0.04947309 0.023326093
0.004119417 -0.07011608 -0.016647622 0.0050235153 0.18243174 0.0105252685 0.1894663 0.2213406
00000000: 6946 d1bd 86b2 883d 52e6 d23d 382e 893d
00000010: 525f 613e 90bc 523d 4ba4 4abd 5d16 bf3c
00000020: 2dfc 863b 0599 8fbd 9860 88bc 4d9c a43b
00000030: 63cf 3a3e 2d72 2c3c 7403 423e 1ca7 623e

np.xy_to_z.input_to_hidden.6.weight f4 [32, 16]
0.24690273 0.08057957 0.22910102 -0.16688243 0.20788488 0.21182919 -0.19811556 -0.15575781
-0.21620326 -0.13150576 -0.068358116 -0.16924135 0.01950607 -0.19836578 -0.121056065 -0.021674862
-0.07518357 -0.159393 -0.1831137 -0.045995943 0.26499116 -0.17533605 -0.10603118 -0.18932897
-0.23496686 0.13812396 0.23246674 0.063581735 -0.11220402 0.15846016 -0.12167358 0.17697462
0.00097072124 0.060406156 0.06260115 0.20540905 0.004670849 -0.24334863 -0.14369461 0.05465571
0.2290495 -0.077455364 -0.21369603 0.07958295 0.07034572 0.103393875 0.24875423 -0.058369856
0.04049948 0.13413846 -0.06105833 0.08222308 0.10985348 -0.097563796 0.1582968 0.2020764
-0.019667447 -0.15541361 -0.085885815 -0.10712621 0.010229597 -0.11235528 -0.1069155 -0.06395867
0.12842205 0.131011 -0.24735296 -0.23118581 -0.049670517 -0.116073295 -0.13698801 -0.090173274
0.11121765 -0.034203306 -0.16191941 -0.017298616 -0.1729901 0.112779364 0.056352552 -0.13824213
0.19398865 -0.03953007 -0.043040752 -0.18746178 0.28748283 -0.10885241 0.06860337 -0.12993325
-0.14334446 0.13294308 0.016866436 -0.0791557 0.088219084 0.05020503 -0.03384732 -0.09842999
-0.07417256 -0.17671461 0.13832185 0.1501369 -0.06448656 -0.007674498 0.18724254 -0.0012514928
-0.0071058944 -0.18317367 -0.0687415 0.22333495 0.18181212 0.21943976 0.07733921 -0.04123069
-0.14778394 -0.061701767 -0.20136699 0.12735508 -0.14499773 -0.06138118 -0.098799676 0.16265728
-0.03946386 -0.24909718 0.045801878 0.18872789 0.053832825 0.06796841 -0.2856694 -0.14279489
0.09493095 0.015577635 0.13453871 0.21417232 -0.06743071 0.10224697 -0.066827476 0.19420314
0.031972744 -0.054378673 -0.23665294 -0.044679713 -0.10216198 0.13711129 0.049136758 0.062628634
0.07350558 -0.22590876 -0.17075382 0.19890207 -0.054195527 -0.17453717 -0.054932624 -0.22362433
-0.17597224 -0.21310657 0.22558045 -0.11598228 -0.2306591 0.033143394 0.05538782 -0.27587244
-0.009931833 -0.13325079 -0.21374995 -0.16692828 0.17717367 0.15044118 -0.09181827 0.17517976
0.18688178 -0.24971145 0.15242489 -0.23432675 -0.10209899 0.048301473 0.024632938 -0.24109514
-0.06700781 0.031033317 0.002271532 0.03461273 0.18487342 -0.20098342 -0.2305206 -0.08256165
-0.11430263 0.15144588 -0.052058533 0.026703492 0.050864622 0.114457764 -0.13607638 0.14027503
-0.13431889 -0.041864447 0.18995877 -0.007882711 0.065536685 0.1130227 0.13222405 0.07377356
0.21248032 0.038875714 0.056828514 -0.15358026 -0.13564882 -0.1284627 -0.10411167 -0.06109077
-0.012526929 -0.25071788 -0.18028536 0.08854668 -0.06407179 -0.06173981 0.22606832 -0.050745845
-0.058027357 0.24942474 -0.057563964 0.00015207256 -0.03287383 -0.20230655 0.13678087 0.2251086
-0.2297656 0.20508566 0.20527282 0.12370673 0.26868933 0.03490176 0.16417503 0.15890771
0.14550537 -0.18570207 0.12993933 0.25783244 0.20782039 -0.19238722 0.28664565 -0.1075601
0.15564823 0.21941982 0.15148427 -0.070207074 -0.17089285 -0.16373311 -0.19932756 -0.19012126
0.114783384 0.17263816 -0.15749708 0.021676127 -0.059253167 0.22743683 0.030208629 -0.15035318
00000000: 12d4 7c3e e706 a53d 7599 6a3e 3ae3 2abe
00000010: c6df 543e c0e9 583e cede 4abe fa7e 1fbe
00000020: 6364 5dbe 72a9 06be 57ff 8bbd 9b4d 2dbe
00000030: 32cb 9f3c 6620 4bbe 3eec f7bd 7b8f b1bc
00000040: d8f9 99bd eb37 23be 2882 3bbe 3e66 3cbd
00000050: ecac 873e 4b8b 33be e026 d9bd 74df 41be
00000060: 279b 70be 5e70 0d3e c30b 6e3e 2437 823d
00000070: 39cb e5bd 6143 223e ff2f f9bd d638 353e
00000080: 0078 7e3a 726c 773d 0835 803d c056 523e
00000090: ec0d 993b 6230 79be ae24 13be aade 5f3d
000000a0: f48b 6a3e eba0 9ebd 22d3 5abe 63fc a23d
000000b0: 6b11 903d 2bc0 d33d 6eb9 7e3e 3b15 6fbd
000000c0: c8e2 253d 985b 093e 4d18 7abd 9364 a83d
000000d0: dcfa e03d 87cf c7bd 8e18 223e 1eed 4e3e
000000e0: a01d a1bc bf24 1fbe e7e4 afbd fd64 dbbd
000000f0: 0a9a 273c 861a e6bd 83f6 dabd c3fc 82bd
00000100: 1281 033e bf27 063e 184a 7dbe f9bb 6cbe
00000110: 5073 4bbd d6b7 edbd 9646 0cbe c4ac b8bd
00000120: 14c6 e33d c418 0cbd 34ce 25be d4b5 8dbc
00000130: 5124 31be def8 e63d efd1 663d 588f 0dbe
00000140: f6a4 463e 48ea 21bd 804b 30bd fbf5 3fbe
00000150: f330 933e 03ee debd ec7f 8c3d 390d 05be
00000160: e4c8 12be 3b22 083e 7b2b 8a3c 621c a2bd
00000170: 35ac b43d caa3 4d3d 7da3 0abd aa95 c9bd
00000180: c8e7 97bd adf4 34be 3ea4 0d3e 7dbd 193e
00000190: 8811 84bd 5b7a fbbb 82bc 3f3e 2109 a4ba
000001a0: 90d8 e8bb e191 3bbe 58c8 8cbd ebb1 643e
000001b0: f52c 3a3e d1b4 603e 0564 9e3d 83e1 28bd
000001c0: ac54 17be feba 7cbd 2633 4ebe 5f69 023e
000001d0: 497a 14be d56a 7bbd 7c57 cabd a18f 263e
000001e0: dba4 21bd 5513 7fbe c09a 3b3d e241 413e
000001f0: cf7f 5c3d 0633 8b3d 4243 92be d338 12be
00000200: 286b c23d 5639 7f3c 84c4 093e fd4f 5b3e
00000210: 1d19 8abd dc66 d13d d8dc 88bd 30dd 463e
00000220: daf5 023d 2cbc 5ebd 2655 72be 1302 37bd
00000230: 4d3a d1bd e766 0c3e a043 493d 7143 803d
00000240: 188a 963d a054 67be 17da 2ebe fcac 4b3e
00000250: 21fc 5dbd dfb9 32be 0801 61bd c7fd 64be
00000260: 1132 34be 9c38 5abe 90fe 663e 1e88 edbd
00000270: e631 6cbe 5ec1 073d 57de 623d 273f 8dbe
00000280: 20b9 22bc e572 08be 44e1 5abe 3fef 2abe
00000290: 046d 353e 410d 1a3e 380b bcbd 5362 333e
000002a0: f05d 3f3e 5cb4 7fbe 4515 1c3e 5af3 6fbe
000002b0: 4619 d1bd c4d7 453d 04cb c93c a5e1 76be
000002c0: 643b 89bd 9539 fe3c fcdd 143b 14c6 0d3d
000002d0: 754f 3d3e 99ce 4dbe 980d 6cbe 1516 a9bd
000002e0: 7f17 eabd a114 1b3e 543b 55bd 48c1 da3c
000002f0: 6c57 503d d568 ea3d 9b57 0bbe 42a4 0f3e
00000300: e48a 09be 0e7a 2bbd 8d84 423e 7c26 01bc
00000310: 1938 863d 7278 e73d be65 073e 9816 973d
00000320: 7194 593e 243c 1f3d 04c5 683d 2544 1dbe
00000330: 86e7 0abe ba8b 03be 8038 d5bd 513a 7abd
00000340: c03d 4dbc 185e 80be ba9c 38be f657 b53d
00000350: 1238 83bd e2e2 7cbd 747e 673e e0da 4fbd
00000360: 18ae 6dbd 3369 7f3e 31c8 6bbd ab75 1f39
00000370: b6a6 06bd 7329 4fbe 4910 0c3e de82 663e
00000380: ac47 6bbe fa01 523e 0a33 523e f459 fd3d
00000390: a691 893e 26f5 0e3d 801d 283e b4b8 223e
000003a0: 5cff 143e af28 3ebe d10e 053e 9d02 843e
000003b0: dece 543e 2801 45be 38c3 923e 7848 dcbd
000003c0: 4062 1f3e 97af 603e b11e 1b3e bac8 8fbd
000003d0: 89fe 2ebe a7a9 27be 861c 4cbe 26af 42be
000003e0: 8d13 eb3d 0fc8 303e ea46 21be 2292 b13c
000003f0: 73b3 72bd 33e5 683e 1678 f73c 2ff6 19be

np.xy_to_z.input_to_hidden.6.bias f4 [32]
0.10899574 0.074679606 0.034762103 0.1881554 -0.10201349 0.06118725 -0.15594856 -0.052955214
0.1409727 0.09403386 -0.07270627 0.22569741 0.08925664 0.036687408 -0.06659603 -0.14054191
-0.15219708 0.16864438 -0.036492106 0.08946914 -0.11345369 0.24167961 -0.17759621 0.12576453
0.023025367 0.17585424 0.23599061 -0.053946592 -0.17663108 -0.00360643 0.090454996 0.06144711
00000000: 2939 df3d 9ff1 983d b562 0e3d cfab 403e
00000010: 73ec d0bd 7b9f 7a3d fbb0 1fbe 91e7 58bd
00000020: 265b 103e d394 c03d 06e7 94bd 391d 673e
00000030: 2fcc b63d 8945 163d 8063 88bd 38ea 0fbe
00000040: 8dd9 1bbe 1db1 2c3e bf78 15bd 993b b73d
00000050: 695a e8bd dc7a 773e c8db 35be 6bc8 003e
00000060: b29f bc3c 2213 343e 86a7 713e 1af7 5cbd
00000070: c7de 34be db59 6cbb 7840 b93d f7af 7b3d
