TaNP/save_model_dir/lastfm_20/gating-film_1741713768/model_last_epoch.pt (torch, 821844 bytes, 46 tensors)

np.item_emb.first_embedding_layer.weight f4 [32, 3846]
0	0x3ceb5dfd	0.02873134
1	0x3bc0f5cd	0.0058886767
2	0x3b3ab3a9	0.0028488433
3	0xba952f1f	-0.0011381841
4	0x3d492abb	0.049113017
5	0x3a2990f3	0.00064684375
6	0x3cc2bda2	0.023772065
7	0x3d184ce6	0.03718271
8	0x3cb5d22a	0.02219494
9	0xbb434c5d	-0.0029800155
10	0x3c9a8777	0.018863423
11	0x3c203be9	0.009779909
12	0x3d040b45	0.03223731
13	0x3d3e7fa2	0.04650844
14	0x3ce5af5e	0.028037723
15	0x3d43c302	0.047793396
16	0x3cc3fdd0	0.023924738
17	0xbc9b970d	-0.018992925
18	0xbc202ef0	-0.009776816
19	0x3d240d0f	0.040051516
20	0xbb2823ce	-0.0025656107
21	0x3cf2024c	0.02954211
22	0x3d70c470	0.058781087
23	0xbbba8011	-0.0056915362
24	0x3d5c0aa7	0.053721096
25	0x3c3c0160	0.011474937
26	0xbb09a8c1	-0.0021005126
27	0x3c8222ef	0.015885798
28	0xbc8aa0e2	-0.016922418
29	0xbb7f28c2	-0.0038934206
30	0x3c506f2f	0.012721821
31	0x3c492ce8	0.012278773
32	0x3cd46089	0.025924938
33	0xbcbf75fe	-0.023371693
34	0x3d78a9b0	0.0607087
35	0x3d0b9343	0.034075987
36	0x3d8b340f	0.06797039
37	0x3d2db569	0.042409334
38	0x3d06cde2	0.03291119
39	0x3c97b168	0.018517211
40	0x3bed48fb	0.007241366
41	0x3d5be3b7	0.053683963
42	0x3ceaeab7	0.028676374
43	0x3cf98e8b	0.030463478
44	0x3cfa001f	0.030517636
45	0x3cd18970	0.02557823
46	0x3d8e3ffa	0.06945796
47	0x3d5fde98	0.05465564
48	0x3d495382	0.049151905
49	0x3bad970d	0.0052975477
50	0x3ccd1d7e	0.025038477
51	0x3ceefc19	0.029172944
52	0x3d88a40d	0.06671915
53	0x3d222df6	0.039594613
54	0x3d63c766	0.055610083
55	0x3d5def33	0.054183196
56	0x3d7f64aa	0.06235186
57	0x3d4c5372	0.049884267
58	0x3cd61705	0.026134023
59	0xbc97a0ec	-0.01850935
60	0x3c9e1ec3	0.019301778
61	0x3d2e232c	0.04251401
62	0x3cbe4343	0.023225432
63	0x3a9f2005	0.001214028
64	0x3c9d0b84	0.01917053
65	0x3bdff8d0	0.0068350807
66	0x3d1a7e22	0.037717946
67	0x3cc6cb7f	0.024266956
68	0x3c1270e0	0.008938044
69	0x3bd20c32	0.006410145
70	0x3d0481e9	0.032350454
71	0xbaf75c2c	-0.0018872074
72	0x3d1458ab	0.036217373
73	0x3d1c28d4	0.038124874
74	0x3d224175	0.039613206
75	0x3d477a64	0.048700705
76	0xbc206423	-0.009789499
77	0x3d06b7be	0.032890074
78	0x3ca9cca3	0.020727461
79	0x3d489ad3	0.048975777
80	0x3d2ce71c	0.04221259
81	0x3d1eba76	0.03875204
82	0x3b684851	0.0035443495
83	0xbc25ae88	-0.010112412
84	0xbc16e840	-0.009210646
85	0xbb35074d	-0.002762276
86	0xbc29d99e	-0.010366825
87	0x3d3a707a	0.045517422
88	0x3c759324	0.014988694
89	0xbc9b3286	-0.01894499
90	0x3d15930a	0.03651718
91	0x3d63559b	0.05550156
92	0xbcc33831	-0.023830505
93	0x3b70cc8d	0.0036743016
94	0xbc987595	-0.018610755
95	0xbb902473	-0.0043988763
96	0x3d3a51f7	0.045488324
97	0xbcc39ea4	-0.023879357
98	0x3d72263c	0.059118494
99	0x3cc70965	0.024296472
100	0x3d22b751	0.039725605
101	0xba0e0e74	-0.0005419024
102	0x3d777b4a	0.060420312
103	0x3c5069bd	0.0127205225
104	0x3d2b13b7	0.04176685
105	0x3d5bf90d	0.05370431
106	0x3cfb5eaf	0.030684797
107	0x3d325042	0.04353357
108	0xbc8ab2bf	-0.016930936
109	0x3d4ac1ba	0.04950116
110	0x3ccf4124	0.025299616
111	0x3d6e50c7	0.058182504
112	0x3cca1c31	0.024671646
113	0x3a8c2527	0.0010692225
114	0x3c38c235	0.011276771
115	0x3cedf049	0.029045241
116	0x3c34f755	0.011045297
117	0x3d296dc4	0.041364446
118	0x3d43f4af	0.04784077
119	0x3c0169ce	0.007898761
120	0xbcc09e16	-0.023512881
121	0xbc391e6b	-0.011298756
122	0xbbac28b8	-0.0052538775
123	0xba47185a	-0.0007594876
124	0x3d02c981	0.03193045
125	0x3c3f249c	0.011666443
126	0x3d1c4992	0.0381561
127	0x3d19ea3b	0.037576895
128	0x3d516b6b	0.051127832
129	0x3bd71e88	0.006564919
130	0x3d0e5b5f	0.034755107
131	0x3d54ae2f	0.051923927
132	0x3d5d4a26	0.05402579
133	0x3cca852d	0.024721706
134	0x3d18e402	0.03732682
135	0x3d203e66	0.039122008
136	0x3d40ada2	0.04704059
137	0x3d640ac2	0.055674322
138	0xba962bd9	-0.0011457159
139	0xbc305353	-0.010762054
140	0x39af5e80	0.0003344901
141	0x3d0deabc	0.03464769
142	0x3b9579f8	0.004561659
143	0x3d047f4d	0.032347966
144	0x3c09425e	0.00837764
145	0x3c02367d	0.007947561
146	0x3c6933ce	0.014233543
147	0x3c7c6300	0.015404463
148	0x3bc891c8	0.006120894
149	0x3cb9ab1a	0.022664595
150	0xbbfb93fa	-0.0076775523
151	0x3c664326	0.014054095
152	0x3c963bc4	0.018339045
153	0xbb010d9e	-0.0019691954
154	0x3d78b835	0.06072255
155	0x3d4b60bd	0.049652804
156	0x3d49a75c	0.049231872
157	0x3d5d946f	0.054096635
158	0x3d0eeb8a	0.034892596
159	0x3d777452	0.060413666
160	0x3cee09cf	0.029057411
161	0x3cd6aa34	0.026204206
162	0xbb7695ff	-0.0037626026
163	0x3cb59130	0.022163957
164	0x3d08d66a	0.033407606
165	0x3d889be7	0.06670361
166	0xbcc2b539	-0.023768054
167	0x3cdde31b	0.027085831
168	0xbc9f4963	-0.019444173
169	0x3c413cd5	0.011794289
170	0xbbccc65c	-0.006249232
171	0x3cb9a040	0.022659421
172	0xbcbcac23	-0.0230313
173	0xbcc48a5d	-0.023991758
174	0xbcc58cdf	-0.024115024
175	0xb90610e1	-0.00012785524
176	0x3c22731d	0.00991514
177	0x3c3eccdb	0.011645521
178	0xbcaa4458	-0.020784542
179	0xbcc35301	-0.02384329
180	0x3b7a3e97	0.003818428
181	0x3c323c80	0.010878682
182	0x3bb6ef09	0.0055826944
183	0x3cd143a8	0.025544956
184	0x3d3c08c7	0.04590681
185	0x3d78bf80	0.060729504
186	0x3b7fab99	0.0039012192
187	0x3d87a00e	0.06622325
188	0x3b84e755	0.0040558972
189	0xbc2e5ba4	-0.010641966
190	0x3d5bfa80	0.053705692
191	0x3c36f58b	0.01116694
192	0x3d57f380	0.052722454
193	0xbc6fcc89	-0.014636167
194	0x3c17a61a	0.00925591
195	0x3b380381	0.002807826
196	0x3d5448b9	0.051827166
197	0x3d395582	0.045247562
198	0x3c9b2cc4	0.018942244
199	0x3c351e83	0.011054638
200	0x3d223072	0.039596982
201	0xbcbab1cd	-0.02278986
202	0x3c81af88	0.01583077
203	0x3c921e24	0.017836638
204	0xb75918a0	-1.2939941e-05
205	0x3c6a9550	0.014317825
206	0x3d192faf	0.03739899
207	0xbcc2069d	-0.023684794
208	0x3d09a5a3	0.03360523
209	0x3d2a4e16	0.041578375
210	0x3d206287	0.039156463
211	0x3cd473e8	0.025934175
212	0x3ce97741	0.028499248
213	0x3b54a473	0.0032446652
214	0x3c6a82f0	0.0143134445
215	0x3c1d646a	0.00960646
216	0x3c87baf1	0.016568633
217	0x3d2f8ec3	0.042860758
218	0x3c20d3e4	0.009816144
219	0x3b040f47	0.0020150708
220	0x3c55387a	0.013013953
221	0x3d313259	0.043260906
222	0x3c5e0ed1	0.013553337
223	0x3cfb0853	0.030643618
224	0x3d1cd8a7	0.038292553
225	0xbc920c51	-0.017828139
226	0x3be4895c	0.0069743823
227	0x3d09945b	0.03358875
228	0x3c9831d2	0.018578444
229	0x3bb4c72d	0.0055169077
230	0x3c3c5eba	0.011497194
231	0x3c447643	0.011991086
232	0x3cadf660	0.021235645
233	0x3d07b938	0.033135623
234	0x3c57fa60	0.013182253
235	0x3d615b38	0.055018634
236	0x3c9fa0a6	0.019485783
237	0x3cf9a1b4	0.030472614
238	0x3cfde711	0.03099397
239	0x3cb5caac	0.022191368
240	0xbbe8a0d1	-0.007099249
241	0xbc7602b2	-0.015015291
242	0x3d4909a8	0.049081475
243	0xbad3a5fe	-0.0016147492
244	0x3aa4ece7	0.001258281
245	0x3ce274d7	0.027643604
246	0xbb78178a	-0.0037855827
247	0x3bed3a69	0.007239629
248	0xbc801394	-0.015634336
249	0xbc57da97	-0.0131746745
250	0x3caae509	0.020861166
251	0xbc054f95	-0.00813665
252	0x3d3310bf	0.043717142
253	0x3d3c2a44	0.045938745
254	0x3cf45516	0.029825728
255	0x3d3003d3	0.042972397

np.item_emb.first_embedding_layer.bias f4 [32]
0	0x3cc1a494	0.023638047
1	0x3d26d2c6	0.040728353
2	0x3d6b0846	0.057380937
3	0xbc35f487	-0.011105663
4	0x3cfb8843	0.030704623
5	0x3d44ee6e	0.048078947
6	0x3d18d5c7	0.03731325
7	0x3caf7001	0.021415712
8	0xbc840b14	-0.016118564
9	0x3d4cbba4	0.049983636
10	0xbc8328d2	-0.016010676
11	0x3d56afb4	0.052413657
12	0xbc2622a0	-0.010140091
13	0x3d55abde	0.05216586
14	0x3d0e564a	0.03475026
15	0xbc36aef3	-0.01115011
16	0x3d4687c8	0.048469335
17	0x3d062e37	0.032758918
18	0x3d0c415f	0.03424203
19	0x3d0ced50	0.034406006
20	0x3d155fc5	0.036468286
21	0x3d02c44d	0.03192549
22	0xbc4b7aec	-0.012419444
23	0x3cbcfb46	0.023069035
24	0x3cbb2501	0.022844793
25	0xbc282cc9	-0.010264584
26	0xbc7eb7d3	-0.015546757
27	0x3ce8aadf	0.02840179
28	0x3d25ca74	0.040476277
29	0x3d42a069	0.04751626
30	0x3cf86ada	0.030324388
31	0x3d351798	0.044211954

np.item_emb.second_embedding_layer.weight f4 [16, 32]
0	0xbbf43a8f	-0.00745327
1	0x3d62faf1	0.055415098
2	0xbc098bcc	-0.008395147
3	0xbe1ddad3	-0.15415506
4	0x3d4a5a82	0.04940272
5	0xbd2832c8	-0.041064054
6	0x3e31f1ad	0.17377348
7	0xbda32d65	-0.07967643
8	0x3d026cf1	0.031842176
9	0x3da93fa6	0.08264093
10	0x3dbb5916	0.09147851
11	0xbaeeae83	-0.0018209968
12	0x3d84dc9c	0.064873904
13	0x3cdb16d3	0.026744282
14	0x3db00ef4	0.08596602
15	0x3dc5bf88	0.09655672
16	0x3d860b32	0.06545104
17	0x3d867579	0.06565375
18	0x3d914590	0.07093346
19	0x3d9c0d72	0.07619752
20	0x3d8fc0be	0.070191845
21	0xbdf64420	-0.120247126
22	0x3ce63006	0.028099071
23	0xbcff430d	-0.031159902
24	0xbe2f8d00	-0.17143631
25	0x3d0afea1	0.03393424
26	0x3dcb69c6	0.09932284
27	0x3e2da301	0.16956712
28	0xbdcd5008	-0.100250304
29	0xbd8bc2eb	-0.06824287
30	0x3e21a5c0	0.15785885
31	0x3d8de2b2	0.06928004
32	0x3d8223fa	0.06354518
33	0x3dee9516	0.1164953
34	0x3ce63713	0.028102433
35	0xbe0c6ff1	-0.13714577
36	0x3ddfabe4	0.109214574
37	0x3da1685d	0.07881234
38	0x3e09c626	0.13454494
39	0x3d8a3db3	0.067500494
40	0xbd91ff34	-0.07128754
41	0xbd838781	-0.0642233
42	0xbd9003b0	-0.07031953
43	0x3d81213d	0.06305168
44	0x3da8149f	0.08207058
45	0x3d6c8438	0.05774328
46	0x3e61ecb4	0.22062951
47	0xbced6bed	-0.028982127
48	0xbcbc617a	-0.0229957
49	0x3df1feca	0.11816175
50	0x3dede956	0.11616771
51	0x3e2bf639	0.16793145
52	0x3ca72831	0.020404907
53	0x3cd0d19f	0.02549058
54	0xbe223fb7	-0.15844618
55	0x3e06664c	0.1312496
56	0xbc5d48a3	-0.0135060875
57	0xbdc6f7ad	-0.09715209
58	0xbdcc41f4	-0.09973517
59	0x3e2abc0d	0.16673298
60	0x3e00afcc	0.12567061
61	0x3ea14345	0.31496635
62	0x3d8d06e3	0.06886079
63	0x3db3dcb9	0.08782334
64	0x3d9f27bc	0.077712506
65	0xbcd0c365	-0.025483796
66	0xbd472633	-0.048620414
67	0xbd7d7c89	-0.061886344
68	0xbd4e3b82	-0.05034972
69	0xbc6a5394	-0.014302153
70	0x3c3eb95e	0.011640875
71	0xbd9534ce	-0.07285462
72	0x3db30cd4	0.08742681
73	0xbc8fe35b	-0.017564466
74	0x3d3bb5a6	0.04582753
75	0x3c8364ac	0.016039215
76	0xbe068bc3	-0.13139252
77	0x3c992649	0.018695014
78	0x3dec6257	0.11542194
79	0x3df90ee4	0.12161043
80	0x3d5e0f41	0.054213766
81	0xbe01648d	-0.12636013
82	0x3dab3781	0.08360196
83	0x3dd656b6	0.104657575
84	0x3dc2a1ac	0.09503493
85	0xbd80893c	-0.062761754
86	0x3da27b04	0.079336196
87	0x3d4c55e7	0.04988661
88	0x3d368e80	0.044569492
89	0x3df6a14a	0.12042482
90	0xbe192125	-0.1495405
91	0x3df1999a	0.11796875
92	0x3de6ce3d	0.112698056
93	0x3e1e0b38	0.15433967
94	0xbd9ebabb	-0.0775046
95	0x3e2187f7	0.15774523
96	0x3d91e436	0.07123606
97	0x3e218c3f	0.15776156
98	0x3dcc84d2	0.09986271
99	0xbc49fece	-0.012328817
100	0xbd435adb	-0.04769407
101	0xbd8bcd8c	-0.06826314
102	0xbe02eec7	-0.12786399
103	0xbd53ea36	-0.051737033
104	0xbe2a777b	-0.1664714
105	0x3dfe4bb3	0.12416782
106	0xbd9313a0	-0.071814775
107	0xbc4ec1f9	-0.012619489
108	0x3e2e7d62	0.17040017
109	0x3acad8d9	0.0015476003
110	0xbd9f77ef	-0.077865474
111	0xbde8dd22	-0.11370303
112	0x3c95773b	0.01824533
113	0xbe017a0e	-0.12644216
114	0x3e093df9	0.13402547
115	0xbdfb6e18	-0.12276858
116	0x3e1a3c73	0.15062122
117	0xbd01ef69	-0.03172246
118	0xbd159c76	-0.036526166
119	0x3cd2dddd	0.025740558
120	0x3d025884	0.031822696
121	0x3e1adc32	0.1512306
122	0xbe12278b	-0.14272897
123	0x3dbb3a3d	0.091419674
124	0x3d8caf2a	0.068693474
125	0x3c41fc13	0.011839884
126	0xbd2a8650	-0.041631997
127	0x3d27df71	0.040984575
128	0x3dc447d6	0.09584014
129	0xbdb5d3b1	-0.088782676
130	0x3dd13641	0.10215426
131	0xbe0d49ed	-0.13797732
132	0x3d44fef7	0.048094716
133	0x3d014ab8	0.031565398
134	0x3ccef131	0.025261493
135	0x3d29f858	0.041496605
136	0xbd8d6cf0	-0.06905544
137	0xbd8c7330	-0.06857908
138	0x3dce6d2f	0.10079419
139	0xbe08dd91	-0.13365771
140	0x3e0464ff	0.12929152
141	0x3e329037	0.17437826
142	0x3b65d4f1	0.003506955
143	0xbceed375	-0.029153565
144	0x3e00aad1	0.12565161
145	0xbd436c2e	-0.04771059
146	0xbdeff373	-0.11716356
147	0xbe227ccc	-0.15867919
148	0xbd848f53	-0.064726494
149	0xbe1a4a5c	-0.15067428
150	0xbccee24c	-0.025254391
151	0xbd438707	-0.047736194
152	0xbc7d9bfb	-0.015479083
153	0x3e0b6441	0.13612463
154	0x3ce533ad	0.027978742
155	0xbdb34db4	-0.08755055
156	0x3e198de5	0.14995535
157	0xbd82c61a	-0.06385441
158	0xbe1330b0	-0.14374042
159	0xbd4aa029	-0.049469147
160	0xbc20c9ec	-0.009813767
161	0x3dd5a9d9	0.104327865
162	0xbe2b6fe5	-0.16741903
163	0x3daa3487	0.083108
164	0x3d630992	0.05542905
165	0x3de421d6	0.11139266
166	0xbd4414ef	-0.047871526
167	0xbda3892a	-0.07985146
168	0xbe238983	-0.15970425
169	0xbc52354d	-0.012830091
170	0xbe2b5ad2	-0.16733864
171	0xbe008841	-0.12551977
172	0x3d1a561f	0.037679788
173	0xbde68752	-0.11256279
174	0x3bf2798b	0.007399743
175	0xbdbfa20a	-0.093570784
176	0xbe21db91	-0.15806414
177	0x3e274070	0.16333175
178	0xbc177bdb	-0.009245838
179	0xbdedacb7	-0.11605208
180	0x3e281e93	0.16417913
181	0x3e0af8e9	0.13571514
182	0x3e057f2f	0.13036798
183	0xbd959ea3	-0.07305648
184	0xbdcd5ff9	-0.10028071
185	0x3c6da0c0	0.014503658
186	0xbe17c083	-0.14819531
187	0xbd5cee9f	-0.053938504
188	0xbd8b8f28	-0.06814414
189	0xbe28fbc5	-0.16502292
190	0xbd7285be	-0.059209578
191	0xbd6e795e	-0.058221214
192	0x3e08d7ef	0.13363622
193	0x3e2eea49	0.1708156
194	0xbd764fda	-0.060134746
195	0xbbc87002	-0.006116868
196	0x3d1c88da	0.03821645
197	0x3e46cdb0	0.19414401
198	0xbd387323	-0.045031678
199	0x3e67e049	0.22644152
200	0x3de1b7dc	0.110213965
201	0xbd265ffa	-0.040618874
202	0x3dba9223	0.091099046
203	0xbc5af9ec	-0.01336525
204	0xbd5d99a9	-0.05410162
205	0x3dad2889	0.08454997
206	0x3cf90acf	0.030400662
207	0xbdc2a23d	-0.09503601
208	0x3cad6f15	0.021171132
209	0x3ddf4828	0.109024346
210	0x3b03192c	0.0020004017
211	0xbd438afb	-0.047739964
212	0xbd6c04f0	-0.057621896
213	0x3df0c2af	0.11755883
214	0xbd32203f	-0.043487784
215	0x3e17e02c	0.14831609
216	0x3e1e7229	0.15473236
217	0xbe122b94	-0.14274436
218	0xbcf50eb2	-0.029914234
219	0xbdab3aca	-0.083608225
220	0x3dad93c1	0.084754474
221	0x3c1a5275	0.009419073
222	0x3e470ec0	0.1943922
223	0x3e1c1a55	0.1524442
224	0x3df16537	0.11786883
225	0x3dcd2568	0.100169
226	0x3dc68237	0.09692805
227	0xbde8dd8b	-0.11370381
228	0xbd0a9a0c	-0.033838317
229	0x3e39e240	0.18152714
230	0x3e1516d1	0.14559485
231	0x3e36add2	0.17839745
232	0x3c0367b4	0.00802033
233	0x3e5f1956	0.21787009
234	0xbd2a6ae4	-0.041605845
235	0x3d8affb4	0.06787053
236	0xbbc6f18c	-0.006071275
237	0x3d8e15e4	0.06937769
238	0x3e518e5b	0.2046446
239	0x3e09e4a6	0.13466129
240	0xbb33b6e1	-0.0027422237
241	0x3e5b5fc8	0.21423256
242	0x3d972446	0.073799655
243	0x3d970c88	0.07375437
244	0x3e07389c	0.13205189
245	0x3e59b7f7	0.21261583
246	0xbdecb062	-0.1155708
247	0x3e4c675a	0.199613
248	0x3e10ec62	0.14152673
249	0xbe0106c4	-0.12600237
250	0xbe23bf46	-0.15990934
251	0x3e0e6eff	0.13909529
252	0xbd9f78cf	-0.07786714
253	0xbda66499	-0.08124656
254	0x3e3c966d	0.18416758
255	0x3e38d902	0.18051532

np.item_emb.second_embedding_layer.bias f4 [16]
0	0xbdbcbd5b	-0.09215804
1	0x3ddc205e	0.10748361
2	0xbdd9f842	-0.106430545
3	0xbd4a591b	-0.049401384
4	0xbe23a711	-0.159817
5	0xbd320f05	-0.043471355
6	0x3d995c80	0.07488346
7	0x3d324979	0.0435271
8	0x3e4318cb	0.19052427
9	0xbe18197c	-0.14853472
10	0x3db998ad	0.09062324
11	0x3d779bf7	0.060451474
12	0x3e064606	0.1311265
13	0xbe2c170e	-0.1680567
14	0xbddb0975	-0.10695163
15	0x3ca0b764	0.019618697

np.user_emb.first_embedding_layer.weight f4 [32, 1872]
0	0xbb746252	-0.0037290049
1	0x3cb4b708	0.022059932
2	0x3c67e06e	0.014152629
3	0xbc5837e1	-0.013196916
4	0x3c8a2392	0.016862664
5	0x3c3a64cd	0.011376572
6	0x3c5aa247	0.013344354
7	0x3aafeab9	0.0013421393
8	0x3bccbac7	0.0062478515
9	0xbc42b281	-0.011883379
10	0x3c490cfa	0.01227116
11	0xbc473d2c	-0.012160581
12	0x3c266af5	0.0101573365
13	0xbbf4a762	-0.0074662426
14	0x3c553cb4	0.013014961
15	0x3c689b87	0.014197237
16	0xbc01bdbd	-0.007918772
17	0xbc5bffc3	-0.013427678
18	0xbc2a1a26	-0.010382211
19	0xbc98b541	-0.018641116
20	0x3c238bca	0.009982059
21	0xbc6152de	-0.013752667
22	0x3c13a21b	0.009010817
23	0xbcb0281d	-0.021503503
24	0xbabd30a1	-0.0014434048
25	0x3c172f54	0.0092275925
26	0xbbb9fc4c	-0.005675828
27	0x3b9a5faf	0.0047111134
28	0x3c8d325a	0.017235924
29	0xbaa156e2	-0.0012309218
30	0x3c51d357	0.012806735
31	0xbb9fcf38	-0.0048769973
32	0x3c885152	0.016640339
33	0xbc8697cb	-0.016429802
34	0xbc4de34d	-0.0125664
35	0x3c992104	0.0186925
36	0x3bfc3320	0.0076965243
37	0x3c8b2c05	0.016988764
38	0xbb058679	-0.0020374341
39	0xbca6e931	-0.020374866
40	0x3caf786b	0.021419724
41	0x3c9ddb56	0.019269627
42	0x3bd54dba	0.00650951
43	0xbcb5a0c9	-0.022171395
44	0xbbf54f92	-0.007486292
45	0x3caec26d	0.021332944
46	0x3c099f23	0.008399758
47	0xbc3c19d9	-0.011480772
48	0x38cd4614	9.788215e-05
49	0xbba506b5	-0.0050362
50	0xbb212224	-0.0024587
51	0xbba7b37c	-0.0051178318
52	0xbc3f3546	-0.011670416
53	0x3c1c5a38	0.009542994
54	0x3ca9d107	0.020729555
55	0x3c8ae9d7	0.016957207
56	0x3cb1130b	0.021615526
57	0xbb5be61e	-0.0033553909
58	0xbbe4edc3	-0.006986351
59	0xbc923e79	-0.017852055
60	0xbc6b1209	-0.014347562
61	0x3c034355	0.008011659
62	0x3be85b58	0.007090967
63	0x3cb28476	0.021791678
64	0x3a327dfb	0.00068089337
65	0x3ba978f8	0.0051718913
66	0x3c26f569	0.010190346
67	0xbc4be6bb	-0.012445147
68	0x3c61f825	0.013792072
69	0x3baa4f75	0.0051974603
70	0x3d121f2e	0.035674267
71	0x3b86495c	0.0040981006
72	0xbcb7ea46	-0.022450577
73	0x3cbc6471	0.022997113
74	0x3c0be81d	0.008539227
75	0x3c752e06	0.014964586
76	0x3b685272	0.0035449532
77	0x3c6498c5	0.013952439
78	0x3c2182a4	0.009857807
79	0x3c6ab23c	0.014324721
80	0x3c9eb010	0.019371063
81	0x3ce652a5	0.02811558
82	0x3b91eea4	0.004453497
83	0x3c636263	0.013878438
84	0xbc1526a3	-0.00910345
85	0x3cacae9d	0.021079356
86	0x3c5555cb	0.013020943
87	0x3ca30cb2	0.019903515
88	0x3c502a56	0.012705406
89	0x3c8b4888	0.017002359
90	0x3c8c6aa5	0.017140696
91	0xbc21dba1	-0.009879024
92	0x3d10f208	0.03538707
93	0xbbeded39	-0.007260945
94	0xbc008469	-0.007844069
95	0x3c89c7e0	0.01681894
96	0xbbdc7506	-0.0067278175
97	0xbb1f7d66	-0.0024336218
98	0xbc56cec5	-0.013110821
99	0x3caac3a9	0.020845251
100	0x3ccfe4c6	0.025377642
101	0xbaacef74	-0.0013193921
102	0x3ca7568e	0.020427015
103	0x3d0a927e	0.033831112
104	0x3c99e9e4	0.018788286
105	0x3c32eccc	0.010920715
106	0xbcaa3b55	-0.020780245
107	0xbc3364b1	-0.0109493
108	0xbc8f8b76	-0.017522555
109	0x3bdcbe26	0.0067365346
110	0xbbe7fd80	-0.00707978
111	0xbcaaf9bd	-0.020871038
112	0x3b9c5d80	0.0047718883
113	0x3cb058cc	0.021526717
114	0x3cb32357	0.021867437
115	0x3b08b95a	0.0020862431
116	0x3b023216	0.001986628
117	0x3c9d573a	0.019206632
118	0xba93d4ca	-0.0011278626
119	0x3ca5c202	0.020234112
120	0xbb38e32e	-0.0028211582
121	0xbaa5b2f1	-0.001264183
122	0x3c785323	0.01515654
123	0x3c532c1c	0.012888934
124	0x3c7a3c36	0.0152731445
125	0xbc80e1d1	-0.015732678
126	0x3cbb4b99	0.022863196
127	0xbc4e880c	-0.012605678
128	0x3b994a20	0.004678026
129	0xbb9bfa7e	-0.0047600856
130	0xbca4e3f6	-0.020128231
131	0xbc8ccd90	-0.017187864
132	0x3ca32954	0.019917168
133	0xbb926e0f	-0.0044686864
134	0xbbd7beb6	-0.006584014
135	0x3c3cb7ab	0.011518399
136	0x3b851bf9	0.0040621725
137	0xbcb96a77	-0.022633774
138	0xbcaa3801	-0.020778658
139	0xbc2585aa	-0.010102669
140	0x3a2a06f4	0.00064860214
141	0x3ca28ed7	0.019843502
142	0xbbc9a50c	-0.0061537083
143	0x3c5daf7b	0.013530607
144	0x3c2055aa	0.009786049
145	0xbb11da7d	-0.0022255473
146	0x3c99b0d6	0.01876108
147	0xbc700b5a	-0.014651144
148	0x3c0bf489	0.008542188
149	0x3bdfbd06	0.0068279533
150	0x3c19b167	0.009380675
151	0x3cf41866	0.02979679
152	0x3b8afead	0.0042417855
153	0xbbafe5a9	-0.005367954
154	0xbbb331c6	-0.00546858
155	0xbcbae469	-0.022813993
156	0xbcb7339d	-0.022363478
157	0x3ca9f68e	0.02074745
158	0xbc8a19e0	-0.016858041
159	0xb8b67c1c	-8.7015535e-05
160	0x3b3a1247	0.0028392242
161	0x3c212cb4	0.009837318
162	0x3c90ae18	0.01766114
163	0xbc4d5239	-0.01253181
164	0xbadefdad	-0.0017012857
165	0x3c2e54c9	0.010640332
166	0x3d009c80	0.03139925
167	0x3b5176c5	0.0031961661
168	0xbb37884f	-0.002800483
169	0x3a24fbcc	0.0006293624
170	0x3b948373	0.0045322715
171	0xbc4ae5cd	-0.01238389
172	0xbbb4c743	-0.005516918
173	0x3be24694	0.006905386
174	0x3c8e4bbb	0.017370095
175	0x3c4092bc	0.011753734
176	0x3a72ff68	0.0009269626
177	0x3c36ca32	0.011156606
178	0x3c227fcc	0.009918164
179	0x3c359572	0.011082994
180	0xbc26e6c1	-0.010186852
181	0x3bca347b	0.006170807
182	0xbca9bd6d	-0.020720208
183	0x3cb4fdb2	0.022093628
184	0xbca11502	-0.019663338
185	0x3cb0d149	0.02158417
186	0x3bb021f6	0.005375142
187	0xbc52874e	-0.012849642
188	0x3b9c796b	0.0047752163
189	0x39b396a9	0.0003425379
190	0xbc2d193d	-0.010565099
191	0xbc8ef6f5	-0.017451743
192	0x3c2773c0	0.010220468
193	0x3c4640b6	0.012100389
194	0xbc2910c2	-0.010318937
195	0xbb7ded31	-0.0038746113
196	0x3cac1a33	0.021008587
197	0xbc3877ea	-0.0112590585
198	0x3cafd22d	0.021462524
199	0xbc78472a	-0.015153686
200	0xbc10e35e	-0.008843271
201	0xbb781aa6	-0.003785768
202	0xbba72df6	-0.0051019145
203	0xbc7499bc	-0.014929231
204	0xbba08338	-0.004898455
205	0x3c8d3bba	0.017240394
206	0x3c9a9503	0.018869882
207	0x3c96c915	0.01840643
208	0x3b90aa8f	0.0044148634
209	0xbaef2d61	-0.0018247777
210	0x3ca8985f	0.020580469
211	0x3c8a2382	0.016862635
212	0x3af719bb	0.0018852273
213	0x3c63a567	0.013894415
214	0x3bbf3f28	0.0058363862
215	0xbbb09c87	-0.0053897533
216	0x3b18649e	0.0023253332
217	0xbc58281b	-0.013193156
218	0xbb8ab974	-0.0042335335
219	0x3b545d0a	0.0032404088
220	0xbc6a26ef	-0.014291509
221	0x3ca7fa01	0.020504953
222	0x3c8a7bfe	0.016904827
223	0x3c720e5e	0.014773933
224	0xbc164669	-0.0091720605
225	0xbc8f6adb	-0.017507007
226	0xbc9c862c	-0.019106947
227	0x3b4c712a	0.003119538
228	0x3b92bda3	0.004478173
229	0x3cb8ed81	0.022574188
230	0x3cae200a	0.021255512
231	0xbb44b79d	-0.0030016669
232	0xba7b581d	-0.000958802
233	0xbb568d71	-0.0032738114
234	0x3bfb47c5	0.0076684677
235	0xbca6e220	-0.020371497
236	0x3c9434a2	0.018091504
237	0xbc9e88d9	-0.019352363
238	0x3d0899ee	0.033349924
239	0x3c0aa6d0	0.008462623
240	0x3c881d19	0.016615437
241	0xbc15d066	-0.009143924
242	0x3bee8257	0.0072787213
243	0xb9feb502	-0.00048581517
244	0x3c19ea16	0.009394189
245	0x3c022693	0.007943767
246	0xbc16af63	-0.009197089
247	0x3bcf09c4	0.006318303
248	0xba371622	-0.0006984194
249	0xbc656425	-0.014000927
250	0xbc822670	-0.015887469
251	0xbc9663ee	-0.018358197
252	0x3b2b2545	0.0026114744
253	0xbc9069ca	-0.01762857
254	0x3b095eca	0.002096104
255	0xbb991fb7	-0.00467297

np.user_emb.first_embedding_layer.bias f4 [32]
0	0x3d3994a6	0.045307778
1	0x3d0f080f	0.034919795
2	0x3d811cad	0.063042976
3	0xbc92b99b	-0.01791077
4	0x3cea933d	0.028634662
5	0x3c825b3c	0.015912645
6	0x3d62b7ca	0.055351056
7	0x3c672a6c	0.014109235
8	0x3d513795	0.051078398
9	0x3d1fa34f	0.038974103
10	0xba95ec0f	-0.0011438149
11	0x3d672d10	0.05643946
12	0xbcbbe49e	-0.022936162
13	0x3ceeaac3	0.02913416
14	0x3d3202ca	0.04345969
15	0x3cb3042e	0.021852579
16	0x3cc97cc8	0.024595633
17	0x3cda6d48	0.026663437
18	0x3cee536b	0.029092511
19	0x3d3fd21f	0.046831246
20	0xbcb8cec2	-0.022559527
21	0x3d3f1c90	0.0466581
22	0x3d2395d3	0.039937805
23	0x3d25277f	0.04032087
24	0x3d3514fe	0.044209473
25	0x3ce16194	0.02751235
26	0xbc8fda0a	-0.017560024
27	0x3d2836f0	0.041068017
28	0xbbd1ae35	-0.006398941
29	0xbc508e69	-0.012729266
30	0xbc87f869	-0.016597943
31	0xbc90f338	-0.0176941

np.user_emb.second_embedding_layer.weight f4 [16, 32]
0	0xbdae83a7	-0.085212044
1	0xbc44120b	-0.011967192
2	0xbddfb62d	-0.10923419
3	0x3dde201e	0.108459696
4	0xbdd6f9c8	-0.10496861
5	0xbe07acb2	-0.13249472
6	0xbd94caf4	-0.07265273
7	0xbe32229b	-0.17396013
8	0xbe3d6523	-0.18495612
9	0x3b8a008e	0.004211492
10	0x3da19e6d	0.078915454
11	0x3dd568a8	0.10420352
12	0xbd8238c2	-0.06358482
13	0xbdd2415d	-0.10266373
14	0xbe1e241d	-0.15443464
15	0x3e005024	0.12530571
16	0xbd990ea9	-0.07473499
17	0xbe3f0b47	-0.18656646
18	0x3e0d8d61	0.13823463
19	0xbdc98868	-0.098404706
20	0x3cabec52	0.02098671
21	0x3dd2471c	0.10267469
22	0xbe171984	-0.14755827
23	0x3d222074	0.03958173
24	0x3e0fc320	0.14039278
25	0xbe139b15	-0.14414628
26	0xbc194928	-0.009355821
27	0x3dcb05d0	0.09913218
28	0x3e1ded96	0.15422663
29	0xbe30aaf1	-0.17252709
30	0x3e076a0f	0.13224052
31	0xbcb26203	-0.021775251
32	0x3e4b2fe7	0.19842492
33	0xbdeb2c55	-0.11483065
34	0xbd805c2f	-0.062675826
35	0x3d88021f	0.066410296
36	0x3d5252f6	0.05134865
37	0x3d526dcb	0.051374238
38	0x3e08fb41	0.13377096
39	0x3d802e0b	0.06258782
40	0xbd3f0106	-0.046631835
41	0x3e1466c3	0.14492325
42	0x3e4ccfab	0.20001094
43	0x3e36cff0	0.1785276
44	0xbd58b016	-0.052902304
45	0x3d3c3d37	0.045956817
46	0xbd84d2aa	-0.064854935
47	0x3d75cc90	0.06000954
48	0x3e4a9e3d	0.19786926
49	0x3d15f8b6	0.036614142
50	0xbbf2dfda	-0.007411939
51	0xbd4173db	-0.04722963
52	0xbe0303cc	-0.12794417
53	0xbd8c9cad	-0.06865821
54	0x3e05a219	0.13050117
55	0x3db36bc5	0.0876079
56	0xbda8811c	-0.08227751
57	0x3e29b2d3	0.16572122
58	0x3b20d822	0.0024542888
59	0x3e1e00d6	0.15430006
60	0xbdd7cf7d	-0.10537622
61	0x3cd9dfec	0.026596032
62	0x3d8b58a0	0.06804013
63	0xbc2b8161	-0.010467858
64	0xbe2a3b89	-0.16624273
65	0xbdf8b7e9	-0.12144453
66	0x3e2f4ed8	0.1711992
67	0x3c154198	0.009109877
68	0x3e019306	0.12653741
69	0x3e079e3e	0.13243958
70	0x3df27a0f	0.11839687
71	0xbd8f2d49	-0.06991059
72	0xbdfbf3d5	-0.12302367
73	0x3d7986ad	0.060919452
74	0x3df32c2a	0.11873658
75	0xbe04a1c1	-0.12952329
76	0x3e0e4e35	0.13897021
77	0x3cc6d868	0.024273112
78	0x3dece851	0.11567748
79	0x3e1f892b	0.15579669
80	0xbd8d97cc	-0.069137186
81	0xbd5411f9	-0.051774953
82	0x3dab6543	0.083689235
83	0xbc8d6f35	-0.017264942
84	0xbe076fb5	-0.13226207
85	0x3d94b46f	0.072609775
86	0x3dff71c9	0.12472875
87	0xbc96df7a	-0.018417109
88	0xbe180ec7	-0.14849387
89	0x3e04e762	0.1297889
90	0xbd3fb158	-0.046799988
91	0xbcb82d99	-0.02248268
92	0x3da559ed	0.080737926
93	0x3e0e450f	0.13893531
94	0x3dcfd99b	0.10148927
95	0xbdb0aab0	-0.08626306
96	0xbe0a8887	-0.13528644
97	0x3ddee795	0.108840145
98	0xbcd496a6	-0.025950741
99	0x3d6ed83b	0.058311682
100	0xbc8fbabe	-0.0175451
101	0xbdb5030d	-0.088384725
102	0xbd5b8582	-0.05359412
103	0xbd8f9382	-0.07010557
104	0xbe086ef0	-0.1332357
105	0x3c40f97c	0.011778232
106	0x3da17cbe	0.07885121
107	0x3e138e5a	0.14409772
108	0xbe2b1675	-0.16707785
109	0x3dfcedf7	0.12350076
110	0x3d8f90de	0.07010053
111	0xbdb19530	-0.086710334
112	0xbd9cb882	-0.076523796
113	0x3d4ce983	0.05002738
114	0x3e2e69cb	0.17032544
115	0xbd969e1a	-0.07354374
116	0xbdeb311a	-0.11483975
117	0x3dab134f	0.08353292
118	0xbe21515f	-0.15753697
119	0x3cfe56e1	0.031047286
120	0xbce134ab	-0.027490934
121	0x3e292698	0.16518629
122	0xbda24045	-0.07922415
123	0x3d5a16f1	0.053244535
124	0xbe0d4ab7	-0.13798033
125	0xbd60914e	-0.054826073
126	0xbde5e5de	-0.11225484
127	0xbc346ef4	-0.011012781
128	0xbd9b3a90	-0.07579529
129	0x3d8a92ff	0.067663185
130	0x3de45210	0.11148465
131	0x3db9333e	0.09042977
132	0xbd919f28	-0.07110435
133	0x3cd2784c	0.025692128
134	0xbc8dfabf	-0.01733148
135	0x3befced5	0.0073183575
136	0x3c73b545	0.014874761
137	0x3dda6c48	0.10665184
138	0xbe0728b6	-0.13199124
139	0xbdc89e0a	-0.097957686
140	0xbc203c80	-0.009780049
141	0x3d8c177e	0.06840418
142	0x3dcb883c	0.09938094
143	0xbe0b41ed	-0.13599367
144	0x3e17f3ed	0.14839144
145	0x3cf0ba41	0.029385688
146	0xbe197b77	-0.14988504
147	0x3e035af1	0.1282766
148	0x3d31b9ca	0.043390073
149	0x3c605408	0.01369191
150	0x3defddf3	0.11712255
151	0xbd00ad1f	-0.0314151
152	0x3d3d4853	0.046211552
153	0xbdd12efc	-0.1021404
154	0x3d13c3ea	0.03607551
155	0xbd975297	-0.073888
156	0x3ca660c1	0.020309808
157	0x3d96ffbd	0.07372997
158	0xbdcb94c9	-0.09940488
159	0x3dc1d42b	0.09464296
160	0x3d7d1e10	0.061796248
161	0x3dd6df22	0.10491778
162	0xbd924083	-0.07141211
163	0xbd475b40	-0.048671007
164	0x3dbe2714	0.09284797
165	0x3d576220	0.052583814
166	0x3dfc089c	0.123063296
167	0x3e02829a	0.12745133
168	0xbd8ba34f	-0.06818258
169	0xbd0eb64f	-0.03484183
170	0xbcb3bfc6	-0.02194203
171	0x3e086d67	0.13322984
172	0x3d3a8d49	0.045544896
173	0xbc52820c	-0.012848388
174	0x3d449cfc	0.048001274
175	0x3d1f99ad	0.038964916
176	0xbde2a6e6	-0.110669896
177	0x3d8d4c0c	0.068992704
178	0x3e00ad33	0.1256607
179	0x3db3c9be	0.08778714
180	0x3cc0febb	0.023558965
181	0x3e5f3150	0.21796155
182	0xbd9f410d	-0.07776079
183	0x3d8e2411	0.06940473
184	0x3de59e2a	0.11211808
185	0x3d9f8da0	0.07790685
186	0xbdaf4efc	-0.08559987
187	0x3e1ddbc0	0.15415859
188	0x3dfd9af2	0.12383069
189	0x3c1cd46a	0.009572128
190	0x3cfe18b7	0.031017644
191	0xbe051d57	-0.12999474
192	0xbdf0fb03	-0.11766627
193	0x3e08c21c	0.13355297
194	0xbdb04408	-0.08606726
195	0x3df7c3b8	0.12097877
196	0xbcc67928	-0.024227694
197	0x3e0e35f0	0.13887763
198	0xbe2c140d	-0.16804524
199	0xbd8643e3	-0.06555917
200	0x3de2a082	0.11065771
201	0xbd896abd	-0.06709812
202	0xbe1ab693	-0.15108709
203	0xbc5113eb	-0.0127610965
204	0x3d5ac5e8	0.053411394
205	0x3d767882	0.06017352
206	0x3e0395a6	0.12850055
207	0x3df3d1f3	0.11905279
208	0x3d4103c8	0.047122747
209	0x3e0cf932	0.13766935
210	0xbba57ba7	-0.005050141
211	0x3d157ada	0.036494114
212	0x3dfb5dc4	0.12273744
213	0x3c10894e	0.0088217985
214	0x3e30cc01	0.17265321
215	0x3e0b31bd	0.13593192
216	0xbdef18c9	-0.11674649
217	0xbe091579	-0.13387097
218	0xbbfac0be	-0.007652371
219	0xbe190206	-0.14942178
220	0x3dc4b693	0.09605136
221	0x3e10186e	0.14071819
222	0xbdc0eab9	-0.0941977
223	0x3e210d80	0.15727806
224	0x3d408c4d	0.0470088
225	0x3e0ed724	0.13949257
226	0x3e25ac8b	0.16179101
227	0xbde2d011	-0.11074842
228	0xbdf582d3	-0.11987843
229	0x3dd539f8	0.10411447
230	0x3bdd6262	0.006756113
231	0x3c95b562	0.018274967
232	0x3e461070	0.19342208
233	0x3d6cc116	0.05780133
234	0x3d8701fb	0.065921746
235	0xbd2ad3e0	-0.041705966
236	0x3e1b618e	0.15173933
237	0xbd8fa4ca	-0.07013853
238	0x3dc4bb71	0.09606064
239	0xbde8f51f	-0.11374878
240	0x3df6466e	0.12025152
241	0xbd46453f	-0.048405882
242	0x3ddb2b8a	0.10701664
243	0x3e03ca71	0.12870194
244	0x3cfc583d	0.030803794
245	0x3da4c8cb	0.08046111
246	0xbd2c24b0	-0.042027175
247	0x3dfe47a7	0.1241601
248	0x3e34fbca	0.17674175
249	0xbdb97d6b	-0.09057125
250	0xbcf6fe6d	-0.030150617
251	0x3db28c61	0.087181814
252	0xbd465291	-0.048418585
253	0xbd1a239a	-0.03763161
254	0xbda57838	-0.080795705
255	0xbdd75068	-0.10513383

np.user_emb.second_embedding_layer.bias f4 [16]
0	0x3ca38550	0.01996103
1	0x3d89bcb0	0.067254424
2	0x3e2d1a96	0.16904673
3	0xbdf70f85	-0.12063507
4	0xbe1e7456	-0.15474066
5	0x3dec885c	0.11549446
6	0xbe0c038d	-0.1367323
7	0x3e24752f	0.16060327
8	0x3df8bc19	0.12145252
9	0xbe17761a	-0.14791146
10	0xbdc796df	-0.09745573
11	0xbe2b59a6	-0.16733417
12	0x3e42e1ab	0.19031398
13	0x3e535c76	0.2064074
14	0xbe028138	-0.12744606
15	0x3e0386ac	0.12844342

np.xy_to_z.input_to_hidden.0.weight f4 [32, 33]
0	0xbd9b90ec	-0.07596001
1	0x3a056215	0.0005088163
2	0xbd80a541	-0.0628152
3	0xbd8bd47b	-0.06827637
4	0xbdbe98d1	-0.09306491
5	0x3c494c09	0.012286195
6	0x3da6eea2	0.08150984
7	0x3e1cfe80	0.15331459
8	0xbb34aa73	-0.0027567416
9	0xbda5ea5d	-0.08101342
10	0x3e108f6a	0.14117208
11	0xbd728059	-0.059204433
12	0x3c8beffe	0.01708221
13	0x3d8baa07	0.068195395
14	0xbd217480	-0.039417744
15	0x3daa1eca	0.08306654
16	0x3e1a6c75	0.15080436
17	0xbd6bf0fa	-0.05760286
18	0xbdcb47b6	-0.09925787
19	0x3d70390c	0.058648154
20	0x3d1c6ae9	0.038187895
21	0xbd7067c0	-0.058692694
22	0x3e1d06e8	0.15334666
23	0xbde85747	-0.11344772
24	0x3e1b8183	0.15186124
25	0xbd292367	-0.041293528
26	0xbd52950b	-0.05141167
27	0xbd0e86be	-0.03479647
28	0xbcce49cc	-0.025181673
29	0xbdc00ea4	-0.093777925
30	0x3d8675d8	0.06565446
31	0xbe1fb7b6	-0.15597424
32	0x3e183d3d	0.1486711
33	0xbe2a709d	-0.16644521
34	0xbe1299a6	-0.14316425
35	0xbe2e3342	-0.17011741
36	0x3daaf4b6	0.08347456
37	0xbd4d9dc1	-0.050199274
38	0xbdc1801b	-0.09448262
39	0x3dabbd1c	0.08385679
40	0xbb80cea9	-0.003930886
41	0x3d8d87ea	0.06910689
42	0x3bfec4ce	0.007774926
43	0x3c99f703	0.018794542
44	0x3e2a59af	0.16635774
45	0xbd976acf	-0.07393419
46	0x3e2f0411	0.17091395
47	0x3dd3c70a	0.10340698
48	0x3dafff0d	0.08593569
49	0xbe2872f1	-0.16450097
50	0xbddc510e	-0.107576475
51	0xbe31b83b	-0.17355435
52	0x3c0f855a	0.008759821
53	0xbd829e5f	-0.06377863
54	0xbe0d8e5e	-0.1382384
55	0xbe0af17c	-0.13568681
56	0x3dbac046	0.091187045
57	0xbe2b867a	-0.16750517
58	0xbcb92214	-0.022599258
59	0x3cc77697	0.02434854
60	0x3de3504a	0.11099298
61	0x3e26e45c	0.1629805
62	0xbdf3d523	-0.11905887
63	0x3d3d1752	0.046164818
64	0x3e202ddf	0.15642498
65	0xbe0c9a23	-0.13730673
66	0x3c0ea2b4	0.008705784
67	0xbdd8d1f7	-0.105869226
68	0x3dad0d3e	0.08449791
69	0x3dd97bc8	0.106193125
70	0xbd5f56be	-0.054526083
71	0xbdbd82e6	-0.092534825
72	0xbdcaa9d7	-0.09895676
73	0x3d96aba6	0.07356958
74	0x3c12a887	0.008951313
75	0x3d9fda7b	0.07805344
76	0xbd959750	-0.07304251
77	0xbda084ff	-0.07837867
78	0xbe57a7dd	-0.21060129
79	0xbd1abe81	-0.037779335
80	0x3e0f51b5	0.13996013
81	0xbd3deedc	-0.046370372
82	0x3cf81236	0.030282121
83	0x3b9e7cff	0.004836678
84	0xbd3c3ea6	-0.045958184
85	0xbc7942f4	-0.015213717
86	0xbc7fc070	-0.0156098455
87	0x3e021499	0.1270317
88	0x3d300b13	0.04297931
89	0xbd865741	-0.06559611
90	0xbe43e0de	-0.19128749
91	0xbdacdd08	-0.08440596
92	0xbe1c9c87	-0.15294085
93	0xbc221bf1	-0.009894357
94	0xbb7bfa7a	-0.0038448856
95	0xbcfbcd8d	-0.030737663
96	0x3d242f71	0.040084306
97	0xbd5b27bd	-0.053504694
98	0xbd0b3be8	-0.033992678
99	0xbe23ab09	-0.15983213
100	0xbdea07c1	-0.1142726
101	0xbdcda8a5	-0.10041932
102	0x3ccc2999	0.024922179
103	0xbd08f576	-0.033437215
104	0x3e0ba5f6	0.13637528
105	0x3dcb005a	0.099121764
106	0xbdfece27	-0.12441664
107	0xbdc290ee	-0.095002994
108	0x3de2c88e	0.11073409
109	0xbe0d0eab	-0.13775127
110	0xbd04b980	-0.03240347
111	0x3e1926ba	0.1495618
112	0xbd440fca	-0.04786662
113	0xbe3003d5	-0.17188962
114	0x3ddca1ce	0.10773049
115	0x3d074d2b	0.033032577
116	0xbe1e6398	-0.1546768
117	0x3e1924fd	0.14955516
118	0xbda38d5b	-0.07985946
119	0xbd0cd8fd	-0.034386624
120	0x3ce0b8cb	0.027431866
121	0xbd54b942	-0.051934488
122	0x3e15fb85	0.14646728
123	0xbab1ce86	-0.0013565577
124	0x3ccb9df2	0.024855588
125	0xbdf12db1	-0.11776293
126	0x3e0c5ba8	0.13706839
127	0xbe1a2ac3	-0.15055375
128	0x3cbd240d	0.02308848
129	0xbcfa04e0	-0.030519903
130	0x3d9f4739	0.077772565
131	0xbd5685ac	-0.052373573
132	0x3e047943	0.12936883
133	0xbd37672f	-0.044776138
134	0x3dc864ce	0.09784852
135	0xbe2e616c	-0.17029351
136	0x3ce0bc25	0.027433464
137	0x3e0bdd26	0.1365858
138	0x3e3053d8	0.17219484
139	0x3d6b5969	0.057458315
140	0xbe18da22	-0.14926961
141	0xbdaf44eb	-0.08558067
142	0x3e0b1dcc	0.13585585
143	0x3e121e50	0.14269376
144	0x3ccfb527	0.025354935
145	0x3ddf9c1c	0.109184474
146	0x3de0cfb2	0.10977115
147	0xbd506257	-0.050875034
148	0x3d7bb2a1	0.06144965
149	0x3d3e709a	0.046494104
150	0xbb77976b	-0.003777946
151	0xbd504a13	-0.050851893
152	0xbe06b27c	-0.13154024
153	0xbe2c81c3	-0.16846375
154	0xbbd76de4	-0.0065743793
155	0xbe27eee5	-0.16399725
156	0x3cdf6942	0.02727187
157	0xbd7eb277	-0.062181916
158	0x3de4fff3	0.11181631
159	0x3e1633e5	0.14668234
160	0xbd83e19f	-0.06439518
161	0xbd753a90	-0.059870303
162	0x3e050796	0.12991175
163	0xbd39d751	-0.045371357
164	0xbdb093ae	-0.08621918
165	0xbe0a8380	-0.13526726
166	0x3e3076b7	0.17232786
167	0x3e071afd	0.13193889
168	0xbd0aa7d2	-0.033851452
169	0x3dc89d3d	0.09795616
170	0x3db976fc	0.090558976
171	0x3d63da53	0.055628132
172	0xbdb1c931	-0.08680952
173	0xbd328efb	-0.043593388
174	0x3d950ca0	0.07277799
175	0x3bef3019	0.007299435
176	0x3e14d93c	0.14535993
177	0xbdcaa7f1	-0.098953135
178	0xbe2f66d6	-0.17129073
179	0xbd5f8c0d	-0.054576922
180	0xbce8db4b	-0.02842488
181	0xbdb0bdef	-0.08629977
182	0x3e054dc2	0.13017944
183	0xbd801bef	-0.06255328
184	0x3dc15909	0.0944081
185	0xbce6914c	-0.028145455
186	0xbdab61df	-0.08368277
187	0x3c9ed051	0.019386442
188	0x3e3ff6e9	0.18746532
189	0x3e064aaa	0.1311442
190	0xbe313b52	-0.17307785
191	0xbdb6fd63	-0.089350484
192	0xbdff5231	-0.12466849
193	0xbd1de489	-0.038548026
194	0x3ddb4ed9	0.10708398
195	0xbe026225	-0.12732752
196	0x3c6e2622	0.014535459
197	0x3e193ebb	0.14965336
198	0xbccbca56	-0.024876755
199	0xbda0bfa6	-0.07849054
200	0x3d829aaf	0.0637716
201	0xbde7b97c	-0.11314675
202	0xbe02a073	-0.12756519
203	0x3d99a385	0.07501892
204	0x3e4c0445	0.19923504
205	0xbd320e81	-0.043470863
206	0x3dd8707b	0.10568329
207	0xbe00c2ba	-0.12574282
208	0x3d2fb445	0.042896528
209	0x3e349053	0.1763318
210	0x3c13cd2b	0.009021084
211	0x3caf5a5d	0.021405393
212	0xbda3dc28	-0.08000976
213	0xbdc7eed8	-0.09762353
214	0xbe2fcc02	-0.17167667
215	0xbd14de22	-0.036344655
216	0xbdfa8f8c	-0.12234411
217	0xbd888d11	-0.06667531
218	0x3d25489a	0.04035244
219	0xbd879a85	-0.06621269
220	0xbde96fc9	-0.113982745
221	0xbcb41784	-0.02198387
222	0x3c48ab0c	0.012247812
223	0xbe2b3c9d	-0.16722341
224	0xbd526970	-0.051370084
225	0x3dfcfb36	0.12352602
226	0xbd98b70d	-0.07456789
227	0x3d550ade	0.052012317
228	0xbe1ea360	-0.1549201
229	0xbdf0f696	-0.117657825
230	0x3e04d04f	0.12970088
231	0xbda8370c	-0.08213624
232	0x3cf33571	0.029688569
233	0x3e0c53ec	0.13703889
234	0xbe1ab6d1	-0.15108801
235	0xbca39514	-0.019968547
236	0xbdc1a9fe	-0.094562516
237	0xbe14e9c0	-0.14542294
238	0xbd9e3741	-0.077253826
239	0xbd1b3cd0	-0.037899792
240	0xbdbc568a	-0.091961935
241	0xbd70dca5	-0.058804173
242	0xbcfc6788	-0.030811086
243	0x3c2bcf11	0.01048638
244	0xbcf79074	-0.030220248
245	0x3e111386	0.14167604
246	0x3ca6e24f	0.020371584
247	0xbdcb616b	-0.099306904
248	0x3c60c160	0.013717979
249	0x3e175b51	0.14780928
250	0xbe19b4d2	-0.15010384
251	0xbd54bf33	-0.051940154
252	0x3e0cc631	0.13747479
253	0xbd0fcd4a	-0.03510789
254	0xbe21c497	-0.1579765
255	0xbd890198	-0.06689757

np.xy_to_z.input_to_hidden.0.bias f4 [32]
0	0x3e1c3899	0.15255965
1	0xbc265000	-0.010150909
2	0x3dfff723	0.124983095
3	0xbe0db264	-0.13837582
4	0xbe257542	-0.16158012
5	0x3e3cfd12	0.18455914
6	0x3dca824c	0.098881334
7	0x3e0393eb	0.12849395
8	0xbdef110c	-0.11673173
9	0x3dc6a12d	0.096987106
10	0x3d28369c	0.041067705
11	0xbcae7bad	-0.021299208
12	0xbe2dfffa	-0.16992179
13	0xbc5faa52	-0.013651447
14	0xbd86ff6e	-0.06591688
15	0x3da1a442	0.07892658
16	0x3d853184	0.06503585
17	0xbe0525cb	-0.13002698
18	0xbdef2a88	-0.11678034
19	0xbbad230a	-0.005283718
20	0xbdc403bf	-0.09571027
21	0x3da7a64f	0.08186018
22	0xbd009d0c	-0.03139977
23	0x3e1e2de7	0.15447198
24	0xbbb45edb	-0.0055044717
25	0xbd477d3f	-0.04870343
26	0xbd50a221	-0.05093587
27	0xbe1ab60d	-0.1510851
28	0xbd9f5d4c	-0.07781467
29	0xbdb9877d	-0.090590455
30	0xbcc20e7f	-0.023688553
31	0x3d7a2456	0.06106981

np.xy_to_z.input_to_hidden.3.weight f4 [16, 32]
0	0xbdaf97d7	-0.08573883
1	0xbe2d3bf8	-0.16917408
2	0x3cae81e7	0.021302177
3	0xbda47fa8	-0.08032161
4	0xbda14712	-0.07874884
5	0x3c7878ac	0.015165489
6	0x3e0d24a6	0.13783512
7	0x3e1ab88f	0.15109466
8	0xbdc58356	-0.09644191
9	0x3e07482c	0.13211125
10	0xbe14a3fc	-0.1451568
11	0xbd3e8f62	-0.04652346
12	0xbd5244ec	-0.05133526
13	0xbde96584	-0.11396316
14	0x3d2179c5	0.03942277
15	0x3db74fdf	0.08950781
16	0xbe32738d	-0.17426892
17	0xbc72d9e3	-0.014822456
18	0x3dcdcb4a	0.1004854
19	0x3e0b43c0	0.13600063
20	0x3dee95dc	0.11649677
21	0xbd89165c	-0.06693718
22	0xbc77e883	-0.015131119
23	0xbdce858e	-0.10084067
24	0x3d9f1e77	0.077694826
25	0xbe307d2c	-0.1723525
26	0xbd90743a	-0.070534185
27	0xbdf25143	-0.11831906
28	0x3db266d5	0.0871102
29	0xbe1bb13c	-0.15204328
30	0xbd5597e7	-0.05214682
31	0x3e0f5cda	0.14000264
32	0x3e057dbb	0.13036244
33	0x3e16f386	0.14741334
34	0xbe0ffa79	-0.14060391
35	0x3d4d460e	0.050115637
36	0xbcfdb7c7	-0.03097142
37	0x3d439d91	0.04775769
38	0xbe15633e	-0.14588639
39	0x3c714797	0.014726541
40	0x3e08051d	0.132832
41	0xbd4eab2c	-0.05045621
42	0xbdff6aa6	-0.124715135
43	0x3e16df0b	0.14733522
44	0x3d1e2eb3	0.038618755
45	0x3e09617e	0.13416097
46	0xbd98ffd6	-0.07470672
47	0xbd691069	-0.056900416
48	0x3d5a11cf	0.05323964
49	0xbd3b8895	-0.04578455
50	0x3b7caa24	0.003855356
51	0x3dacb675	0.084332384
52	0x3d885cfa	0.06658359
53	0xbd5922e5	-0.053011794
54	0xbdcefcdc	-0.10106823
55	0xbd35c293	-0.044375014
56	0xbe31f465	-0.17378385
57	0x3de4b165	0.11166648
58	0x3db66f4c	0.08907947
59	0xbd29f042	-0.041488893
60	0xbaa9629e	-0.0012923067
61	0xbe1e792c	-0.15475911
62	0xbe242eaf	-0.16033433
63	0xbe43057d	-0.19045062
64	0xbd092eb1	-0.033491794
65	0xbd9f6f87	-0.07784944
66	0x3e25c598	0.16188657
67	0x3e174ea7	0.14776097
68	0x3e1d6352	0.15369919
69	0xbdc49549	-0.095987864
70	0x3ddae290	0.106877446
71	0x3d9e1308	0.07718474
72	0xbd52a36f	-0.051425394
73	0xbe0baab0	-0.13639331
74	0xbdbc7136	-0.09201281
75	0x3e32da60	0.17466116
76	0xbdde3ef0	-0.10851848
77	0xbcc1572b	-0.023601135
78	0x3b6a8925	0.003578731
79	0x3e248c9a	0.1606926
80	0x3e05f013	0.13079862
81	0xbdb7040b	-0.08936318
82	0x3de69035	0.11257974
83	0x3d7a899b	0.061166387
84	0xbc131a4c	-0.008978438
85	0x3ce3e1ef	0.027817694
86	0x3e19bdbc	0.15013784
87	0x3da84f13	0.08218207
88	0xbd2fd65a	-0.04292903
89	0x3d1b2979	0.03788135
90	0x3d7cc904	0.06171514
91	0xbd3cdc73	-0.046108674
92	0x3d9b862a	0.07593949
93	0xbac8e8d3	-0.0015328176
94	0xbd8b8755	-0.06812922
95	0x3df2ab39	0.118490644
96	0x3dfba5ca	0.12287481
97	0xbe26afe3	-0.16278033
98	0xbe454877	-0.19265924
99	0x3dcf7481	0.10129643
100	0xbe12c536	-0.14333043
101	0xbd986b27	-0.07442313
102	0xbe12a293	-0.1431983
103	0x3d3ad41f	0.04561245
104	0x3e237582	0.15962794
105	0x3c59eb6c	0.013300758
106	0xbcbdcae7	-0.02316804
107	0x3e1bbc52	0.15208557
108	0xbcd3c1a2	-0.025849167
109	0xbe21c4cb	-0.15797727
110	0xbcd94335	-0.026521305
111	0x3df895aa	0.12137921
112	0x3df82028	0.12115508
113	0xbe065d4f	-0.13121532
114	0x3d899913	0.0671865
115	0x3d426adb	0.047465187
116	0xbdf7bad6	-0.12096183
117	0x3b4f031e	0.0031587551
118	0x3dc3edde	0.09566854
119	0xbe44400f	-0.19165061
120	0x3a484292	0.0007639314
121	0x3dc689d7	0.096942596
122	0x3e3128b4	0.17300683
123	0x3e247d9a	0.16063538
124	0x3da7d0fb	0.08194157
125	0xbacb59e8	-0.0015514465
126	0xbe3d33ca	-0.18476787
127	0xbe1a9d23	-0.15099005
128	0xbda4b53c	-0.0804238
129	0xbe02453a	-0.1272172
130	0xbdc442fd	-0.095830895
131	0x3d3d979c	0.046287164
132	0x3cf7beb4	0.030242302
133	0x3e321025	0.17388971
134	0x3da59909	0.0808583
135	0xbdb7ffca	-0.08984335
136	0xbd91e6c6	-0.07124095
137	0xbd8568df	-0.06514143
138	0x3cdf678a	0.027271051
139	0xbdff8358	-0.12476224
140	0x3e07b195	0.13251336
141	0x3d344a9c	0.044016466
142	0x3e312cac	0.17302197
143	0xbdb1c05d	-0.086792685
144	0x3d745fd8	0.059661716
145	0xbce2b028	-0.027671888
146	0x3ca9bc7f	0.020719765
147	0x3d04b9b1	0.03240365
148	0xbe343980	-0.1760006
149	0x3e35c787	0.17751895
150	0xbdfde3ee	-0.1239699
151	0x3e297a82	0.1655064
152	0xbd9422c9	-0.07233197
153	0x3bc6aceb	0.006063094
154	0xbe1fd750	-0.15609479
155	0xbc19ff0f	-0.00939919
156	0xbe144c14	-0.14482147
157	0x38d958d1	0.0001036391
158	0xbd8543df	-0.06507086
159	0x3e4b40a4	0.19848877
160	0x3c011d38	0.007880501
161	0xbe072941	-0.13199331
162	0xbd3f18e6	-0.046654604
163	0x3df2af4f	0.11849844
164	0x3aa8a3b2	0.0012866168
165	0x3e1ae60d	0.1512682
166	0xbe1067e6	-0.14102134
167	0xbe442120	-0.19153261
168	0x3e27d53d	0.16389938
169	0x3de7a9f1	0.113117106
170	0xbbc619ae	-0.0060455417
171	0xbc7c0483	-0.015381935
172	0x3dab4704	0.083631545
173	0xbe0f8d58	-0.14018762
174	0x3dc43bc0	0.09581709
175	0xbdf99601	-0.12186814
176	0xbda2d311	-0.07950414
177	0x3d8b66f0	0.06806743
178	0x3dcd586c	0.10026631
179	0x3d36a444	0.04459025
180	0xbb8cb8f8	-0.004294511
181	0xbe12647f	-0.14296149
182	0xbdac2208	-0.084049284
183	0xbd7c1da1	-0.061551694
184	0xbd98718a	-0.07443531
185	0xbdaa4634	-0.083141714
186	0xbdc0f399	-0.094214626
187	0x3ddd1bc9	0.10796315
188	0xbdf21a57	-0.1182143
189	0x3e10137f	0.14069937
190	0xbdf77c33	-0.12084236
191	0x3db814eb	0.08988365
192	0xbc0f4f9e	-0.00874701
193	0xbe114e6e	-0.14190075
194	0xbdd6c727	-0.10487204
195	0x3e29fcd9	0.1660036
196	0x3d47b640	0.04875779
197	0xbb8af630	-0.0042407736
198	0x3e10d67b	0.14144318
199	0xbcf7a3a8	-0.030229405
200	0x3d63bbdf	0.05559909
201	0x3dc40e79	0.09573073
202	0x3dd9bbd0	0.106315255
203	0xbda4b9f5	-0.08043281
204	0x3dee057d	0.116221406
205	0x3c31a6cf	0.010842993
206	0x3dccbe80	0.099972725
207	0xbd938819	-0.07203693
208	0xbd7342a6	-0.059389733
209	0xbe1e46e7	-0.15456735
210	0x3debd2be	0.11514805
211	0x3d93e14e	0.07220708
212	0xbab5fdda	-0.0013884858
213	0xbe05a79c	-0.13052219
214	0xbe06de00	-0.13170624
215	0x3d407a7e	0.046991818
216	0x3bc4004c	0.0059814807
217	0x3c1fb4bd	0.009747681
218	0x3e03f1ac	0.12885159
219	0x3d8f4483	0.069954894
220	0x3da797d0	0.08183253
221	0x3e2c7a1c	0.16843456
222	0x3be8b1db	0.00710128
223	0x3db7213f	0.08941888
224	0xbe067201	-0.13129427
225	0x3e09046c	0.13380593
226	0xbb8925dc	-0.0041854214
227	0x3dbcea15	0.09224335
228	0xbe323175	-0.17401679
229	0xbe02dbc7	-0.12779151
230	0xbd43d814	-0.04781349
231	0x3bb0882c	0.0053873267
232	0x3dd1540b	0.10221108
233	0xbcfdfbc1	-0.031003835
234	0xbe089963	-0.13339762
235	0x3ce71b23	0.028211182
236	0x3e23be4a	0.15990558
237	0xbc2737d5	-0.0102061825
238	0xbd56d949	-0.052453313
239	0x3d57d869	0.05269662
240	0x3dddbb5d	0.10826752
241	0xbd90a54b	-0.07062777
242	0xbc71856a	-0.014741281
243	0xbe263c8d	-0.16234036
244	0xbd6ef41e	-0.058338277
245	0x3d035679	0.03206489
246	0xbc7a4da9	-0.015277305
247	0x3e22b04a	0.15887561
248	0xbd5979f6	-0.053094827
249	0xbe27d667	-0.16390382
250	0xbda5f45f	-0.08103251
251	0x3daaf186	0.08346848
252	0xbd07edbe	-0.033185713
253	0xbe0f3e34	-0.13988572
254	0xbe179c98	-0.1480583
255	0x3d50e3e5	0.050998587

np.xy_to_z.input_to_hidden.3.bias f4 [16]
0	0xbdd14669	-0.10218508
1	0x3d9274c1	0.07151175
2	0x3dccc906	0.0999928
3	0x3d892e38	0.06698269
4	0x3e5d111c	0.21588558
5	0x3d52bc90	0.05144936
6	0xbd4aa44b	-0.04947309
7	0x3cbf165d	0.023326093
8	0x3b86fc2d	0.004119417
9	0xbd95e4cf	-0.073190324
10	0xbca63dc7	-0.02029313
11	0x3ba49c4d	0.0050235153
12	0x3e36d2c0	0.17853832
13	0x3c2e7d48	0.010649987
14	0x3e3d46cd	0.1848404
15	0x3e5e828d	0.21729489
