TaNP/save_model_dir/lastfm_20/base_1741713668/model_best.pt (torch, 796642 bytes, 34 tensors)

np.item_emb.first_embedding_layer.weight f4 [32, 3846]
00000000: 02ce a73c bf1b d6bb a9b3 3a3b c600 0abc
00000010: 253e d13c a2ad b2ba 68b6 a63c a2cf ec3c
00000020: df52 183c 265b 08bc 0043 4a3c e93b 203c
00000030: 9af9 cc3c 09cd c93c 9da0 b23c 5f5a c73c
00000040: 02af a73c ee75 91bc 8cdf 2cbc 79f1 dc3c
00000050: 045f 84bb a50e ae3c d4ae 253d 2cc1 a6bb
00000060: b5e5 f33c 6784 313c 978a 10bc 8656 b53b
00000070: 838d 89bc 0e42 5bbc 4b0d 3c3c 059e 05bc
00000080: 1df1 8c3c 4c1a cfbc 2786 133d f219 173c
00000090: 7120 2e3d 5b88 cf3c 8879 d93c 8f7d 383c
000000a0: fe69 9ebb adea 0c3d 9843 063c 2b2d dd3c
000000b0: 02ae bd3c 41ad 923b 1ab0 273d a993 363d
000000c0: 37e3 113d 0d97 ad3b 6995 b23c 6994 c43c
000000d0: 6bbc 263d 74e2 4a3c 3490 103d 827b 8f3b
000000e0: 63d9 343d c2cf d43c 4e08 b93c 457d adbc
000000f0: dd61 853c b556 063d 6bf2 463c 0a90 5fbb
00000100: 99d9 613c 356d 49bb 83bc 273c 9217 383c
00000110: 39cd 13bc 9389 85bb 9c0b 9f3c 3e1d fcbb
00000120: 251b 9e3c b9cc 023d 4985 e53b a700 d43c
00000130: 9e16 9bbc 6779 b23c f5ff 513c e860 bc3c
00000140: 2c74 713c c463 be3c 340a d4bb 88ae 25bc
00000150: eb17 6bbc cc2f 7abc 79ec 93bc c0a1 b33c
00000160: 583a d0b8 ec1f 9cbc 6b9a e63c c052 1e3d
00000170: 5140 b0bc f608 da3a 153b 8cbc 7324 90bb
00000180: d1b5 3a3c 6286 d0bc 8c99 233d 0e6e a83c
00000190: d839 9c3c 199f 0abb 35a5 333d bd69 503c
000001a0: 2449 ab3c 1e0a c93c ba17 823c 9725 553c
000001b0: c252 26bc daa3 cd3c 1b88 733c f650 2e3d
000001c0: f9a4 863c a510 a9bb b61b e03b d351 8b3c
000001d0: 44b9 2d3c fb42 df3c 84df ec3c 43d4 4c3b
000001e0: bd8c a1bc f614 92bc d34d 28bc 3103 f2bb
000001f0: 4559 ed3c 9c24 3f3c ffc6 ba3b 4474 b03b
00000200: 3601 073d 9ce8 683a ee75 a73c e222 103d
00000210: fc63 2c3d d8e2 943b c274 f83c 5901 cf3c
00000220: ef46 133d 9cf0 143d 2543 07bc 3f77 07bc
00000230: 1138 d7bb 50ba ae3c f488 c8bb 8d4b df3c
00000240: 5ea1 d4ba 2963 173b ef1c 973b 4148 b43b
00000250: d855 14b9 5925 763c c1f6 00bc d7d9 233c
00000260: 3949 973c 40e1 e2ba 70a0 373d afbc af3c
00000270: 62a1 203d b2e5 033d 03e1 9f3c 305e 323d
00000280: bec9 953c cf96 b23c ff95 76bb f512 383c
00000290: 441b c03c 67cc 3c3d d9ca e2bc b96d c13c
000002a0: 7723 c9bc d53c 413c beec 8fbc d195 a93c
000002b0: 0557 a2bc 9705 d2bc 9284 f2bc e110 06b9
000002c0: f9df ccba dbcc 3e3c e6ac b9bc 3c0e f5bc
000002d0: 973e 7a3b 0c32 9fb9 cfed cdbb 9f32 a93c
000002e0: a749 d23c ab72 2f3d 4174 44bc c800 373d
000002f0: 15b3 193b c10a 7ebc b38a 263d 101f d63a
00000300: f763 ff3c 89cc 6fbc 1aa6 173c 66e6 47bb
00000310: 2b3d 4a3c 3ab4 033d 9ba5 1eba c865 17ba
00000320: 1d62 f63c c209 aabc 2c89 4c3c 1685 393b
00000330: d926 cbbb 5095 6a3c 8aed ec3c 46c6 c4bc
00000340: a473 e13c 01ed 0c3d 4e29 a73c a4a0 a33c
00000350: bcb0 b23c 73a4 543b f082 6a3c 9874 67bb
00000360: 9dc6 093c c599 eb3c 3560 0e3c 5a06 2dbb
00000370: 3e47 de3b 4f78 043d f1b4 e3bb 602b be3c
00000380: 6eb4 b23c b553 9fbc 1d7c 083b a018 973c
00000390: 810e 803c d676 debb c008 49bb b862 ea3b
000003a0: 7193 893c ca0a c23c 60fa 573c f07d 193d
000003b0: 0ac8 813c 523a 1a3c 40a8 bf3c 1467 9a3c
000003c0: 6af3 55bc 7c87 a3bc 0e67 143d c031 c9ba
000003d0: 9591 36bc c6f0 a43c 8a17 78bb 693a ed3b
000003e0: d726 9ebc 97da 57bc ec49 903c 954f 05bc
000003f0: be28 bc3c 8515 f23c 69d1 5c3b f3e9 f83c
0.020483974 -0.0065340693 0.0028488433 -0.008423036 0.025542328 -0.0013632069 0.02035065 0.0289076
0.009297102 -0.008322513 0.012345076 0.009779909 0.025021363 0.024633901 0.021805102 0.024335084
0.020469192 -0.017756429 -0.010551345 0.026970612 -0.004039647 0.021247217 0.040449932 -0.005088946
0.029772619 0.01083479 -0.008822105 0.005533996 -0.01679111 -0.013382448 0.011477779 -0.008155351
0.017204816 -0.025281094 0.03601661 0.009222494 0.042511407 0.025333574 0.026547208 0.011260404
-0.0048344126 0.03440349 0.008194827 0.026999077 0.023154262 0.00447622 0.040939428 0.044574413
0.03561708 0.0052975477 0.02179976 0.023996549 0.040707033 0.012383092 0.035293773 0.004378737
0.04415263 0.025977973 0.022586968 -0.021177897 0.016282016 0.032797534 0.012142758 -0.0034112954
0.0137847895 -0.0030735258 0.010237816 0.011236088 -0.009021097 -0.004075238 0.019414715 -0.0076939156
0.019300053 0.03193352 0.007004414 0.025879217 -0.018931683 0.021786405 0.012817373 0.022995427
0.01473717 0.023240931 -0.006470943 -0.010112412 -0.014348964 -0.015270185 -0.018057095 0.021927714
-9.92908e-05 -0.01905819 0.028149804 0.038653135 -0.021515043 0.0016634751 -0.017118016 -0.0043988763
0.0113958875 -0.025454704 0.039941356 0.02056029 0.01907055 -0.0021151958 0.043858726 0.0127205225
0.0209089 0.024540957 0.015880454 0.01300945 -0.010151567 0.025102545 0.014863993 0.04255768
0.016436087 -0.005159455 0.006839241 0.01700679 0.010603253 0.027253618 0.028915174 0.0031254448
-0.01972043 -0.01783226 -0.010272461 -0.0073856344 0.028973231 0.011666443 0.0056999917 0.0053849537
0.03296014 0.0008884759 0.020441975 0.035189517 0.04208754 0.0045436434 0.030329112 0.025269197
0.03595632 0.036362275 -0.008255755 -0.008268177 -0.006567963 0.021329075 -0.0061198417 0.027257705
-0.0016222408 0.0023099876 0.0046116035 0.0055017774 -0.00014146359 0.015023553 -0.007871331 0.010000668
0.018467532 -0.0017309561 0.04483074 0.021452276 0.039216407 0.032201476 0.019516474 0.043546855
0.018284675 0.021800427 -0.0037626026 0.011234988 0.023450501 0.04609337 -0.027684616 0.02361189
-0.024553044 0.011794289 -0.017568942 0.02070132 -0.019816885 -0.025637431 -0.02960423 -0.00012785524
-0.0015630714 0.011645521 -0.022665452 -0.029914014 0.003818428 -0.0003036413 -0.0062844525 0.02065402
0.025669886 0.042833965 -0.011990608 0.04467848 0.0023452688 -0.015505494 0.040659618 0.0016336162
0.031175597 -0.014636167 0.00925591 -0.0030502318 0.012343685 0.0321543 -0.0006051899 -0.00057753595
0.030076081 -0.020756606 0.012483876 0.0028308085 -0.0061996994 0.014317825 0.028921861 -0.024020325
0.027520962 0.034405712 0.020405438 0.01997406 0.02181279 0.0032446652 0.0143134445 -0.0035317298
0.0084091695 0.028759846 0.00868993 -0.002640149 0.006783395 0.032341298 -0.00694906 0.023214042
0.021814551 -0.019449094 0.002082593 0.01844436 0.015631916 -0.0067890687 -0.0030675381 0.0071528815
0.016793938 0.023686785 0.013182253 0.03747362 0.015842456 0.009413319 0.023395658 0.01884798
-0.013058523 -0.019962065 0.036231093 -0.001534991 -0.011143108 0.020134341 -0.0037855827 0.007239629
-0.01930563 -0.0131746745 0.017613374 -0.00813665 0.022968646 0.029551277 0.0033694154 0.030384993

np.item_emb.first_embedding_layer.bias f4 [32]
00000000: f26b f83c d8e7 5dbb cc2d 633d 6116 c33c
00000010: 6d10 b83c 7d38 75ba c5d5 293d 3312 69bc
00000020: 395e f63c bf13 103d 03f3 043d ac02 553d
00000030: d4b4 143d 6d4e 363d 4d35 0c3c b96d dbbb
00000040: 7c15 4c3d 4c11 85bc 7317 0a3d 49c7 073d
00000050: ea54 5f3c 464b 7cbc 843a f13c 76b9 69bb
00000060: 8767 4a3d 974f 8c3b 3aef f63c 0474 2f3d
00000070: fcd6 153d 7c0c 133d 5e4a 87bc 4fe4 8c3c
0.03032491 -0.0033860113 0.055463597 0.023814382 0.02246877 -0.0009354426 0.041463632 -0.01422553
0.030074226 0.03517508 0.032458317 0.0520045 0.036305264 0.044508386 0.00855763 -0.0066964296
0.049825177 -0.0162436 0.03371377 0.033149038 0.013631085 -0.015398806 0.029446848 -0.0035663522
0.049415138 0.004281949 0.030143369 0.04283525 0.03658198 0.035900578 -0.016514953 0.01719871

np.item_emb.second_embedding_layer.weight f4 [16, 32]
00000000: 8f3a f4bb f1fa 623d cc8b 09bc d3da 1dbe
00000010: 825a 4a3d c832 28bd adf1 313e 652d a3bd
00000020: f16c 023d a63f a93d 1659 bb3d 83ae eeba
00000030: 9cdc 843d d316 db3c f40e b03d 88bf c53d
00000040: 320b 863d 7975 863d 9045 913d 720d 9c3d
00000050: bec0 8f3d 2044 f6bd 0630 e63c 0d43 ffbc
00000060: 008d 2fbe a1fe 0a3d c669 cb3d 01a3 2d3e
00000070: 0850 cdbd ebc2 8bbd c0a5 213e b2e2 8d3d
00000080: 4649 953c cc32 fe3c e9d5 eebb 37f1 f1bd
00000090: 7b58 603d 05a9 143c 0af3 ca3d 3d26 00bd
000000a0: 984e 2cbd 1c82 d1bd f2de 36bd 3ae4 ef3c
000000b0: 99e8 d03d 067b c63c 1d4c 313e 9822 7ebd
000000c0: 2c19 72bd bf7d 333d 7f2f 853d 71c4 e73d
000000d0: 261e 9dbc 44b0 4bbd 6443 0cbe ce02 c83b
000000e0: f0db abbd b532 e3bd be2b 99bd dcfd 8f3d
000000f0: 9471 cd3c cc0d 4d3e 3d78 aebc 9cd6 4b3d
00000100: bc27 9f3d 65c3 d0bc 3326 47bd 897c 7dbd
00000110: 823b 4ebd 9453 6abc 5eb9 3e3c ce34 95bd
00000120: d40c b33d 5be3 8fbc a6b5 3b3d ac64 833c
00000130: c38b 06be 4926 993c 5762 ec3d e40e f93d
00000140: 410f 5e3d 8d64 01be 8137 ab3d b656 d63d
00000150: aca1 c23d 3c89 80bd 047b a23d e755 4c3d
00000160: 808e 363d 4aa1 f63d 2521 19be 9a99 f13d
00000170: 3dce e63d 380b 1e3e bbba 9ebd f787 213e
00000180: e777 973d 3da7 243e 6241 d33d cefe 49bc
00000190: 383a 36bd 5275 85bd 34e6 ffbd 2a03 49bd
000001a0: 7b77 2abe 766e 023e a013 93bd 18df 1bbc
000001b0: 627d 2e3e a61d 9d3b 3424 9abd 22dd e8bd
000001c0: ca84 af3c 1dbb fdbd f99d 0c3e b2fb f4bd
000001d0: 1e2c 1d3e 5383 ebbc 769c 15bd 5476 e83c
000001e0: b885 0d3d 32dc 1a3e 8b27 12be 1143 c13d
000001f0: 6d79 933d 1ff1 793c 1a1f 1ebd 328f 343d
00000200: d647 c43d b1d3 b5bd 4136 d13d ed49 0dbe
00000210: f7fe 443d b84a 013d 31f1 ce3c 58f8 293d
00000220: f06c 8dbd 3073 8cbd 2f6d ce3d 91dd 08be
00000230: ff64 043e 3790 323e f1d4 653b 75d3 eebc
00000240: d1aa 003e 2e6c 43bd 73f3 efbd cc7c 22be
00000250: 538f 84bd 5c4a 1abe 4ce2 cebc 0787 43bd
00000260: fb9b 7dbc 4164 0b3e ad33 e53c b44d b3bd
00000270: e58d 193e 1ac6 82bd b030 13be 29a0 4abd
00000280: ecc9 20bc d9a9 d53d e56f 2bbe 8734 aa3d
00000290: 9209 633d d621 e43d ef14 44bd 2a89 a3bd
000002a0: 8389 23be 4d35 52bc d25a 2bbe 4188 00be
000002b0: 1f56 1a3d 5287 e6bd 8b79 f23b 0aa2 bfbd
000002c0: 91db 21be 7040 273e db7b 17bc b7ac edbd
000002d0: 931e 283e e9f8 0a3e 2f7f 053e a39e 95bd
000002e0: f95f cdbd c0a0 6d3c 83c0 17be 9fee 5cbd
000002f0: 288f 8bbd c5fb 28be be85 72bd 5e79 6ebd
00000300: 9fec c13d 60a4 fa3d 11c0 b4bd 71f2 3439
00000310: c71b 1d3c 4cd5 1d3e 83b8 9cbd 5a2b 193e
00000320: d3d6 f23d bb35 96bd 8ebb cb3d 2b95 20bd
00000330: 45b2 3cbd fc31 783d 2b33 003c b1c5 fcbd
00000340: 5d23 1ebc 7344 973d 3964 19bd af77 b3bd
00000350: 01b9 a9bd 60bf a13d c528 12bd bd47 8b3d
00000360: 50f2 bc3d 5190 1fbe d600 bbbc c8c3 29be
00000370: 2f00 433b 7bbd 2fbd 9842 113e 55a3 053e
00000380: 57b6 d23d b8be ed3c b92f bb3d 1d37 9ebd
00000390: b299 6cbd 64f0 063e cb1a 0e3e 773d d93d
000003a0: c47b 623d e519 573e 5e0a 0aba a20f 823d
000003b0: e69f ff3c b226 843d 0b8f 3d3e 0842 f43d
000003c0: 284d 13bc d301 223e 6a7d 7c3d c585 7c3d
000003d0: 5be4 fc3d 6e05 1f3e f5ea 97bd 6f79 ce3d
000003e0: 97ae de3d 4095 00be 53e8 e6bd e1d3 a73d
000003f0: 877c 01be 5352 b4bd f371 f03d 6fda 303e
-0.00745327 0.055415098 -0.008395147 -0.15415506 0.04940272 -0.041064054 0.17377348 -0.07967643
0.031842176 0.08264093 0.09147851 -0.0018209968 0.064873904 0.026744282 0.08596602 0.09655672
0.06545104 0.06565375 0.07093346 0.07619752 0.070191845 -0.120247126 0.028099071 -0.031159902
-0.17143631 0.03393424 0.09932284 0.16956712 -0.100250304 -0.06824287 0.15785885 0.06928004
0.018223416 0.031030081 -0.0072886837 -0.11813586 0.05477188 0.0090735005 0.09909637 -0.031286467
-0.04206714 -0.102298945 -0.04464621 0.029283632 0.102006145 0.024228584 0.17314191 -0.06204471
-0.059106037 0.043821093 0.065032 0.11316765 -0.019179415 -0.049728647 -0.13697582 0.00610385
-0.08391559 -0.11093656 -0.07479046 0.07030842 0.025078572 0.20024794 -0.021297568 0.049765214
0.077712506 -0.025483796 -0.048620414 -0.061886344 -0.05034972 -0.014302153 0.011640875 -0.07285462
0.08742681 -0.017564466 0.04582753 0.016039215 -0.13139252 0.018695014 0.11542194 0.12161043
0.054213766 -0.12636013 0.08360196 0.104657575 0.09503493 -0.062761754 0.079336196 0.04988661
0.044569492 0.12042482 -0.1495405 0.11796875 0.112698056 0.15433967 -0.0775046 0.15774523
0.073959164 0.16079421 0.10315205 -0.012328817 -0.044489115 -0.06516518 -0.1249508 -0.049075283
-0.1664714 0.1273745 -0.071814775 -0.009513639 0.17040017 0.004794794 -0.075264364 -0.11370303
0.021425623 -0.12389205 0.13732137 -0.119620696 0.1534886 -0.028749144 -0.036526166 0.028376736
0.034551352 0.1512306 -0.14272897 0.0943662 0.072008945 0.015255242 -0.03860388 0.044081874
0.09584014 -0.088782676 0.10215426 -0.13797732 0.048094716 0.031565398 0.025261493 0.041496605
-0.06905544 -0.06857908 0.10079419 -0.13365771 0.12929152 0.17437826 0.003506955 -0.029153565
0.12565161 -0.04771059 -0.11716356 -0.15867919 -0.064726494 -0.15067428 -0.025254391 -0.047736194
-0.015479083 0.13612463 0.027978742 -0.08755055 0.14995535 -0.06385441 -0.14374042 -0.049469147
-0.009813767 0.104327865 -0.16741903 0.083108 0.05542905 0.11139266 -0.047871526 -0.07985146
-0.15970425 -0.012830091 -0.16733864 -0.12551977 0.037679788 -0.11256279 0.007399743 -0.093570784
-0.15806414 0.16333175 -0.009245838 -0.11605208 0.16417913 0.13571514 0.13036798 -0.07305648
-0.10028071 0.014503658 -0.14819531 -0.053938504 -0.06814414 -0.16502292 -0.059209578 -0.058221214
0.0946896 0.12238383 -0.08825696 0.00017256454 0.009589142 0.15413398 -0.0765238 0.14957944
0.11857381 -0.07334467 0.099478826 -0.039204758 -0.04606845 0.060594544 0.007824699 -0.12342394
-0.009651986 0.073861025 -0.037449095 -0.08763062 -0.0828724 0.0789783 -0.035683412 0.06800792
0.09225905 -0.15582396 -0.022827547 -0.16578591 0.0029754748 -0.042905312 0.1418556 0.13050587
0.10288685 0.029021606 0.09139962 -0.07725356 -0.057763763 0.13177639 0.13877408 0.106074266
0.055293813 0.21005972 -0.0005265827 0.06350638 0.031204175 0.06452693 0.18511598 0.11926657
-0.008990563 0.15821008 0.06164304 0.06165101 0.12348243 0.15529415 -0.07417861 0.10081755
0.10873144 -0.12556934 -0.11274781 0.081947096 -0.1264516 -0.088047646 0.11740484 0.17270826

np.item_emb.second_embedding_layer.bias f4 [16]
00000000: 5bbd bcbd 236c a53d 42f8 d9bd 8e55 36bd
00000010: 11a7 23be 050f 32bd 56f8 563d 3395 1e3d
00000020: 9ffe 313e 7c19 18be 5137 fc3d 638f 4f3c
00000030: 7131 063e 0e17 2cbe 7509 dbbd e178 943c
-0.09215804 0.08077266 -0.106430545 -0.044515185 -0.159817 -0.043471355 0.052482925 0.038716506
0.17382286 -0.14853472 0.12315238 0.012668463 0.13104798 -0.1680567 -0.10695163 0.018124046

np.user_emb.first_embedding_layer.weight f4 [32, 1872]
00000000: 5262 74bb 08b7 b43c 6ee0 673c e137 58bc
00000010: 9223 8a3c cd64 3a3c 47a2 5a3c b9ea af3a
00000020: c7ba cc3b 81b2 42bc fa0c 493c 69f0 8abc
00000030: 1dff 943b 62a7 f4bb b43c 553c 879b 683c
00000040: bdbd 01bc c3ff 5bbc 261a 2abc 41b5 98bc
00000050: ca8b 233c de52 61bc 1ba2 133c 1d28 b0bc
00000060: a130 bdba 542f 173c 4cfc b9bb af5f 9a3b
00000070: 5a32 8d3c e256 a1ba 57d3 513c 38cf 9fbb
00000080: 5251 883c cb97 86bc 4de3 4dbc 0421 993c
00000090: 2033 fc3b 1717 2b3c 7986 05bb 31e9 a6bc
000000a0: 6b78 af3c 56db 9d3c ba4d d53b c9a0 b5bc
000000b0: 924f f5bb 6dc2 ae3c 239f 093c bcbf 80bc
000000c0: 1446 cd38 b506 a5bb 2422 21bb 7cb3 a7bb
000000d0: 4eb8 88bc 385a 1c3c 07d1 a93c d7e9 8a3c
000000e0: d039 873c 1ee6 5bbb c3ed e4bb 793e 92bc
000000f0: 0912 6bbc 5543 033c 585b e83b 7684 b23c
00000100: fb7d 323a fdfb b3b9 2c3d a93b bbe6 4bbc
00000110: 25f8 613c 754f aa3b 1daa f03c 5c49 863b
00000120: 46ea b7bc 7164 bc3c 1de8 0b3c 062e 753c
00000130: 7252 683b 5142 b53b dd6d 4f3b 0e9e a03b
00000140: 10b0 9e3c aa53 a23c a4ee 913b 6362 633c
00000150: a326 15bc 9dae ac3c cb55 553c 4c03 823c
00000160: 562a 503c 8848 8b3c a56a 8c3c a1db 21bc
00000170: 7f22 dc3c 39ed edbb 6984 00bc e0c7 893c
00000180: 0675 dcbb 667d 1fbb c5ce 56bc a9c3 aa3c
00000190: ad68 923c 74ef acba 8e56 a73c 04f1 d33c
000001a0: e4e9 993c ccec 323c 553b aabc b164 33bc
000001b0: 768b 8fbc 26be dc3b 3aad 7abc bdf9 aabc
000001c0: 805d 9c3b e481 3a3c 5723 b33c 5ab9 083b
000001d0: 1632 023b 2425 453c cad4 93ba 02c2 a53c
000001e0: 2ee3 38bb f1b2 a5ba 2353 783c 1c2c 533c
000001f0: 363c 7a3c d1e1 80bc 994b bb3c 0c88 4ebc
00000200: 204a 993b cf23 cfbb f6e3 a4bc 90cd 8cbc
00000210: 5429 a33c 0f6e 92bb b6be d7bb 7e8e 543b
00000220: f91b 853b 776a b9bc 0138 aabc aa85 25bc
00000230: f406 2a3a 3398 2f3c 0ca5 c9bb 7baf 5d3c
00000240: aa55 203c 7dda 11bb d6b0 993c 5a0b 70bc
00000250: 89f4 0b3c 06bd df3b 67b1 193c b240 a63c
00000260: adfe 8a3b a9e5 afbb c631 b3bb 69e4 babc
00000270: 9d33 b7bc 8ef6 a93c e019 8abc 1c7c b6b8
00000280: 4712 3a3b b42c 213c 18ae 903c 3952 4dbc
00000290: adfd deba c954 2e3c 7763 ba3c a0f9 64bb
000002a0: 4f88 37bb ccfb 243a 7383 943b cde5 4abc
000002b0: 43c7 b4bb 9446 e23b 729f e23b bc92 403c
000002c0: 68ff 723a 32ca 363c cc7f 223c 7295 353c
000002d0: c1e6 26bc 7b34 ca3b 6dbd a9bc b2fd b43c
000002e0: 0215 a1bc 49d1 b03c f621 b03b 4e87 52bc
000002f0: 6b79 9c3b a996 b339 55f3 8fbc f5f6 8ebc
00000300: c073 273c b640 463c c210 29bc 5d34 fbbb
00000310: 331a ac3c ea77 38bc b7d1 613c 2a47 78bc
00000320: 5ee3 10bc a61a 78bb f62d a7bb bc99 74bc
00000330: 3883 a0bb ba3b 8d3c 0395 9a3c 15c9 963c
00000340: 8faa 903b 612d efba 5f98 a83c 8223 8a3c
00000350: bb19 f73a 67a5 633c 283f bf3b 879c b0bb
00000360: 9e64 183b 1b28 58bc 74b9 8abb cef5 bdba
00000370: ef26 6abc 01fa a73c fe7b 8a3c 5e0e 723c
00000380: 6946 16bc db6a 8fbc 2c86 9cbc 2a71 4c3b
00000390: a3bd 923b 30ca 043c 897e 5c3c 9db7 44bb
000003a0: 1d58 7bba 718d 56bb c547 fb3b 20e2 a6bc
000003b0: a234 943c d988 9ebc 709e bd3c d0a6 0a3c
000003c0: 191d 883c 66d0 15bc 8b10 0bba 02b5 feb9
000003d0: 16ea 193c 9326 023c 63af 16bc c409 cf3b
000003e0: 2216 37ba 2564 65bc 7026 82bc ee63 96bc
000003f0: 4525 2b3b ca69 90bc ca5e 093b b71f 99bb
-0.0037290049 0.022059932 0.014152629 -0.013196916 0.016862664 0.011376572 0.013344354 0.0013421393
0.0062478515 -0.011883379 0.01227116 -0.01696034 0.0045470134 -0.0074662426 0.013014961 0.014197237
-0.007918772 -0.013427678 -0.010382211 -0.018641116 0.009982059 -0.013752667 0.009010817 -0.021503503
-0.0014434048 0.0092275925 -0.005675828 0.0047111134 0.017235924 -0.0012309218 0.012806735 -0.0048769973
0.016640339 -0.016429802 -0.0125664 0.0186925 0.0076965243 0.010442517 -0.0020374341 -0.020374866
0.021419724 0.019269627 0.00650951 -0.022171395 -0.007486292 0.021332944 0.008399758 -0.015716426
9.788215e-05 -0.0050362 -0.0024587 -0.0051178318 -0.016689446 0.009542994 0.020729555 0.016957207
0.01650706 -0.0033553909 -0.006986351 -0.017852055 -0.014347562 0.008011659 0.007090967 0.021791678
0.00068089337 -0.00034329286 0.005164763 -0.012445147 0.013792072 0.0051974603 0.029377991 0.0040981006
-0.022450577 0.022997113 0.008539227 0.014964586 0.0035449532 0.005531587 0.0031651177 0.004901654
0.019371063 0.019815285 0.004453497 0.013878438 -0.00910345 0.021079356 0.013020943 0.015870713
0.012705406 0.017002359 0.017140696 -0.009879024 0.026871918 -0.007260945 -0.007844069 0.01681894
-0.0067278175 -0.0024336218 -0.013110821 0.020845251 0.017872179 -0.0013193921 0.020427015 0.025871761
0.018788286 0.010920715 -0.020780245 -0.0109493 -0.017522555 0.0067365346 -0.0153000895 -0.020871038
0.0047718883 0.011383507 0.021867437 0.0020862431 0.001986628 0.012032781 -0.0011278626 0.020234112
-0.0028211582 -0.001264183 0.01515654 0.012888934 0.0152731445 -0.015732678 0.022863196 -0.012605678
0.004678026 -0.0063214074 -0.020128231 -0.017187864 0.019917168 -0.0044686864 -0.006584014 0.0032433565
0.0040621725 -0.022633774 -0.020778658 -0.010102669 0.00064860214 0.010717439 -0.0061537083 0.013530607
0.009786049 -0.0022255473 0.01876108 -0.014651144 0.008542188 0.0068279533 0.009380675 0.020294521
0.0042417855 -0.005367954 -0.00546858 -0.022813993 -0.022363478 0.02074745 -0.016858041 -8.7015535e-05
0.0028392242 0.009837318 0.01766114 -0.01253181 -0.0017012857 0.010640332 0.022752507 -0.0034938827
-0.002800483 0.0006293624 0.0045322715 -0.01238389 -0.005516918 0.006905386 0.00691598 0.011753734
0.0009269626 0.011156606 0.009918164 0.011082994 -0.010186852 0.006170807 -0.020720208 0.022093628
-0.019663338 0.02158417 0.005375142 -0.012849642 0.0047752163 0.0003425379 -0.017572084 -0.017451743
0.010220468 0.012100389 -0.010318937 -0.0076661543 0.021008587 -0.0112590585 0.01378291 -0.015153686
-0.008843271 -0.003785768 -0.0051019145 -0.014929231 -0.004898455 0.017240394 0.018869882 0.01840643
0.0044148634 -0.0018247777 0.020580469 0.016862635 0.0018852273 0.013894415 0.0058363862 -0.0053897533
0.0023253332 -0.013193156 -0.0042335335 -0.0014492811 -0.014291509 0.020504953 0.016904827 0.014773933
-0.0091720605 -0.017507007 -0.019106947 0.003119538 0.004478173 0.008104846 0.013457903 -0.0030016669
-0.000958802 -0.0032738114 0.0076684677 -0.020371497 0.018091504 -0.019352363 0.023146838 0.008462623
0.016615437 -0.009143924 -0.00053048943 -0.00048581517 0.009394189 0.007943767 -0.009197089 0.006318303
-0.0006984194 -0.014000927 -0.015887469 -0.018358197 0.0026114744 -0.01762857 0.002096104 -0.00467297

np.user_emb.first_embedding_layer.bias f4 [32]
00000000: 8340 003d 8128 70bc 3a03 4a3d 84a8 93bc
00000010: a406 b3bc c54f 053d de29 783d 540d f4bb
00000020: 68f4 503d 9b5d 1a3d 5454 0e3d cfdd 253d
00000030: 9ee4 bbbc e975 b53c 0da1 163d 6855 253d
00000040: 466b bdbc 48af c23c 6ea9 f93b 835a 263d
00000050: 9ac7 b8bc f01f 283d 0024 64bb c5c6 4b3d
00000060: 60df 333c 94cb 9fbc 09ca c93c 4477 083d
00000070: a1c9 3c3d 4e1d 76bc 15c5 8abc 6c67 90bc
0.031311523 -0.014658094 0.049319483 -0.01802469 -0.021853752 0.032546777 0.060586803 -0.007447878
0.051014334 0.037686925 0.03474839 0.040494736 -0.022936162 0.02215095 0.036774684 0.040364653
-0.023122441 0.023765221 0.0076190745 0.040613662 -0.022556115 0.041046083 -0.0034811497 0.04975011
0.01097855 -0.019506253 0.02463247 0.033316866 0.046090726 -0.015021635 -0.01693968 -0.01762744

np.user_emb.second_embedding_layer.weight f4 [16, 32]
00000000: b33a d9bc 7870 033d a198 5ebd 9f48 f13d
00000010: 191b a7bd fb80 abbd 1942 8dbc 1fd3 0ebe
00000020: 6bd6 03be 3692 8c3d 7096 023e f49c 253e
00000030: c238 82bd daae 0bbd 8736 c6bd 756e 333e
00000040: 0bc5 40bd 0e78 fabd 93fa 483e 7117 24bd
00000050: 79bb bd3c 2991 283e 1ff2 d3bd 5a41 c13d
00000060: 8b82 453e b7eb f1bd ed9b 183d 1438 193e
00000070: 211a 503e 1792 1abe 7131 103e 2ba1 6fbc
00000080: f3f2 303e c2b4 1fbe 1ebe b7bd 8a23 503d
00000090: 6a46 953a c2a6 e53c 3b1c dd3d ede9 b63c
000000a0: 2e69 93bd 76db f93d 25ee 3f3e 7122 1c3e
000000b0: 16b0 58bd db79 e63c 64f3 b7bd c84e 1b3d
000000c0: 01c3 1a3e d937 903c 95df 10bd ccbb 93bd
000000d0: 9b02 06be 3588 bdbd e062 b93d c06c 7b3d
000000e0: 1fd8 e9bd 05e4 ef3d 0e79 7d3c 7212 fd3d
000000f0: 9dac ecbd f003 83bb bc36 583d 6e51 cbbc
00000100: 90d4 0bbe d7f3 debd e9ac 4d3e 0488 973c
00000110: 90fb f43d b03e 1e3e 550d 193e dd4d 54bd
00000120: 6639 babd 6dce c13d 3cce 193e e591 c8bd
00000130: 354e 0e3e 337a 6f3d 8c80 163e 704b 413e
00000140: 3357 98bd 407e 95bc f034 cd3d f63b 713c
00000150: 783f 06be fe11 d63d da3c 0f3e 41ae 123c
00000160: 0a08 00be 4efc 003e bbc1 92bb 023e 2a3b
00000170: d019 fd3d dc98 213e a55d e33d 7403 9ebd
00000180: 8788 0abe 95e7 de3d a696 d4bc 3bd8 6e3d
00000190: beba 8fbc 0d03 b5bd 8285 5bbd 8293 8fbd
000001a0: f06e 08be 7cf9 403c be7c a13d 5a8e 133e
000001b0: 7516 2bbe f7ed fc3d de90 8f3d 3095 b1bd
000001c0: 82b8 9cbd 83e9 4c3d cb69 2e3e 1a9e 96bd
000001d0: 1a31 ebbd 4f13 ab3d 5f51 21be e156 fe3c
000001e0: ab34 e1bc 9826 293e 4540 a2bd f116 5a3d
000001f0: b74a 0dbe 4e91 60bd dee5 e5bd f46e 34bc
00000200: 903a 9bbd ff92 8a3d 1052 e43d 3e33 b93d
00000210: 289f 91bd 4c78 d23c bffa 8dbc d5ce ef3b
00000220: 45b5 733c 486c da3d b628 07be 0a9e c8bd
00000230: 803c 20bc 7e17 8c3d 3c88 cb3d ed41 0bbe
00000240: edf3 173e 41ba f03c 777b 19be f15a 033e
00000250: cab9 313d 0854 603c f3dd ef3d 1fad 00bd
00000260: 5348 3d3d fc2e d1bd eac3 133d 9752 97bd
00000270: c160 a63c bdff 963d c994 cbbd 2bd4 c13d
00000280: a4f9 b33c 8040 843d 7f7d ddbd 8a78 5bbd
00000290: 29bc 363d b12c 483c 081a ad3d 994b ca3d
000002a0: 3234 dabd f449 9fbd 46a4 65bd 9801 c53d
000002b0: 498d 3a3d 31a1 7ebd ca52 133c 8ba4 083c
000002c0: eb19 24be a491 b43c 3866 ad3d b810 463d
000002d0: 04aa b33c 2bbe 343e d0d2 eabd 36f7 f73c
000002e0: a0d6 983d 49d6 043d 18a9 bcbd 50ba f33d
000002f0: 3024 d23d d80e dcbb 3a48 dc3c f596 08be
00000300: 03fb f0bd 1cc2 083e 0844 b0bd b8c3 f73d
00000310: 2879 c6bc f035 0e3e 0d14 2cbe e343 86bd
00000320: 82a0 e23d bd6a 89bd 93b6 1abe eb13 51bc
00000330: e8c5 5a3d 8278 763d a695 033e f3d1 f33d
00000340: c803 413d 32f9 0c3e a77b a5bb da7a 153d
00000350: c45d fb3d 4e89 103c 01cc 303e bd31 0b3e
00000360: c918 efbd 7915 09be bec0 fabb 0602 19be
00000370: 93b6 c43d 6e18 103e b9ea c0bd 800d 213e
00000380: 558e 053d 1616 e53d 9175 163e ed10 e6bd
00000390: d7d6 2ebe 042f c13d a1b9 b6bb 1da8 d6bb
000003a0: a858 393e 2716 4c3d 7a89 873d c1be 66bd
000003b0: 8e61 1b3e 7ca9 9cbd 924d ac3d 8a01 00be
000003c0: 28c6 8b3d 6bf6 60bd cef0 af3d 3853 ee3d
000003d0: 522f fa3c a952 8f3d 01f9 93bd 7228 e43d
000003e0: b7cf 1e3e babb 0bbe ec7f 18b8 b732 893d
000003f0: f0ec 25bd 7eec 53bd 7b5c a9bd 5149 d8bd
-0.026517248 0.03208968 -0.054344777 0.117814295 -0.08159465 -0.083742104 -0.017243432 -0.13947724
-0.12874763 0.06863825 0.127527 0.16173154 -0.06358482 -0.0341023 -0.09678369 0.17522605
-0.047062915 -0.1222993 0.19626836 -0.040061418 0.023160683 0.16461624 -0.10348915 0.09436293
0.1928808 -0.11812537 0.037258077 0.14962798 0.20322467 -0.15094791 0.1408136 -0.014625828
0.17280178 -0.15596297 -0.08971809 0.050815143 0.0011388783 0.028033618 0.107964 0.022328341
-0.07197796 0.12200062 0.18743189 0.15247513 -0.052902304 0.028134277 -0.0898197 0.03791693
0.1511345 0.017604755 -0.035369474 -0.07213554 -0.13086931 -0.09254495 0.09052062 0.06138301
-0.11418175 0.11713413 0.015470756 0.12357034 -0.11556361 -0.003998272 0.052786574 -0.024819102
-0.13655305 -0.108863525 0.20085491 0.018497474 0.11962044 0.15453601 0.14946492 -0.05183207
-0.09092979 0.09463201 0.15020078 -0.09793452 0.13897021 0.058466148 0.14697474 0.18876433
-0.07438507 -0.018248677 0.10019863 0.014723768 -0.13110149 0.104526505 0.13988057 0.008952678
-0.12503067 0.12596247 -0.004478661 0.00259769 0.12358439 0.15780967 0.11101846 -0.077155024
-0.13528644 0.108840145 -0.025950741 0.058311682 -0.0175451 -0.088384725 -0.05359412 -0.07010557
-0.1332357 0.011778232 0.07885121 0.14409772 -0.16707785 0.12350076 0.07010053 -0.086710334
-0.076523796 0.05002738 0.17032544 -0.07354374 -0.11483975 0.08353292 -0.15753697 0.031047286
-0.027490934 0.16518629 -0.07922415 0.053244535 -0.13798033 -0.054826073 -0.11225484 -0.011012781
-0.07579529 0.067663185 0.11148465 0.09042977 -0.07110435 0.025692128 -0.01733148 0.0073183575
0.014874761 0.10665184 -0.13199124 -0.097957686 -0.009780049 0.06840418 0.09938094 -0.13599367
0.14839144 0.029385688 -0.14988504 0.1282766 0.043390073 0.01369191 0.11712255 -0.0314151
0.046211552 -0.1021404 0.03607551 -0.073888 0.020309808 0.07372997 -0.09940488 0.09464296
0.021969624 0.06457615 -0.10814952 -0.053581752 0.044613037 0.0122176865 0.08452231 0.098777
-0.10654487 -0.07777777 -0.056064866 0.096194446 0.045544896 -0.062165443 0.008991906 0.008340011
-0.16025512 0.022042103 0.08466762 0.048355788 0.021931656 0.17650668 -0.114659905 0.030269247
0.074628115 0.03243092 -0.092119396 0.11900771 0.102608085 -0.0067156367 0.026889909 -0.13338836
-0.11766627 0.13355297 -0.08606726 0.12097877 -0.024227694 0.13887763 -0.16804524 -0.06555917
0.11065771 -0.06709812 -0.15108709 -0.0127610965 0.053411394 0.06017352 0.12850055 0.11905279
0.047122747 0.13766935 -0.005050141 0.036494114 0.12273744 0.0088217985 0.17265321 0.13593192
-0.11674649 -0.13387097 -0.007652371 -0.14942178 0.09605136 0.14071819 -0.0941977 0.15727806
0.03260644 0.11185853 0.14693286 -0.11233697 -0.17074142 0.09432796 -0.005576328 -0.0065508024
0.18100226 0.049825814 0.066180184 -0.05633426 0.15173933 -0.07649514 0.08413233 -0.12500587
0.06824905 -0.054922502 0.08590852 0.116369665 0.030540142 0.06998188 -0.07225228 0.11140527
0.15508924 -0.13645831 -3.635876e-05 0.06699126 -0.040509164 -0.05173921 -0.082695924 -0.10560859

np.user_emb.second_embedding_layer.bias f4 [16]
00000000: 1939 8d3d 672b 203d 8d24 4d3e 850f f7bd
00000010: 5674 1ebe c22d ac3d 8d03 0cbe 82cf 143e
00000020: 9a55 fd3d 1a76 17be df96 c7bd a659 2bbe
00000030: dc84 3f3e db29 533e 3881 02be cd96 1a3e
0.06895656 0.03910389 0.20033474 -0.12063507 -0.15474066 0.08407165 -0.1367323 0.14532283
0.12369843 -0.14791146 -0.09745573 -0.16733417 0.18703026 0.20621435 -0.12744606 0.15096588

np.xy_to_z.input_to_hidden.0.weight f4 [32, 33]
00000000: ec90 9bbd 3448 f83c 41a5 80bd 7bd4 8bbd
00000010: d198 bebd 094c 493c 4a22 d63d 3089 413e
00000020: 09fd 003d 5dea a5bd 8391 303e 5199 7cbd
00000030: 7ff4 573d 07aa 8b3d 8074 21bd d708 e93d
00000040: 8577 483e 5443 fdbc 3907 87bd 0c39 703d
00000050: e96a 1c3d 0f0a e6bc e806 1d3e 6125 a4bd
00000060: 24fd 3c3e 6723 29bd 0b95 52bd be86 0ebd
00000070: f538 1b3c f963 72bd d875 863d 4ad4 fbbd
00000080: e353 3d3e 9d70 2abe a699 12be 4233 2ebe
00000090: b6f4 aa3d c19d 4dbd 1b80 c1bd 1cbd ab3d
000000a0: a9ce 80bb ea87 8d3d cec4 fe3b 03f7 993c
000000b0: af59 2a3e cf6a 97bd 1104 2f3e 0ac7 d33d
000000c0: 0dff af3d f172 28be 0e51 dcbd 3bb8 31be
000000d0: 5a85 0f3c 5f9e 82bd 5e8e 0dbe 7cf1 0abe
000000e0: 46c0 ba3d 7a86 2bbe 1422 b9bc 9776 c73c
000000f0: 4a50 e33d 5ce4 263e 23d5 f3bd 5217 3d3d
00000100: df2d 203e 239a 0cbe b4a2 0e3c b707 6cbd
00000110: 3e0d ad3d c87b d93d be56 5fbd e682 bdbd
00000120: a90d 5bbd 7a28 f83d 4be5 673d 7bda 9f3d
00000130: c205 f6bc 2536 2ebd 2248 27be 81be 1abd
00000140: b551 0f3e ea0c 56ba 054c 1c3d bc45 693d
00000150: e8be 5639 f442 79bc 70c0 7fbc 6e4b 303e
00000160: 130b 303d ac3c 9fbc 81ac 15be 08dd acbd
00000170: 879c 1cbe f11b 22bc 1729 313d a4f5 833c
00000180: 712f 243d 03cd f0bb 6055 683a 09ab 23be
00000190: c107 eabd a5a8 cdbd 9929 cc3c 76f5 08bd
000001a0: f6a5 0b3e 5a00 cb3d 27ce febd ee90 c2bd
000001b0: 8ec8 e23d ab0e 0dbe 80b9 04bd ba26 193e
000001c0: ca0f 44bd d503 30be cea1 dc3d 2b4d 073d
000001d0: 9863 1ebe fd24 193e 5b8d a3bd fdd8 0cbd
000001e0: cbb8 e03c 42b9 54bd 85fb 153e 86ce b1ba
000001f0: f29d cb3c b12d f1bd a85b 0c3e c32a 1abe
00000200: 0d24 bd3c e004 fabc 3947 9f3d ac85 56bd
00000210: 4379 043e 2f67 37bd ce64 c83d 6c61 2ebe
00000220: 25bc e03c 26dd 0b3e d853 303e 6959 6b3d
00000230: 22da 18be eb44 afbd cc1d 0b3e 501e 123e
00000240: 27b5 cf3c 1c9c df3d b2cf e03d 5762 50bd
00000250: a1b2 7b3d 9a70 3e3d 6b97 77bb 134a 50bd
00000260: 7cb2 06be c381 2cbe e46d d7bb e5ee 27be
00000270: 4269 df3c 77b2 7ebd f3ff e43d e533 163e
00000280: 9fe1 83bd 903a 75bd 9607 053e 51d7 39bd
00000290: ae93 b0bd 8083 0abe a39f 333e fd1a 073e
000002a0: bea7 0abd 3d9d c83d fc76 b93d 0518 613d
000002b0: b0fe 98bd 8b84 38bd a00c 953d 444e 0a38
000002c0: 15ad f03d 971d c8bd d666 2fbe 0d8c 5fbd
000002d0: 8eeb 2e3b 58be 60bd b1f3 053e 264c 89bd
000002e0: 0959 c13d 4c91 e6bc 873e b3bd 51d0 9e3c
000002f0: 2ece 3b3e d57a 053e 523b 31be 63fd b6bd
00000300: 3152 ffbd cc0a 32bd 036f d03d 2562 02be
00000310: 0175 543c e1ce 3b3e 56ca cbbc 20c7 ffbd
00000320: af9a 823d 75b9 e7bd 73a0 02be 85a3 993d
00000330: a7a6 1f3e 1a7b bebd 31af 5d3d bac2 00be
00000340: d39b 9bbc de61 103e 833e 32bd 5d5a af3c
00000350: 28dc a3bd c6e7 04be e1a9 45be 0387 aebd
00000360: dd68 35be 118d 88bd 9a48 253d 0d70 f6bd
00000370: c96f e9bd b1d1 9ebd a6b7 2bbd 9d3c 2bbe
00000380: 7069 52bd 36fb fc3d 3810 06be 10c1 8fbb
00000390: 60a3 1ebe c3db 2fbe d5b6 ca3d 0c37 a8bd
000003a0: 91e5 8e3d ec53 0c3e d1b6 1abe 1495 a3bc
000003b0: fea9 c1bd d4f2 e5bd b533 00bd 0a0d ba3b
000003c0: 8a56 bcbd fe7a 21bd 9761 92bc 0635 613d
000003d0: 7490 f7bc 8613 113e f3dc 653d 526e 81bd
000003e0: 7c99 3b3d 14d0 3c3e d2b4 19be 33bf 54bd
000003f0: 1057 303e 4acd 0fbd 1a73 f7bd cc5b ffbc
-0.07596001 0.030307867 -0.0628152 -0.06827637 -0.09306491 0.012286195 0.10455759 0.18899989
0.031491313 -0.08101342 0.17243008 -0.06166965 0.052723404 0.068195395 -0.039417744 0.11378639
0.19576843 -0.030915894 -0.065931745 0.058648154 0.038187895 -0.028080968 0.15334666 -0.08014942
0.1845594 -0.041293528 -0.05141167 -0.03479647 0.009474029 -0.059177373 0.06565446 -0.1229635
0.18489031 -0.16644521 -0.14316425 -0.17011741 0.08347456 -0.050199274 -0.09448262 0.08385679
-0.003930886 0.06910689 0.007774926 0.018794542 0.16635774 -0.07393419 0.17091395 0.10340698
0.08593569 -0.16450097 -0.107576475 -0.17355435 0.008759821 -0.06377863 -0.1382384 -0.13568681
0.091187045 -0.16750517 -0.022599258 0.02434854 0.11099298 0.1629805 -0.11905887 0.046164818
0.15642498 -0.13730673 0.008705784 -0.057624545 0.08449791 0.106193125 -0.054526083 -0.092534825
-0.053479824 0.12117095 0.056615155 0.07805344 -0.030032042 -0.042532105 -0.1633611 -0.037779335
0.13996013 -0.00081653765 0.038158435 0.05695127 0.00020479748 -0.015213717 -0.0156098455 0.17216274
0.04297931 -0.01943811 -0.14616586 -0.08440596 -0.15294085 -0.009894357 0.043252077 0.016108342
0.040084306 -0.007348658 0.00088628195 -0.15983213 -0.1142726 -0.10041932 0.024922179 -0.033437215
0.13637528 0.099121764 -0.12441664 -0.095002994 0.11073409 -0.13775127 -0.03240347 0.1495618
-0.04786662 -0.17188962 0.10773049 0.033032577 -0.1546768 0.14955516 -0.07985946 -0.034386624
0.027431866 -0.051934488 0.14646728 -0.0013565577 0.024855588 -0.11776293 0.13706839 -0.15055375
0.02308848 -0.030519903 0.077772565 -0.052373573 0.12936883 -0.044776138 0.09784852 -0.17029351
0.027433464 0.1365858 0.17219484 0.057458315 -0.14926961 -0.08558067 0.13585585 0.14269376
0.025354935 0.109184474 0.10977115 -0.050875034 0.06144965 0.046494104 -0.003777946 -0.050851893
-0.13154024 -0.16846375 -0.0065743793 -0.16399725 0.02727187 -0.062181916 0.11181631 0.14668234
-0.06439518 -0.059870303 0.12991175 -0.045371357 -0.08621918 -0.13526726 0.17541365 0.13193889
-0.033851378 0.09795616 0.090558976 0.054954547 -0.07470453 -0.045048278 0.07277799 3.2974654e-05
0.11751763 -0.09771269 -0.17129073 -0.054576922 0.0026690695 -0.054869026 0.13081242 -0.06703977
0.0944081 -0.028145455 -0.087521605 0.019386442 0.1834037 0.13035138 -0.17307785 -0.089350484
-0.12466849 -0.043467328 0.10177424 -0.12732752 0.012967349 0.18340637 -0.024876755 -0.12489152
0.0637716 -0.1131467 -0.12756519 0.07501892 0.15590917 -0.093008235 0.054122154 -0.12574282
-0.018995201 0.14099833 -0.043516647 0.021405393 -0.08000976 -0.1297904 -0.19303085 -0.08521845
-0.17715783 -0.06667531 0.04035244 -0.12033091 -0.113982745 -0.07754839 -0.041923188 -0.16722341
-0.051370084 0.12352602 -0.13092124 -0.0043870285 -0.1549201 -0.17173676 0.09898154 -0.08213624
0.0697738 0.13703889 -0.15108801 -0.019968547 -0.094562516 -0.112279564 -0.03129931 0.005677824
-0.091961935 -0.039423935 -0.0178688 0.054982208 -0.030220248 0.14167604 0.056118917 -0.0631987
0.04580067 0.1843875 -0.15010384 -0.051940154 0.17220712 -0.03510789 -0.12082501 -0.031171702

np.xy_to_z.input_to_hidden.0.bias f4 [32]
00000000: 7da9 403e 0050 26bc de38 2f3e 64b2 0dbe
00000010: 4275 25be 5cc5 303e a1db 283d 8a82 2c3e
00000020: 0c11 efbd 2e5c 393e 1474 1f3d 5024 07bb
00000030: faff 2dbe 8792 9bbd 6eff 86bd 8509 1e3e
00000040: d393 b03d 5a3d 06be bfd2 a8bd 50c2 223d
00000050: bf03 c4bd 3a0f 653d 0c9d 00bd e3ba 233e
00000060: 952e cdbc 0db1 53bc 7946 543b 0db6 1abe
00000070: 4c5d 9fbd 7d87 b9bd fcee b8bd ca19 0c3d
0.18814655 -0.010150909 0.17111537 -0.13837582 -0.16158012 0.17262787 0.04122508 0.16846672
-0.11673173 0.1810157 0.03892906 -0.002062101 -0.16992179 -0.07596307 -0.06591688 0.15433319
0.08621945 -0.13109341 -0.082433216 0.039736092 -0.09571027 0.055922724 -0.03139977 0.1598926
-0.025046626 -0.01292063 0.0032390638 -0.1510851 -0.07781467 -0.090590455 -0.09029958 0.034204282

np.xy_to_z.input_to_hidden.3.weight f4 [16, 32]
00000000: d797 afbd f83b 2dbe e781 ae3c a87f a4bd
00000010: 1247 a1bd ac78 783c a624 0d3e 8fb8 1a3e
00000020: 5683 c5bd 2c48 073e fca3 14be 628f 3ebd
00000030: ec44 52bd 8465 e9bd c579 213d df4f b73d
00000040: 8d73 32be e3d9 72bc 4acb cd3d c043 0b3e
00000050: dc95 ee3d 5c16 89bd 83e8 77bc 8e85 cebd
00000060: 771e 9f3d 2c7d 30be 3a74 90bd 4351 f2bd
00000070: d566 b23d 3cb1 1bbe e797 55bd da5c 0f3e
00000080: 1b2f 4b3e 86f3 163e 813a 7abd 0e46 4d3d
00000090: c7b7 fdbc 5c84 fa3d 5392 dabd 0a79 c33d
000000a0: 1d05 083e a8f8 c23c 9920 81bd 79ff 2a3e
000000b0: b32e 1e3d ac27 4b3e d6ff 98bd f7fb 0d3d
000000c0: 8426 ee3d 8b9d 3bbd 71e6 973d 938b 0d3e
000000d0: fa5c 883d 603b 993c dcfc cebd ba3d 113d
000000e0: b21e fbbd 5ae0 3d3e fe34 013e 42f0 29bd
000000f0: 9e62 a9ba 2c79 1ebe f00e f6bd 38c5 efbd
00000100: f2d6 013c 876f 9fbd 2298 3b3e a74e 173e
00000110: 5263 1d3e 8ff1 88bd ab2b f03d be21 a73d
00000120: 6fa3 52bd 9213 e2bd 183b b0bd 8358 473e
00000130: f03e debd a978 bdbb 2589 6a3b fb4b 313e
00000140: 12d9 3c3e 66fa b6bd 8324 263e 0112 eb3d
00000150: 4c1a 13bc 5ea3 7a3d bcbd 193e 5be4 db3d
00000160: cec1 7fbd 60c4 893d 93db 1d3e 73dc 3cbd
00000170: 2a86 9b3d d3e8 c8ba 8f55 9bbd 9419 023e
00000180: 6291 323e e3af 26be 8433 10be 8174 cf3d
00000190: 36c5 12be 3896 b1bc 33c7 02be 5713 d03d
000001a0: 8275 233e 90be 8f3d 9973 783c be47 2f3e
000001b0: a2c1 d3bc dff4 efbd 3543 d9bc e7e5 363e
000001c0: 46d2 293e 4f5d 06be af95 ea3d eae4 c93d
000001d0: d6ba f7bd 224b 503d deed c33d a348 0abe
000001e0: d251 033d 7eb5 1d3e 124a 633e 9a7d 243e
000001f0: fbd0 a73d e859 cbba 5f4e 27be c4e1 c6bd
00000200: 4fe0 eebd 3a45 02be 20ca 1abe 9c97 3d3d
00000210: b4be f73c e0fb 003e 4312 2f3d fc7a 21be
00000220: c6e6 91bd fd4d edbd 816d 04bd 84c4 d9bd
00000230: 95b1 073e fc8a 02bc ac2c 313e e84e 1bbe
00000240: a2fb 1b3d 3850 e2bc 7e18 13bb 622f c23c
00000250: 8039 34be 3390 0f3e eee3 fdbd 7084 e83d
00000260: 4c20 11be ccea 1dbd 3df3 00be 0fff 19bc
00000270: 144c 14be d158 d938 043a e8bd 174f 143e
00000280: 8b31 323d 4129 07be 035a ef3b 4faf f23d
00000290: b2a3 a83a c395 423e db84 08be 7b76 0bbe
000002a0: 3dd5 273e d099 2d3e f5c6 0d3d a789 443b
000002b0: 0447 ab3d e7cd e0bd c03b c43d 335f 80bd
000002c0: 2706 32bd f066 8b3d 763e 103e e1f0 bd3d
000002d0: f8b8 8cbb 9b83 d7bd 0822 acbd 9094 51bc
000002e0: 4a4e 2bbd c51d 16bd c71c 5dbd c91b dd3d
000002f0: 571a f2bd 7f13 103e 5406 d3bd 0a81 163e
00000300: 9e4f 0fbc 6e4e 11be 27c7 d6bd d9fc 293e
00000310: 40b6 473d 30f6 8abb 7bd6 103e a8a3 f7bc
00000320: dfbb 633d 790e c43d d0bb d93d f5b9 a4bd
00000330: 7d05 ee3d cfa6 313c 80be cc3d 1988 93bd
00000340: a642 73bd e746 1ebe bed2 eb3d 4ee1 933d
00000350: dafd b5ba 9ca7 05be 00de 06be 7e7a 403d
00000360: 4c00 c43b bdb4 1f3c acf1 033e 8344 8f3d
00000370: d097 a73d 1c7a 2c3e dbb1 e83b 3f21 b73d
00000380: 68ac a8bd 6c04 093e 9b0e 323d 15ea bc3d
00000390: 7531 32be bdc9 9bbd 3643 ffbc 8ce9 633d
000003a0: 0b54 d13d b3ba 9e3c a0a9 cdbd 6807 433d
000003b0: 4abe 233e c61c 053d 49d9 56bd 1cef d43d
000003c0: 0e33 1e3e 4ba5 90bd d763 053d cd0a e2bd
000003d0: 1ef4 6ebd 0f9b aa3d a94d 7abc a780 583e
000003e0: 9966 e3bc 9438 e4bd 230e 01bd 86f1 aa3d
000003f0: beed 07bd 343e 0fbe 8462 01be 7ed7 d03d
-0.08573883 -0.16917408 0.021302177 -0.08032161 -0.07874884 0.015165489 0.13783512 0.15109466
-0.09644191 0.13211125 -0.1451568 -0.04652346 -0.05133526 -0.11396316 0.03942277 0.08950781
-0.17426892 -0.014822456 0.1004854 0.13600063 0.11649677 -0.06693718 -0.015131119 -0.10084067
0.077694826 -0.1723525 -0.070534185 -0.11831906 0.0871102 -0.15204328 -0.05214682 0.14000264
0.19842188 0.14741334 -0.06109095 0.050115637 -0.03097142 0.12232277 -0.106724404 0.09544571
0.132832 0.02380021 -0.06305046 0.16699018 0.038618755 0.19839352 -0.07470672 0.03466412
0.1162844 -0.04580454 0.07417 0.13822775 0.06658359 0.01870507 -0.10106823 0.035459258
-0.12261714 0.18542615 0.12617871 -0.041488893 -0.0012923067 -0.15475911 -0.12014568 -0.11707538
0.007924782 -0.07784944 0.18319753 0.14776097 0.15369919 -0.06686699 0.11727079 0.08160733
-0.051425394 -0.11038889 -0.08605021 0.19467358 -0.10851848 -0.005782206 0.003578731 0.1731414
0.18442181 -0.089344785 0.16224866 0.11478043 -0.008978438 0.061190955 0.15013784 0.10736915
-0.062440686 0.06726909 0.15415792 -0.046108674 0.07593949 -0.0015328176 -0.075846784 0.1270507
0.17438272 -0.16278033 -0.14082152 0.10129643 -0.14333043 -0.021678075 -0.12771301 0.10159939
0.15962794 0.07018769 0.015164279 0.17117211 -0.025849167 -0.11716627 -0.026521305 0.17861138
0.16584119 -0.13121532 0.11454331 0.09858115 -0.12096183 0.050852902 0.09566854 -0.13504271
0.03206045 0.15401265 0.22196224 0.16063538 0.08194157 -0.0015514465 -0.1633849 -0.0971103
-0.11663877 -0.1272172 -0.15116167 0.046287164 0.030242302 0.12596083 0.042742025 -0.15769571
-0.07124095 -0.11587141 -0.032330994 -0.106331855 0.13251336 -0.007967707 0.17302197 -0.15166819
0.038081773 -0.027626142 -0.0022445018 0.023704235 -0.1760006 0.14019851 -0.1239699 0.113533854
-0.14172477 -0.038553998 -0.12592788 -0.00939919 -0.14482147 0.0001036391 -0.113391906 0.14483295
0.04350428 -0.13199331 0.0073044314 0.11849844 0.0012866168 0.19002442 -0.1333193 -0.13619415
0.16389938 0.16953206 0.03461357 0.0029989274 0.083631545 -0.10976773 0.09581709 -0.06268158
-0.0434629 0.06806743 0.14086327 0.0927446 -0.004294511 -0.105231486 -0.084049284 -0.012791768
-0.04182271 -0.036649484 -0.053982522 0.10796315 -0.1182143 0.14069937 -0.10303941 0.14697662
-0.00874701 -0.14190075 -0.10487204 0.1660036 0.04875779 -0.0042407736 0.14144318 -0.030229405
0.05559909 0.09573073 0.106315255 -0.08043281 0.116221406 0.010842993 0.099972725 -0.07203693
-0.059389733 -0.15456735 0.11514805 0.07220708 -0.0013884858 -0.13052219 -0.13170624 0.046991818
0.0059814807 0.009747681 0.12885159 0.069954894 0.08183253 0.16843456 0.00710128 0.08941888
-0.08236009 0.13380593 0.04347096 0.09224335 -0.17401679 -0.07606838 -0.031159978 0.05564265
0.10221108 0.019376134 -0.10042119 0.047614485 0.15990558 0.032498144 -0.052453313 0.10397169
0.15449163 -0.07062777 0.032565918 -0.11037216 -0.058338277 0.08330356 -0.015277305 0.21142827
-0.027758883 -0.11143604 -0.031507622 0.08346848 -0.033185713 -0.13988572 -0.12635237 0.10197352

np.xy_to_z.input_to_hidden.3.bias f4 [16]
00000000: 6946 d1bd d2e3 1d3e afa5 f83d 4fc3 f93d
00000010: 68c5 203e 6592 e13d 4ba4 4abd 9de8 983d
00000020: e708 593d 7bae 22bd 50bf 4ebd e875 8e3c
00000030: 25d6 293e 4729 833d 2b12 0b3e 2126 3f3e
-0.10218508 0.15418938 0.12140977 0.12195455 0.15700305 0.11014251 -0.04947309 0.074662425
0.052987006 -0.03971718 -0.05047542 0.017390206 0.16585596 0.064043574 0.1358115 0.18666889

np.xy_to_z.input_to_hidden.6.weight f4 [32, 16]
00000000: 12d4 7c3e 0756 d13d 562d 693e 391f 06be
00000010: 53a9 423e 9043 813e cede 4abe f289 e2bd
00000020: fde0 39be 1466 b5bd 0456 b8bd 0ceb 14be
00000030: 8817 8b3c 4144 28be 7a17 18be c0c0 c5bc
00000040: d8f9 99bd a093 56be 5430 87be b57e b2bd
00000050: a236 4b3e 63bf 66be e026 d9bd 6925 7bbe
00000060: 3a27 8fbe dac1 af3d 74a8 523e 1231 c23c
00000070: 4845 43be ce8e dc3d 7258 34be ed68 c83d
00000080: 0078 7e3a 4f1f ef3d fefb 633d 905a 633e
00000090: 5b20 98bb 08f3 6dbe ae24 13be b2ed 853d
000000a0: 1c0c 7f3e d780 5ebd 5c93 5fbe bbd4 8a3d
000000b0: e1ea 863d 7e34 f03d f561 473e 125f 89bd
000000c0: c8e2 253d 35d2 293e d44b 7fbd b937 f23d
000000d0: cbd3 d23d 7e7d 89bd 8e18 223e 6306 713e
000000e0: e197 783c ed78 e6bd 4aef e6bd b515 d0bd
000000f0: bc03 a53b 2214 b8bd 79ab 26be 7d3e 95bd
00000100: 1281 033e 0490 b13d 4799 83be 6611 8fbe
00000110: e5cc 58bd fe1b 1ebe 9646 0cbe 8f94 05be
00000120: 419f 863d 3aff acbd abf3 0abe 5561 fbbc
00000130: 12eb 38be 2170 a33d 8c25 de3d 0b59 12be
00000140: f6a4 463e 366b a5bd 932a f3bd 2c7b 65be
00000150: a967 6a3e 3830 1bbe ec7f 8c3d 85ec 37be
00000160: 5174 38be 41d8 b33d e770 23bc 4e2d e8bd
00000170: a57a 793c 1c77 b83b 05fd bbbd c283 30be
00000180: c8e7 97bd e9e6 58be 4491 123e 3b52 f13d
00000190: 4dc1 69bd e2e5 0ebd 82bc 3f3e ceea fdbc
000001a0: 502b 1abd 4490 66be 56d7 30bd 6066 613e
000001b0: 415d 433e 7911 4d3e db4e 093e 6c84 e4bc
000001c0: ac54 17be 3cb9 62bd cbd5 31be 14cd e93d
000001d0: f143 d5bd 9df0 8cbd 7c57 cabd 5001 1b3e
000001e0: 348b 45bd b55c 8abe 4c5d 973d 57c9 553e
000001f0: a176 b13d b534 8b3d 5188 6dbe f55c dcbd
00000200: 286b c23d a3ee 8b3d 9533 5c3e e392 823e
00000210: 1029 603a 6184 163e d8dc 88bd ff33 773e
00000220: 2f6d 993d b68d c3bb 407d 58be c83e 34bc
00000230: d411 c4bc 995b 3e3e a341 c53d a56e 113e
00000240: 188a 963d d8bb 83be 9ff1 2dbe cf59 243e
00000250: d04e 2cbd 3305 54be 0801 61bd b874 85be
00000260: 4400 57be 487f 85be 186a 7e3e 29b4 f4bd
00000270: 0a50 68be 5ca2 c83b a1e5 d63d 98d3 89be
00000280: 20b9 22bc 6b59 50be d984 79be 408c 57be
00000290: 71b1 1f3e c389 d33d 380b bcbd 68ca fb3d
000002a0: bc6e 143e def0 97be 375d 273e 9ae5 86be
000002b0: 47e9 08be 3f76 a93a bf88 2d3d 0604 8bbe
000002c0: 643b 89bd b7ef 6c3d 23fa 75ba 333b 953d
000002d0: fd41 2a3e 038f 23be 980d 6cbe 71f6 13bd
000002e0: c3cf a4bd 4bd4 4e3e ea62 97bd 0f60 293d
000002f0: cd7d 393d 116c 123e f26c 33be 861d 083e
00000300: e48a 09be 1e87 083d 034a 633e 23dc 3c3d
00000310: bd17 bc3d 6a4c 273e be65 073e 0429 003e
00000320: 95f6 883e c5eb c53d 4fb9 293d da6e f8bd
00000330: 94fa cebd 7a37 95bd c527 0cbe 595d e3bc
00000340: c03d 4dbc c6cc 84be fd35 52be f526 943d
00000350: 2309 96bd db84 a0bd 747e 673e 367d 92bd
00000360: 173f 95bd e623 633e 38e9 a2bd 1249 943b
00000370: 2afd 5bbd 8392 59be 16f4 fc3d dd63 523e
00000380: ac47 6bbe 8152 463e b44b 123e 6ebd c43d
00000390: 6fb5 633e 2b2d 2f3b 801d 283e 4903 f73d
000003a0: 4a4e f33d 2091 64be 3cac e23d 336a 703e
000003b0: 3d2d 163e 0c9b 66be 0444 6d3e bff5 30be
000003c0: 4062 1f3e 5ca9 8f3e c275 773e cb76 9dbc
000003d0: 3ddf babd 3677 f3bd 861c 4cbe d9d1 13be
000003e0: c99a 2d3e 700f 663e 10f1 06be 1995 5e3d
000003f0: eb8e f63c 274f 923e c9d4 963d 296d 75bd
0.24690273 0.102214865 0.227712 -0.13097848 0.19009905 0.2524686 -0.19811556 -0.11061467
-0.18152232 -0.088573605 -0.09000781 -0.14542788 0.016978994 -0.16432287 -0.14852706 -0.024139762
-0.07518357 -0.20954752 -0.2640406 -0.08715574 0.1984506 -0.22533946 -0.10603118 -0.2452599
-0.27959615 0.08581896 0.20572072 0.02370504 -0.19069397 0.10769425 -0.17611864 0.09785638
0.00097072124 0.116758935 0.05566024 0.22202516 -0.004642529 -0.2323724 -0.14369461 0.065394774
0.24906963 -0.05432209 -0.21833557 0.06778856 0.06587768 0.11728762 0.19470961 -0.06707586
0.04049948 0.16584094 -0.062328175 0.118270345 0.102943026 -0.06713389 0.1582968 0.23537593
0.0151729295 -0.112535335 -0.112761095 -0.1016039 0.0050358456 -0.08988215 -0.16276349 -0.07287309
0.12842205 0.08670047 -0.2570288 -0.2794296 -0.052929778 -0.15440366 -0.13698801 -0.13044952
0.06573344 -0.08447118 -0.13569514 -0.03068606 -0.18058422 0.07980371 0.10847005 -0.1429178
0.19398865 -0.080770895 -0.11873355 -0.22410268 0.22891106 -0.15155113 0.06860337 -0.17961319
-0.18013121 0.087814815 -0.0099756485 -0.11336766 0.015226995 0.0056294333 -0.09179119 -0.17237762
-0.07417256 -0.21181835 0.14313227 0.11783262 -0.05706911 -0.034887202 0.18724254 -0.030995753
-0.037638962 -0.2251597 -0.04317411 0.22011709 0.19078542 0.20026197 0.13408987 -0.027895175
-0.14778394 -0.055352435 -0.17366712 0.11416069 -0.104133494 -0.06881831 -0.098799676 0.1513722
-0.048228458 -0.27023855 0.07390842 0.20877586 0.08665205 0.067971624 -0.23196532 -0.10759918
0.09493095 0.06832626 0.21504052 0.2550269 0.00085510407 0.14698936 -0.066827476 0.24140929
0.07491528 -0.005967821 -0.21141529 -0.011001296 -0.023934282 0.18589629 0.0963166 0.14202364
0.07350558 -0.2572925 -0.16986702 0.16049884 -0.04206735 -0.20705108 -0.054932624 -0.26065612
-0.20996195 -0.2607367 0.24845159 -0.11948425 -0.22686782 0.0061228704 0.10493017 -0.26919246
-0.009931833 -0.2034661 -0.24367084 -0.21049595 0.15595032 0.1032901 -0.09181827 0.12294465
0.14495367 -0.29675955 0.16344152 -0.26347047 -0.13370238 0.0012928917 0.04236674 -0.27151507
-0.06700781 0.057845797 -0.00093832816 0.07286682 0.16626735 -0.15972523 -0.2305206 -0.036123697
-0.0804744 0.20198171 -0.07391913 0.041351374 0.04528599 0.14299037 -0.17522028 0.13292512
-0.13431889 0.033331983 0.22196202 0.046108376 0.09184215 0.16337743 0.13222405 0.12515646
0.26750627 0.0966411 0.04143649 -0.12130518 -0.10106388 -0.07285972 -0.13687046 -0.027754473
-0.012526929 -0.2593748 -0.20528407 0.07233993 -0.073259614 -0.0783784 0.22606832 -0.07152788
-0.07287424 0.22181663 -0.07954639 0.004525312 -0.053708233 -0.21247296 0.12351243 0.20545907
-0.2297656 0.1936741 0.14286691 0.09606443 0.2223718 0.0026729803 0.16417503 0.120611735
0.11880167 -0.22320986 0.11068007 0.23478012 0.14665695 -0.22520083 0.23170477 -0.17281245
0.15564823 0.28058898 0.24166015 -0.019221684 -0.091246106 -0.11887972 -0.19932756 -0.1443552
0.16953577 0.22466826 -0.13177896 0.05434141 0.030097445 0.28576013 0.07364804 -0.059918556

np.xy_to_z.input_to_hidden.6.bias f4 [32]
00000000: 84ec d83d 5947 37bb d677 b53c 46d0 2b3e
00000010: a838 d0bd fbd0 3fbc 0358 0bbe cc51 5cbc
00000020: 7a8b 5f3e e6d3 d63d e660 d0bd cc26 5c3e
00000030: 1ddf f83d deff a83c 9156 0bbe 9f8b 51bd
00000040: 4967 8bbd 2ee8 773e 88ae ebbd d43b 913d
00000050: 9b8a 91bd e194 833e 42d0 1bbe 690b 4c3d
00000060: 4446 1b3c 443c 113e 2d07 173e 90e7 acbc
00000070: fb94 71be b123 4d3b ec07 f93d 837e 1a3e
0.10591987 -0.002796611 0.022151869 0.16778669 -0.10167056 -0.01170754 -0.13607793 -0.013447236
0.2183055 0.10489635 -0.10174732 0.21499175 0.121519305 0.02062982 -0.13607241 -0.051158544
-0.068068095 0.24209663 -0.115078986 0.070914894 -0.07106515 0.25699523 -0.15216163 0.04981557
0.009477202 0.14183146 0.14748831 -0.021106511 -0.23591988 0.0031301791 0.12159714 0.15087323
