TaNP/save_model_dir/lastfm_20/base_1741713668/model_last_epoch.pt (torch, 796876 bytes, 34 tensors)

np.item_emb.first_embedding_layer.weight f4 [32, 3846]
0	0x3d324cdc	0.04353033
1	0x3c6d2715	0.01447465
2	0x3b3ab3a9	0.0028488433
3	0xbb62e9c3	-0.0034624196
4	0x3da77480	0.081765175
5	0xbb842d3e	-0.0040337136
6	0x3d0857b9	0.033286784
7	0x3d77596a	0.060388006
8	0x3d48da4b	0.049036305
9	0xbd3d2e65	-0.046186823
10	0x3ca7d02f	0.020485012
11	0x3c203be9	0.009779909
12	0x3d9bdc87	0.07610422
13	0x3da4aa4e	0.080402955
14	0x3d8497d1	0.06474269
15	0x3da14477	0.07874387
16	0x3d0ce5e5	0.034398932
17	0xbd3337e4	-0.043754473
18	0xbc187171	-0.00930439
19	0x3da5c8dd	0.08094952
20	0x3bc4fce3	0.0060115918
21	0x3d446da1	0.047956113
22	0x3db52173	0.088442706
23	0xbc506bc5	-0.012721007
24	0x3d9ecbec	0.07753739
25	0x3c2e57f5	0.010641088
26	0xbb44b640	-0.0030015856
27	0xbc4d39d5	-0.012525995
28	0xbd667bcd	-0.05627041
29	0xbd585990	-0.05281979
30	0xbacf8a3b	-0.0015834043
31	0xbd5b3b05	-0.053523082
32	0x3d8e1738	0.069380224
33	0xbd7dba1e	-0.061945073
34	0x3db20e1e	0.08694099
35	0x3d574515	0.052556116
36	0x3dafaa2d	0.0857738
37	0x3d9eb7cf	0.077499025
38	0x3da20743	0.07911541
39	0x3d049ef1	0.03237814
40	0x3c878e1f	0.01654726
41	0x3dbb647b	0.091500245
42	0x3d456479	0.04819152
43	0x3d125e97	0.03573474
44	0x3d1b0064	0.03784217
45	0x3d834f9c	0.06411669
46	0x3db7911a	0.08963223
47	0x3da479b8	0.080310285
48	0x3dbdf486	0.09275155
49	0x3bad970d	0.0052975477
50	0x3c26a5af	0.010171338
51	0x3cf1fec9	0.029540436
52	0x3dba28a8	0.09089786
53	0x3d74c8bd	0.05976175
54	0x3db882b0	0.09009302
55	0x3d5c9925	0.053856988
56	0x3dc9a5b3	0.09846058
57	0x3da3fd49	0.08007295
58	0x3cd1a52a	0.025591452
59	0xbd7c5768	-0.061606795
60	0x3d420c83	0.047375213
61	0x3db20556	0.08692424
62	0x3d85f197	0.0654022
63	0xbd34f4c1	-0.044178728
64	0x3d6d287a	0.05789993
65	0xbd263160	-0.04057443
66	0x3d8a2270	0.0674485
67	0x3d59c09a	0.053162195
68	0xbd66caf1	-0.056345884
69	0xbd2c430c	-0.04205613
70	0x3d63e00d	0.055633593
71	0xbd4281bc	-0.047487006
72	0x3d81e2a8	0.063420594
73	0x3d89674a	0.06709154
74	0x3d68ab69	0.056804094
75	0x3d9c3c64	0.07628706
76	0xbd76dd07	-0.06026938
77	0x3d8a3f0b	0.06750306
78	0x3d27f113	0.04100139
79	0x3d9bce0e	0.07607661
80	0x3d8e5c27	0.069511704
81	0x3da5b55a	0.08091231
82	0xbd5f2c7e	-0.05448579
83	0xbc25ae88	-0.010112412
84	0xbd79b83d	-0.06096672
85	0xbd774705	-0.060370464
86	0xbd6edfe5	-0.05831899
87	0x3d95f599	0.07322235
88	0x3d206ce4	0.039166346
89	0xbd6f14fd	-0.058369625
90	0x3d65c67f	0.056097504
91	0x3dc655ee	0.096843585
92	0xbd7b0d04	-0.06129171
93	0x3a38411b	0.00070287444
94	0xbd622bac	-0.05521743
95	0xbb902473	-0.0043988763
96	0x3d701679	0.05861518
97	0xbd7e0532	-0.062016673
98	0x3dae5d37	0.08513873
99	0x3d21d86a	0.03951303
100	0x3d856565	0.0651348
101	0x3b03d15e	0.0020113806
102	0x3dc78761	0.09742618
103	0x3c5069bd	0.0127205225
104	0x3d921908	0.071336806
105	0x3d9fd259	0.078037925
106	0x3d99bb8c	0.07506475
107	0x3d7a8780	0.06116438
108	0xbc19aa14	-0.009378929
109	0x3da4ff54	0.080565125
110	0x3d6a1952	0.057153054
111	0x3db6de4e	0.0892912
112	0x3d584dc9	0.052808557
113	0xbcb8341e	-0.022485789
114	0xbc21e9dc	-0.009882417
115	0x3d9e5bad	0.077323295
116	0xba12c377	-0.00055985845
117	0x3d903e56	0.0704314
118	0x3d8bdac0	0.068288326
119	0x3ccad17f	0.024758099
120	0xbd6ec199	-0.058290098
121	0xbd6a6e39	-0.057234023
122	0xbd43df93	-0.04782064
123	0xbd458bbb	-0.04822896
124	0x3d269896	0.04067286
125	0x3c3f249c	0.011666443
126	0x3d39eb3c	0.045390353
127	0x3d75db9e	0.060023896
128	0x3d9e67d7	0.0773465
129	0x3cd70487	0.026247276
130	0x3d74224c	0.05960302
131	0x3d8fe86e	0.07026754
132	0x3da1147a	0.07865234
133	0x3d0f1ce6	0.03493967
134	0x3d5d0088	0.053955585
135	0x3d7ceda3	0.061750066
136	0x3da166da	0.078809455
137	0x3da7066b	0.08155521
138	0x3d09d585	0.033650894
139	0xbc0008f7	-0.007814637
140	0x3d1498e7	0.03627863
141	0x3da11608	0.0786553
142	0x3d0df84f	0.034660634
143	0x3d9d55f3	0.07682409
144	0x3c986392	0.018602166
145	0x3c910082	0.017700437
146	0x3d692146	0.056916498
147	0x3ce20504	0.027590282
148	0xbd14368e	-0.03618484
149	0x3d68bb6c	0.056819364
150	0xbc4616f4	-0.012090433
151	0x3d0cb2ac	0.034350082
152	0x3c9a10ee	0.0188069
153	0xb6a7cafc	-5.0006183e-06
154	0x3dcb943e	0.09940384
155	0x3d8cb211	0.06869901
156	0x3d96b12c	0.073580116
157	0x3da8b785	0.082381286
158	0x3d865a28	0.06560165
159	0x3dbbc868	0.09169084
160	0x3d90fc5a	0.07079382
161	0x3d269549	0.040669713
162	0xbb7695ff	-0.0037626026
163	0x3d33499b	0.043771368
164	0x3d70309e	0.058640115
165	0x3dc533c0	0.09629011
166	0xbd7df4c0	-0.06200099
167	0x3cbe8e53	0.023261225
168	0xbd7b073a	-0.06128619
169	0x3c413cd5	0.011794289
170	0xbd76a19b	-0.060212713
171	0x3d2cc69c	0.042181596
172	0xbd72b08e	-0.059250407
173	0xbd7dee12	-0.06199462
174	0xbd7a3d9b	-0.061093908
175	0xb90610e1	-0.00012785524
176	0xbd357e6e	-0.044310026
177	0x3c3eccdb	0.011645521
178	0xbd7be5e7	-0.06149855
179	0xbd7dd691	-0.061972205
180	0x3b7a3e97	0.003818428
181	0xbd24d1f8	-0.040239304
182	0xbd387f64	-0.045043364
183	0x3d1a0d84	0.037610546
184	0x3d945e7f	0.07244586
185	0x3db2f5e2	0.08738305
186	0xbd741577	-0.059590783
187	0x3dbb6bfd	0.091514565
188	0xbcc54085	-0.024078617
189	0xbd63bb19	-0.055598352
190	0x3dc1a632	0.09455527
191	0x3d3b66d7	0.045752373
192	0x3daf58b0	0.08561838
193	0xbc6fcc89	-0.014636167
194	0x3c17a61a	0.00925591
195	0xbc3d4ca2	-0.011553915
196	0x3d7dbee6	0.061949633
197	0x3da2aeb0	0.07943475
198	0x3d32f277	0.043688264
199	0x3cffbedb	0.031218937
200	0x3da703cb	0.0815502
201	0xbd719a0a	-0.058984794
202	0x3c4777db	0.012174572
203	0x3d63e229	0.055635605
204	0xbd38c80d	-0.04511266
205	0x3c6a9550	0.014317825
206	0x3d8696c2	0.065717235
207	0xbd7d315d	-0.061814655
208	0x3d50a7f4	0.050941423
209	0x3d8d3de0	0.06896567
210	0x3d8d9902	0.069139495
211	0x3d1d9198	0.038468927
212	0x3d493869	0.049126063
213	0x3b54a473	0.0032446652
214	0x3c6a82f0	0.0143134445
215	0xbd2931a4	-0.041307107
216	0x3cf7786e	0.030208793
217	0x3da629ae	0.081134185
218	0xba585ad7	-0.0008253282
219	0xbc5facb6	-0.013652017
220	0x3c026b17	0.0079601025
221	0x3d98d619	0.07462711
222	0x3d3fd73f	0.046836134
223	0x3d382048	0.04495266
224	0x3d9c6aa0	0.076375246
225	0xbd6af2dd	-0.05736052
226	0xba466dfb	-0.0007569489
227	0x3d9a77b2	0.07542361
228	0x3d1d9843	0.038475286
229	0xbd4b0f13	-0.049574923
230	0x3cddc78b	0.027072689
231	0x3c07d9b8	0.008291654
232	0x3d18939f	0.037250157
233	0x3da7d418	0.081947505
234	0x3c57fa60	0.013182253
235	0x3dab47ba	0.0836329
236	0x3c99a6c9	0.018756287
237	0x3d642f55	0.0557092
238	0x3d837559	0.06418867
239	0x3d7e9f5d	0.0621637
240	0xbd4ecf6c	-0.05049078
241	0xbd7ca1b3	-0.061677646
242	0x3da2a77c	0.07942101
243	0xbb2654e6	-0.0025380193
244	0xbd597a39	-0.053095076
245	0x3d46152e	0.048360042
246	0xbb78178a	-0.0037855827
247	0x3bed3a69	0.007239629
248	0xbd7e2d5b	-0.062054973
249	0xbc57da97	-0.0131746745
250	0x3ce130c9	0.027489083
251	0xbc054f95	-0.00813665
252	0x3da9b294	0.08286014
253	0x3d98bad1	0.074575074
254	0x3d28cf65	0.04121341
255	0x3dae8f56	0.08523433

np.item_emb.first_embedding_layer.bias f4 [32]
0	0x3d7dc59e	0.06195604
1	0x3db0268a	0.08601101
2	0x3da3e56e	0.080027446
3	0x3d5bd1f6	0.05366703
4	0x3dd1c524	0.1024268
5	0x3da97954	0.08275095
6	0x3d786ebf	0.06065249
7	0xbc694472	-0.01423751
8	0x3d736406	0.05942156
9	0x3d64d2ce	0.0558651
10	0x3d6d048c	0.057865664
11	0x3d8a246e	0.0674523
12	0x3d723001	0.05912781
13	0x3d833514	0.06406608
14	0x3d59912c	0.053116962
15	0x3d479222	0.048723347
16	0x3d8903dd	0.0669019
17	0xbc85114c	-0.0162436
18	0x3d6a4d0a	0.057202376
19	0x3d6d257c	0.057897076
20	0x3de8c1b5	0.11365072
21	0xbc7c4b46	-0.015398806
22	0x3d63804c	0.055542275
23	0x3d92bf6a	0.071654156
24	0x3d84a6ee	0.06477152
25	0x3d7916d4	0.060812786
26	0x3de0273d	0.10944984
27	0x3d82d562	0.06388356
28	0x3d7ac7eb	0.061225813
29	0x3d7ac51a	0.061223127
30	0xbc874a5e	-0.016514953
31	0x3d78e733	0.060767364

np.item_emb.second_embedding_layer.weight f4 [16, 32]
0	0xbc81de78	-0.015853152
1	0x3d53da8b	0.05172209
2	0xbc88412a	-0.016632635
3	0xbe26a9f3	-0.16275768
4	0x3d260c53	0.040539097
5	0xbd32dc1e	-0.04366695
6	0x3e2989b9	0.16556443
7	0xbda32d65	-0.07967643
8	0x3cc0ba8b	0.02352645
9	0x3d983f78	0.07433981
10	0x3daa51aa	0.083163574
11	0xbc2387c1	-0.009981097
12	0x3d67d2f0	0.05659765
13	0x3c9746ee	0.01846644
14	0x3d9eb17c	0.07748696
15	0x3dc4bc2a	0.09606202
16	0x3d6a694f	0.057229336
17	0x3d867579	0.06565375
18	0x3d802749	0.06257493
19	0x3d8accf6	0.067773744
20	0x3d7bff5a	0.06152282
21	0xbdf64420	-0.120247126
22	0x3ca174b4	0.019708969
23	0xbd078d36	-0.033093654
24	0xbe37fb55	-0.1796697
25	0x3d05cdfc	0.032667145
26	0x3db97973	0.09056368
27	0x3e253a40	0.16135502
28	0xbdde94f3	-0.108682536
29	0xbd9cd6ca	-0.07658155
30	0x3e21a5c0	0.15785885
31	0x3d793489	0.060841117
32	0x3defc468	0.117073834
33	0xbdc2cf86	-0.09512238
34	0x3da77f67	0.08178597
35	0xbc8a96a0	-0.016917527
36	0x3e20e3b2	0.15711859
37	0xbdec8dac	-0.11550459
38	0x3e4534c5	0.19258411
39	0xbd002d1c	-0.03129302
40	0x3d654055	0.055969555
41	0xbba53dfd	-0.00504279
42	0x3d575b9e	0.052577607
43	0x3df65caf	0.12029397
44	0x3e4a6750	0.19765973
45	0x3df06bb3	0.11739292
46	0x3e947b43	0.2900029
47	0xbe418c1e	-0.18901107
48	0x3d0685d5	0.032842476
49	0x3d337dbf	0.043821093
50	0x3e24e141	0.16101553
51	0x3e557c2d	0.2084815
52	0x3dc17f72	0.094481364
53	0xbd4bb044	-0.049728647
54	0xbd2273d5	-0.039661247
55	0xbdf6b9aa	-0.12047131
56	0x3c1c7c8a	0.009551177
57	0xbe6845e8	-0.22682917
58	0x3ccd515a	0.025063206
59	0x3e27e3f4	0.16395551
60	0x3dfa3826	0.12217741
61	0x3e971ac5	0.2951261
62	0xbcae783d	-0.021297568
63	0x3e2305d9	0.159202
64	0x3e12c396	0.14332423
65	0x3b8b2b86	0.0042471318
66	0x3c84d6ba	0.01621567
67	0x3b30a1cc	0.0026951907
68	0x3c52f3e7	0.012875534
69	0x3c4850dc	0.01222631
70	0x3d9d825a	0.07690878
71	0xbd9534ce	-0.07285462
72	0x3e1c4ebc	0.1526441
73	0x3d42b847	0.04753902
74	0x3de1eb4d	0.11031208
75	0x3da6bd24	0.081415445
76	0xbd8772b2	-0.06613673
77	0x3dacc498	0.08435935
78	0x3e3949e2	0.1809459
79	0x3dd6d20c	0.10489282
80	0x3df3f8b4	0.11912671
81	0xbe01648d	-0.12636013
82	0x3e180960	0.14847326
83	0x3e2dca3c	0.16971678
84	0x3e221726	0.15829143
85	0xbd80893c	-0.062761754
86	0x3e144a11	0.14481379
87	0x3d8c8724	0.068617135
88	0x3de01883	0.10942175
89	0x3df8531d	0.121252276
90	0xbdb12b01	-0.086507805
91	0x3e3b3d94	0.18285209
92	0x3e36c997	0.17850338
93	0x3e611c19	0.21983375
94	0xbd9ebabb	-0.0775046
95	0x3e64f522	0.22359136
96	0x3d909ed2	0.070615426
97	0x3e24e447	0.16102706
98	0x3dcc3c32	0.09972419
99	0xbc81141d	-0.015756661
100	0xbd43163f	-0.047628637
101	0xbd844f5a	-0.064604476
102	0xbe037aff	-0.12839888
103	0xbd49032a	-0.049075283
104	0xbe2e1dd0	-0.1700356
105	0x3dfe3d54	0.12414041
106	0xbd99b7c3	-0.07505753
107	0xbc53a850	-0.012918547
108	0x3e2afb69	0.16697468
109	0x3aa8d822	0.0012881795
110	0xbda1bc23	-0.07897212
111	0xbde693df	-0.11258673
112	0x3c92bdd7	0.017912788
113	0xbdfdbb1d	-0.12389205
114	0x3e092416	0.13392672
115	0xbdfc4195	-0.12317196
116	0x3e19a43f	0.15004061
117	0xbceb8353	-0.028749144
118	0xbd23ac4c	-0.039959237
119	0x3cee5c91	0.029096873
120	0x3cfed811	0.031108888
121	0x3e1cb544	0.15303522
122	0xbe15b828	-0.14621031
123	0x3dba1621	0.09086252
124	0x3d8c6c9f	0.06856655
125	0x3c411fa4	0.011787329
126	0xbd1e1f1a	-0.03860388
127	0x3d265149	0.040604863
128	0x3dc447d6	0.09584014
129	0xbdb5d3b1	-0.088782676
130	0x3dd13641	0.10215426
131	0xbe0d49ed	-0.13797732
132	0x3d44fef7	0.048094716
133	0x3d014ab8	0.031565398
134	0x3ccef131	0.025261493
135	0x3d29f858	0.041496605
136	0xbd8d6cf0	-0.06905544
137	0xbd8c7330	-0.06857908
138	0x3dce6d2f	0.10079419
139	0xbe08dd91	-0.13365771
140	0x3e0464ff	0.12929152
141	0x3e329037	0.17437826
142	0x3b65d4f1	0.003506955
143	0xbceed375	-0.029153565
144	0x3e00aad1	0.12565161
145	0xbd436c2e	-0.04771059
146	0xbdeff373	-0.11716356
147	0xbe227ccc	-0.15867919
148	0xbd848f53	-0.064726494
149	0xbe1a4a5c	-0.15067428
150	0xbccee24c	-0.025254391
151	0xbd438707	-0.047736194
152	0xbc7d9bfb	-0.015479083
153	0x3e0b6441	0.13612463
154	0x3ce533ad	0.027978742
155	0xbdb34db4	-0.08755055
156	0x3e198de5	0.14995535
157	0xbd82c61a	-0.06385441
158	0xbe1330b0	-0.14374042
159	0xbd4aa029	-0.049469147
160	0xbc20c9ec	-0.009813767
161	0x3dd5a9d9	0.104327865
162	0xbe2b6fe5	-0.16741903
163	0x3daa3487	0.083108
164	0x3d630992	0.05542905
165	0x3de421d6	0.11139266
166	0xbd4414ef	-0.047871526
167	0xbda3892a	-0.07985146
168	0xbe238983	-0.15970425
169	0xbc52354d	-0.012830091
170	0xbe2b5ad2	-0.16733864
171	0xbe008841	-0.12551977
172	0x3d1a561f	0.037679788
173	0xbde68752	-0.11256279
174	0x3bf2798b	0.007399743
175	0xbdbfa20a	-0.093570784
176	0xbe21db91	-0.15806414
177	0x3e274070	0.16333175
178	0xbc177bdb	-0.009245838
179	0xbdedacb7	-0.11605208
180	0x3e281e93	0.16417913
181	0x3e0af8e9	0.13571514
182	0x3e057f2f	0.13036798
183	0xbd959ea3	-0.07305648
184	0xbdcd5ff9	-0.10028071
185	0x3c6da0c0	0.014503658
186	0xbe17c083	-0.14819531
187	0xbd5cee9f	-0.053938504
188	0xbd8b8f28	-0.06814414
189	0xbe28fbc5	-0.16502292
190	0xbd7285be	-0.059209578
191	0xbd6e795e	-0.058221214
192	0x3e5296c9	0.20565332
193	0xbb8c7a50	-0.0042870417
194	0x3c5bba2c	0.013411086
195	0x3de6b856	0.11265628
196	0x3dfd9426	0.12381773
197	0x3d17a260	0.037020087
198	0x3ceeef5f	0.029166875
199	0x3e192ad4	0.14957744
200	0x3e6a330c	0.22871035
201	0x3d046827	0.03232589
202	0x3e55df5c	0.20885986
203	0x3d84e6a4	0.06489304
204	0x3d7d437c	0.061831936
205	0x3e2a9a3e	0.16660401
206	0x3e09e1c1	0.13465025
207	0xbe7f471e	-0.24929473
208	0x3dc13693	0.09434237
209	0x3d974473	0.073861025
210	0x3d9136ed	0.070905544
211	0x3ca68cec	0.020330869
212	0x3d291936	0.04128381
213	0x3da1bf60	0.0789783
214	0x3d9703d2	0.073737755
215	0xbd841a1e	-0.06450294
216	0x3e4ace23	0.19805197
217	0xbe8af77d	-0.27141944
218	0x3db804d0	0.08985293
219	0xbd778ea6	-0.060438775
220	0x3de69e7c	0.11260697
221	0x3d84d00d	0.06484995
222	0x3e114298	0.1418556
223	0x3e7fc8c8	0.24978936
224	0x3e540bf0	0.20707679
225	0xbdc9f565	-0.098612584
226	0x3e40269e	0.18764731
227	0x3cf0e23d	0.029404754
228	0x3d4a3156	0.049363457
229	0x3b0b93d2	0.0021297825
230	0x3e7478cb	0.23874204
231	0x3dd92f69	0.10604746
232	0x3e229b03	0.15879445
233	0x3ea09e60	0.3137083
234	0x3dd171aa	0.10226758
235	0x3e2537b1	0.16134526
236	0x3e0812d9	0.1328844
237	0x3e28168d	0.16414852
238	0x3e9beaf3	0.3045269
239	0xbc28f9e2	-0.010313483
240	0x3db7b988	0.08970934
241	0x3e2201d3	0.15821008
242	0x3e276f0a	0.16350952
243	0x3e26d5f4	0.16292554
244	0x3e7633e5	0.24043234
245	0x3e1f056e	0.15529415
246	0x3ced0204	0.028931625
247	0xbcd94edc	-0.02652686
248	0x3e559aa5	0.20859773
249	0xbe7969ed	-0.24356814
250	0xbbf1a723	-0.0073746606
251	0x3e3a69fc	0.18204492
252	0xbcbfccf5	-0.02341316
253	0x3c54f4e6	0.012997841
254	0x3df071f3	0.11740484
255	0x3e925896	0.2858321

np.item_emb.second_embedding_layer.bias f4 [16]
0	0xbdccb3c5	-0.09995226
1	0x3d833d58	0.06408185
2	0xbd4806f3	-0.048834752
3	0xbd442e71	-0.047895852
4	0xbe23a711	-0.159817
5	0xbd320f05	-0.043471355
6	0x3d2c84e3	0.04211892
7	0x3c89599a	0.016766358
8	0x3e0630d5	0.13104565
9	0xbe18197c	-0.14853472
10	0x3dd32560	0.10309863
11	0x3dd9dc07	0.1063767
12	0x3dc985f5	0.098400034
13	0xbe2c170e	-0.1680567
14	0xbddb0975	-0.10695163
15	0x3d8a6903	0.06758311

np.user_emb.first_embedding_layer.weight f4 [32, 1872]
0	0xbb746252	-0.0037290049
1	0x3cb4b708	0.022059932
2	0x3c67e06e	0.014152629
3	0xbc5837e1	-0.013196916
4	0x3c8a2392	0.016862664
5	0x3c3a64cd	0.011376572
6	0x3c5aa247	0.013344354
7	0x3aafeab9	0.0013421393
8	0x3bccbac7	0.0062478515
9	0xbc42b281	-0.011883379
10	0x3c490cfa	0.01227116
11	0xbcb3bac5	-0.021939645
12	0x3c54b3e5	0.012982343
13	0xbbf4a762	-0.0074662426
14	0x3c553cb4	0.013014961
15	0x3c689b87	0.014197237
16	0xbc01bdbd	-0.007918772
17	0xbc5bffc3	-0.013427678
18	0xbc2a1a26	-0.010382211
19	0xbc98b541	-0.018641116
20	0x3c238bca	0.009982059
21	0xbc6152de	-0.013752667
22	0x3c13a21b	0.009010817
23	0xbcb0281d	-0.021503503
24	0xbabd30a1	-0.0014434048
25	0x3c172f54	0.0092275925
26	0xbbb9fc4c	-0.005675828
27	0x3b9a5faf	0.0047111134
28	0x3c8d325a	0.017235924
29	0xbaa156e2	-0.0012309218
30	0x3c51d357	0.012806735
31	0xbb9fcf38	-0.0048769973
32	0x3c885152	0.016640339
33	0xbc8697cb	-0.016429802
34	0xbc4de34d	-0.0125664
35	0x3c992104	0.0186925
36	0x3bfc3320	0.0076965243
37	0x3c59933a	0.01327973
38	0xbb058679	-0.0020374341
39	0xbca6e931	-0.020374866
40	0x3caf786b	0.021419724
41	0x3c9ddb56	0.019269627
42	0x3bd54dba	0.00650951
43	0xbcb5a0c9	-0.022171395
44	0xbbf54f92	-0.007486292
45	0x3caec26d	0.021332944
46	0x3c099f23	0.008399758
47	0xbca54512	-0.020174537
48	0x38cd4614	9.788215e-05
49	0xbba506b5	-0.0050362
50	0xbb212224	-0.0024587
51	0xbba7b37c	-0.0051178318
52	0xbc92e7f9	-0.017932879
53	0x3c1c5a38	0.009542994
54	0x3ca9d107	0.020729555
55	0x3c8ae9d7	0.016957207
56	0x3c24bfa9	0.010055461
57	0xbb5be61e	-0.0033553909
58	0xbbe4edc3	-0.006986351
59	0xbc923e79	-0.017852055
60	0xbc6b1209	-0.014347562
61	0x3c034355	0.008011659
62	0x3be85b58	0.007090967
63	0x3cb28476	0.021791678
64	0x3a327dfb	0.00068089337
65	0xbbe867a5	-0.0070924335
66	0x3b489205	0.0030604613
67	0xbc4be6bb	-0.012445147
68	0x3c61f825	0.013792072
69	0x3baa4f75	0.0051974603
70	0x3d2edb8b	0.04268984
71	0x3b86495c	0.0040981006
72	0xbcb7ea46	-0.022450577
73	0x3cbc6471	0.022997113
74	0x3c0be81d	0.008539227
75	0x3c752e06	0.014964586
76	0x3b685272	0.0035449532
77	0x3c330bfa	0.010928148
78	0x391cd3ef	0.00014956271
79	0x3c973996	0.018460076
80	0x3c9eb010	0.019371063
81	0x3c99e513	0.018785989
82	0x3b91eea4	0.004453497
83	0x3c636263	0.013878438
84	0xbc1526a3	-0.00910345
85	0x3cacae9d	0.021079356
86	0x3c5555cb	0.013020943
87	0x3c5840f4	0.01319908
88	0x3c502a56	0.012705406
89	0x3c8b4888	0.017002359
90	0x3c8c6aa5	0.017140696
91	0xbc21dba1	-0.009879024
92	0x3cdd74cb	0.02703323
93	0xbbeded39	-0.007260945
94	0xbc008469	-0.007844069
95	0x3c89c7e0	0.01681894
96	0xbbdc7506	-0.0067278175
97	0xbb1f7d66	-0.0024336218
98	0xbc56cec5	-0.013110821
99	0x3caac3a9	0.020845251
100	0x3c458f77	0.01205813
101	0xbaacef74	-0.0013193921
102	0x3ca7568e	0.020427015
103	0x3d050e53	0.032484364
104	0x3c99e9e4	0.018788286
105	0x3c32eccc	0.010920715
106	0xbcaa3b55	-0.020780245
107	0xbc3364b1	-0.0109493
108	0xbc8f8b76	-0.017522555
109	0x3bdcbe26	0.0067365346
110	0xbc95355b	-0.018213918
111	0xbcaaf9bd	-0.020871038
112	0x3b9c5d80	0.0047718883
113	0x3c43fc4a	0.011962006
114	0x3cb32357	0.021867437
115	0x3b08b95a	0.0020862431
116	0x3b023216	0.001986628
117	0x3c35c4bb	0.0110942675
118	0xba93d4ca	-0.0011278626
119	0x3ca5c202	0.020234112
120	0xbb38e32e	-0.0028211582
121	0xbaa5b2f1	-0.001264183
122	0x3c785323	0.01515654
123	0x3c532c1c	0.012888934
124	0x3c7a3c36	0.0152731445
125	0xbc80e1d1	-0.015732678
126	0x3cbb4b99	0.022863196
127	0xbc4e880c	-0.012605678
128	0x3b994a20	0.004678026
129	0xbc39ac1f	-0.011332541
130	0xbca4e3f6	-0.020128231
131	0xbc8ccd90	-0.017187864
132	0x3ca32954	0.019917168
133	0xbb926e0f	-0.0044686864
134	0xbbd7beb6	-0.006584014
135	0x3c14fc7a	0.009093398
136	0x3b851bf9	0.0040621725
137	0xbcb96a77	-0.022633774
138	0xbcaa3801	-0.020778658
139	0xbc2585aa	-0.010102669
140	0x3a2a06f4	0.00064860214
141	0x3bfa9a6b	0.0076478026
142	0xbbc9a50c	-0.0061537083
143	0x3c5daf7b	0.013530607
144	0x3c2055aa	0.009786049
145	0xbb11da7d	-0.0022255473
146	0x3c99b0d6	0.01876108
147	0xbc700b5a	-0.014651144
148	0x3c0bf489	0.008542188
149	0x3bdfbd06	0.0068279533
150	0x3c19b167	0.009380675
151	0x3cc0327e	0.023461577
152	0x3b8afead	0.0042417855
153	0xbbafe5a9	-0.005367954
154	0xbbb331c6	-0.00546858
155	0xbcbae469	-0.022813993
156	0xbcb7339d	-0.022363478
157	0x3ca9f68e	0.02074745
158	0xbc8a19e0	-0.016858041
159	0xb8b67c1c	-8.7015535e-05
160	0x3b3a1247	0.0028392242
161	0x3c212cb4	0.009837318
162	0x3c90ae18	0.01766114
163	0xbc4d5239	-0.01253181
164	0xbadefdad	-0.0017012857
165	0x3c2e54c9	0.010640332
166	0x3cc76a08	0.024342552
167	0xbae3761d	-0.0017353926
168	0xbb37884f	-0.002800483
169	0x3a24fbcc	0.0006293624
170	0x3b948373	0.0045322715
171	0xbc4ae5cd	-0.01238389
172	0xbbb4c743	-0.005516918
173	0x3be24694	0.006905386
174	0x3bfccf8b	0.0077151707
175	0x3c4092bc	0.011753734
176	0x3a72ff68	0.0009269626
177	0x3c36ca32	0.011156606
178	0x3c227fcc	0.009918164
179	0x3c359572	0.011082994
180	0xbc26e6c1	-0.010186852
181	0x3bca347b	0.006170807
182	0xbca9bd6d	-0.020720208
183	0x3cb4fdb2	0.022093628
184	0xbca11502	-0.019663338
185	0x3cb0d149	0.02158417
186	0x3bb021f6	0.005375142
187	0xbc52874e	-0.012849642
188	0x3b9c796b	0.0047752163
189	0x39b396a9	0.0003425379
190	0xbc147dd6	-0.009063205
191	0xbc8ef6f5	-0.017451743
192	0x3c2773c0	0.010220468
193	0x3c4640b6	0.012100389
194	0xbc2910c2	-0.010318937
195	0xbc1e8386	-0.009674912
196	0x3cac1a33	0.021008587
197	0xbc3877ea	-0.0112590585
198	0x3c8ab4b3	0.016931867
199	0xbc78472a	-0.015153686
200	0xbc10e35e	-0.008843271
201	0xbb781aa6	-0.003785768
202	0xbba72df6	-0.0051019145
203	0xbc7499bc	-0.014929231
204	0xbba08338	-0.004898455
205	0x3c8d3bba	0.017240394
206	0x3c9a9503	0.018869882
207	0x3c96c915	0.01840643
208	0x3b90aa8f	0.0044148634
209	0xbaef2d61	-0.0018247777
210	0x3ca8985f	0.020580469
211	0x3c8a2382	0.016862635
212	0x3af719bb	0.0018852273
213	0x3c63a567	0.013894415
214	0x3bbf3f28	0.0058363862
215	0xbbb09c87	-0.0053897533
216	0x3b18649e	0.0023253332
217	0xbc58281b	-0.013193156
218	0xbb8ab974	-0.0042335335
219	0xba8cf9d4	-0.0010755607
220	0xbc6a26ef	-0.014291509
221	0x3ca7fa01	0.020504953
222	0x3c8a7bfe	0.016904827
223	0x3c720e5e	0.014773933
224	0xbc164669	-0.0091720605
225	0xbc8f6adb	-0.017507007
226	0xbc9c862c	-0.019106947
227	0x3b4c712a	0.003119538
228	0x3b92bda3	0.004478173
229	0x3bf82deb	0.007573833
230	0x3c4acc3f	0.012377798
231	0xbb44b79d	-0.0030016669
232	0xba7b581d	-0.000958802
233	0xbb568d71	-0.0032738114
234	0x3bfb47c5	0.0076684677
235	0xbca6e220	-0.020371497
236	0x3c9434a2	0.018091504
237	0xbc9e88d9	-0.019352363
238	0x3cdadd19	0.026716756
239	0x3c0aa6d0	0.008462623
240	0x3c881d19	0.016615437
241	0xbc15d066	-0.009143924
242	0x3c106b7f	0.008814692
243	0xb9feb502	-0.00048581517
244	0x3c19ea16	0.009394189
245	0x3c022693	0.007943767
246	0xbc16af63	-0.009197089
247	0x3bcf09c4	0.006318303
248	0xba371622	-0.0006984194
249	0xbc656425	-0.014000927
250	0xbc822670	-0.015887469
251	0xbc9663ee	-0.018358197
252	0x3b2b2545	0.0026114744
253	0xbc9069ca	-0.01762857
254	0x3b095eca	0.002096104
255	0xbb991fb7	-0.00467297

np.user_emb.first_embedding_layer.bias f4 [32]
0	0x3c959ff2	0.018264744
1	0xbbf734b7	-0.007544126
2	0x3d2348a4	0.039864197
3	0xbc95193c	-0.01820051
4	0xbcb306a4	-0.021853752
5	0x3c4293b2	0.011876034
6	0x3d3164b7	0.04330894
7	0x3c050358	0.008118473
8	0x3d0ddf81	0.034636978
9	0x3cd8a036	0.026443582
10	0x3ca65a07	0.0203066
11	0x3d107ba4	0.035274163
12	0xbcbbe49e	-0.022936162
13	0x3c15323f	0.009106218
14	0x3cbdc9fc	0.023167603
15	0x3d03464b	0.03204946
16	0xbcbd6b46	-0.023122441
17	0x3b8007d9	0.0039071855
18	0x3ca8ada8	0.020590618
19	0x3cc04c0f	0.023473768
20	0xbcb8c79a	-0.022556115
21	0x3cdd41eb	0.027008971
22	0x3cf7eb36	0.030263525
23	0x3d0f06b2	0.034918495
24	0x3d75f4ac	0.06004779
25	0x3ac4209c	0.0014963332
26	0x3bd9cdd5	0.0066468515
27	0x3d2c92c2	0.042132147
28	0x3d05bc7b	0.032650452
29	0xbc761eef	-0.015022024
30	0xbc54afe7	-0.0129813915
31	0xbc90676c	-0.01762744

np.user_emb.second_embedding_layer.weight f4 [16, 32]
0	0xbce3a8ae	-0.027790394
1	0x3d051faf	0.03250092
2	0xbd63c480	-0.05560732
3	0x3df17ec3	0.11791756
4	0xbda71b19	-0.08159465
5	0xbdb19389	-0.08670718
6	0xbc9add25	-0.018904278
7	0xbe0a518f	-0.13507675
8	0xbe05fcc2	-0.130847
9	0x3d8966cb	0.06709059
10	0x3e00d335	0.12580569
11	0x3e24aaf3	0.16080837
12	0xbd8238c2	-0.06358482
13	0xbd14008c	-0.036133334
14	0xbdc9fe4a	-0.09862955
15	0x3e315100	0.17316055
16	0xbd40c50b	-0.047062915
17	0xbe002d7d	-0.12517352
18	0x3e4fe1e0	0.20301008
19	0xbd2b9d9f	-0.041898366
20	0x3cbdbb79	0.023160683
21	0x3e260647	0.16213332
22	0xbdb3ceef	-0.08779704
23	0x3dbdbbc5	0.0926433
24	0x3e4f94b8	0.20271575
25	0xbdab47f4	-0.08363333
26	0x3d08004c	0.033203408
27	0x3e1c9edb	0.15294974
28	0x3e4e93c9	0.20173563
29	0xbe1a9217	-0.15094791
30	0x3e1692f7	0.147045
31	0xbc6fa12b	-0.014625828
32	0x3e2ee549	0.17079653
33	0xbe1949f1	-0.14969613
34	0xbdb57c70	-0.08861625
35	0x3d5063d4	0.050876454
36	0x3a95466a	0.0011388783
37	0x3cc62b99	0.02419071
38	0x3dddc248	0.10828072
39	0x3d00c9f8	0.031442612
40	0xbd9416ba	-0.07230897
41	0x3dfa216b	0.12213405
42	0x3e3ecf77	0.18633829
43	0x3e1e0b82	0.15434077
44	0xbd58b016	-0.052902304
45	0x3cd227a0	0.02565366
46	0xbdb8c216	-0.09021394
47	0x3d1dac45	0.038494367
48	0x3e1ac301	0.1511345
49	0x3c5160c2	0.0127794165
50	0xbcdf6749	-0.02727093
51	0xbd955c44	-0.07292989
52	0xbe06029b	-0.13086931
53	0xbdbdd401	-0.09268952
54	0x3df8bc6f	0.12145316
55	0x3d7e85a9	0.062139187
56	0xbdb5164e	-0.08842145
57	0x3e228c48	0.15873826
58	0x3c2e321b	0.010632063
59	0x3e05f598	0.13081968
60	0xbdeb73a9	-0.1149667
61	0xbb8303d6	-0.00399826
62	0x3d68e1f0	0.056856096
63	0xbccb516e	-0.024819102
64	0xbe120745	-0.14260586
65	0xbde65ccd	-0.11248169
66	0x3e44585f	0.19174336
67	0x3c980a22	0.01855952
68	0x3df4fb90	0.11962044
69	0x3e162a8d	0.1466467
70	0x3e10411a	0.14087334
71	0xbd61c4a0	-0.055119157
72	0xbdcc6027	-0.09979277
73	0x3db19639	0.08671231
74	0x3e117083	0.14203076
75	0xbddb0e23	-0.10696056
76	0x3e0e4e35	0.13897021
77	0x3d59ee65	0.053205866
78	0x3e0e0dc0	0.13872433
79	0x3e382a41	0.17984869
80	0xbd985733	-0.07438507
81	0xbccea14e	-0.0252234
82	0x3dc6f42f	0.09714543
83	0x3bd356f5	0.006449575
84	0xbe063f78	-0.13110149
85	0x3dc28ef9	0.09499926
86	0x3e03cd83	0.12871365
87	0x3787b3a4	1.6176906e-05
88	0xbe0d2e82	-0.13787273
89	0x3e065da2	0.13121656
90	0xbc514fa8	-0.012775339
91	0xbb8d5070	-0.0043125674
92	0x3deb7ed0	0.11498797
93	0x3e2198dc	0.15780967
94	0x3de868a3	0.11348083
95	0xbd9e0374	-0.077155024
96	0xbe0a8887	-0.13528644
97	0x3ddee795	0.108840145
98	0xbcd496a6	-0.025950741
99	0x3d6ed83b	0.058311682
100	0xbc8fbabe	-0.0175451
101	0xbdb5030d	-0.088384725
102	0xbd5b8582	-0.05359412
103	0xbd8f9382	-0.07010557
104	0xbe086ef0	-0.1332357
105	0x3c40f97c	0.011778232
106	0x3da17cbe	0.07885121
107	0x3e138e5a	0.14409772
108	0xbe2b1675	-0.16707785
109	0x3dfcedf7	0.12350076
110	0x3d8f90de	0.07010053
111	0xbdb19530	-0.086710334
112	0xbd9cb882	-0.076523796
113	0x3d4ce983	0.05002738
114	0x3e2e69cb	0.17032544
115	0xbd969e1a	-0.07354374
116	0xbdeb311a	-0.11483975
117	0x3dab134f	0.08353292
118	0xbe21515f	-0.15753697
119	0x3cfe56e1	0.031047286
120	0xbce134ab	-0.027490934
121	0x3e292698	0.16518629
122	0xbda24045	-0.07922415
123	0x3d5a16f1	0.053244535
124	0xbe0d4ab7	-0.13798033
125	0xbd60914e	-0.054826073
126	0xbde5e5de	-0.11225484
127	0xbc346ef4	-0.011012781
128	0xbd9b3a90	-0.07579529
129	0x3d8a92ff	0.067663185
130	0x3de45210	0.11148465
131	0x3db9333e	0.09042977
132	0xbd919f28	-0.07110435
133	0x3cd2784c	0.025692128
134	0xbc8dfabf	-0.01733148
135	0x3befced5	0.0073183575
136	0x3c73b545	0.014874761
137	0x3dda6c48	0.10665184
138	0xbe0728b6	-0.13199124
139	0xbdc89e0a	-0.097957686
140	0xbc203c80	-0.009780049
141	0x3d8c177e	0.06840418
142	0x3dcb883c	0.09938094
143	0xbe0b41ed	-0.13599367
144	0x3e17f3ed	0.14839144
145	0x3cf0ba41	0.029385688
146	0xbe197b77	-0.14988504
147	0x3e035af1	0.1282766
148	0x3d31b9ca	0.043390073
149	0x3c605408	0.01369191
150	0x3defddf3	0.11712255
151	0xbd00ad1f	-0.0314151
152	0x3d3d4853	0.046211552
153	0xbdd12efc	-0.1021404
154	0x3d13c3ea	0.03607551
155	0xbd975297	-0.073888
156	0x3ca660c1	0.020309808
157	0x3d96ffbd	0.07372997
158	0xbdcb94c9	-0.09940488
159	0x3dc1d42b	0.09464296
160	0xbbef0e8e	-0.007295436
161	0x3da1c0f6	0.078981325
162	0xbe02dda0	-0.12779856
163	0xbd5b5e7f	-0.053556915
164	0x3d36bc29	0.044613037
165	0xbc5a0380	-0.0133064985
166	0x3d86aeeb	0.06576332
167	0x3df99fb5	0.12188665
168	0xbe035c8a	-0.1282827
169	0xbdcbaf1e	-0.0994551
170	0xbda4d308	-0.080480635
171	0x3da37a8a	0.07982357
172	0x3d3a8d49	0.045544896
173	0xbdb73805	-0.08946232
174	0xbc65ab7b	-0.014017935
175	0xbc35a559	-0.011086785
176	0xbe2419eb	-0.16025512
177	0xbbb7217f	-0.00558871
178	0x3d87350c	0.06601915
179	0x3ccf97c9	0.025340931
180	0x3cb3aa04	0.021931656
181	0x3e2026ac	0.15639752
182	0xbdbfa370	-0.09357345
183	0x3c66efd0	0.014095262
184	0x3d9a95ee	0.07548128
185	0x3d880999	0.066424556
186	0xbdeb07f2	-0.11476125
187	0x3dce7fe7	0.10082989
188	0x3da778b4	0.08177319
189	0xbbdc0ed8	-0.0067156367
190	0x3d0280df	0.031861182
191	0xbe0896f5	-0.13338836
192	0xbdf0fb03	-0.11766627
193	0x3e08c21c	0.13355297
194	0xbdb04408	-0.08606726
195	0x3df7c3b8	0.12097877
196	0xbcc67928	-0.024227694
197	0x3e0e35f0	0.13887763
198	0xbe2c140d	-0.16804524
199	0xbd8643e3	-0.06555917
200	0x3de2a082	0.11065771
201	0xbd896abd	-0.06709812
202	0xbe1ab693	-0.15108709
203	0xbc5113eb	-0.0127610965
204	0x3d5ac5e8	0.053411394
205	0x3d767882	0.06017352
206	0x3e0395a6	0.12850055
207	0x3df3d1f3	0.11905279
208	0x3d4103c8	0.047122747
209	0x3e0cf932	0.13766935
210	0xbba57ba7	-0.005050141
211	0x3d157ada	0.036494114
212	0x3dfb5dc4	0.12273744
213	0x3c10894e	0.0088217985
214	0x3e30cc01	0.17265321
215	0x3e0b31bd	0.13593192
216	0xbdef18c9	-0.11674649
217	0xbe091579	-0.13387097
218	0xbbfac0be	-0.007652371
219	0xbe190206	-0.14942178
220	0x3dc4b693	0.09605136
221	0x3e10186e	0.14071819
222	0xbdc0eab9	-0.0941977
223	0x3e210d80	0.15727806
224	0x3d1ae2eb	0.037814062
225	0x3de10dd9	0.10988969
226	0x3e171658	0.14754617
227	0xbde5fcb2	-0.112298384
228	0xbe2ed6d7	-0.17074142
229	0x3dc7530d	0.097326376
230	0xbba2fd69	-0.0049740565
231	0xbc04732c	-0.0080841
232	0x3e3a1e98	0.18175733
233	0x3d52c72c	0.051459476
234	0x3d8eed08	0.06978804
235	0xbd6314c6	-0.055439733
236	0x3e1b618e	0.15173933
237	0xbd9168b7	-0.07100051
238	0x3dae7195	0.08517758
239	0xbdfd900f	-0.123809926
240	0x3d8bc628	0.06824905
241	0xbd4c8f53	-0.049941372
242	0x3dc8ddee	0.09807955
243	0x3df111ef	0.11770999
244	0x3cfa2f52	0.030540142
245	0x3d8f9b91	0.07012094
246	0xbd94eb6a	-0.07271464
247	0x3de4a9a2	0.111651674
248	0x3e1de808	0.15420544
249	0xbe006e96	-0.12542185
250	0x3b43b4c3	0.002986238
251	0x3d9309ce	0.071796045
252	0xbd1cbb84	-0.038264766
253	0xbd53ec7e	-0.05173921
254	0xbda61fa7	-0.08111506
255	0xbdd84951	-0.10560859

np.user_emb.second_embedding_layer.bias f4 [16]
0	0x3d8c6a1e	0.06856178
1	0x3d2ddac2	0.04244495
2	0x3e44e75e	0.19228885
3	0xbdf70f85	-0.12063507
4	0xbe1e7456	-0.15474066
5	0x3d992176	0.07477085
6	0xbe0c038d	-0.1367323
7	0x3e149d08	0.14513028
8	0x3dd1d829	0.102463074
9	0xbe17761a	-0.14791146
10	0xbdc796df	-0.09745573
11	0xbe2b59a6	-0.16733417
12	0x3e320f37	0.17388617
13	0x3e4949f1	0.19657113
14	0xbe028138	-0.12744606
15	0x3e040b22	0.12894872

np.xy_to_z.input_to_hidden.0.weight f4 [32, 33]
0	0xbd9b8d8a	-0.07595356
1	0x3d1fd9d6	0.039026104
2	0xba21724d	-0.0006158695
3	0xbd8bb832	-0.06822242
4	0xbdbe98d1	-0.09306491
5	0x3c494c09	0.012286195
6	0x3def092e	0.11671673
7	0x3e49da56	0.19712195
8	0x3d2c4309	0.042056117
9	0xbda5ea5d	-0.08101342
10	0x3e370fa0	0.17877054
11	0x3c485658	0.012227617
12	0x3d81a650	0.0633055
13	0x3d8baa07	0.068195395
14	0xbd217480	-0.039417744
15	0x3df8f824	0.12156704
16	0x3e609b79	0.21934308
17	0xbc2548dd	-0.010088173
18	0xbd3e212d	-0.046418358
19	0x3d70390c	0.058648154
20	0x3d1c6ae9	0.038187895
21	0xbc148c4a	-0.009066651
22	0x3e1d06e8	0.15334666
23	0xbd6fbebf	-0.05853152
24	0x3e4ab46f	0.19795392
25	0xbd292367	-0.041293528
26	0xbd52950b	-0.05141167
27	0xbd0e86be	-0.03479647
28	0x3ce4d21e	0.027932223
29	0xbd1e925b	-0.038713794
30	0x3d8675d8	0.06565446
31	0xbddcff31	-0.107908614
32	0x3e36740f	0.1781771
33	0xbe2a709d	-0.16644521
34	0xbe1299a6	-0.14316425
35	0xbe2e3342	-0.17011741
36	0x3daaf4b6	0.08347456
37	0xbd4d9dc1	-0.050199274
38	0xbdc1801b	-0.09448262
39	0x3dabbd1c	0.08385679
40	0xbb80cea9	-0.003930886
41	0x3d8d87ea	0.06910689
42	0x3bfec4ce	0.007774926
43	0x3c99f703	0.018794542
44	0x3e2a59af	0.16635774
45	0xbd976acf	-0.07393419
46	0x3e2f0411	0.17091395
47	0x3dd3c70a	0.10340698
48	0x3dafff0d	0.08593569
49	0xbe2872f1	-0.16450097
50	0xbddc510e	-0.107576475
51	0xbe31b83b	-0.17355435
52	0x3c0f855a	0.008759821
53	0xbd829e5f	-0.06377863
54	0xbe0d8e5e	-0.1382384
55	0xbe0af17c	-0.13568681
56	0x3dbac046	0.091187045
57	0xbe2b867a	-0.16750517
58	0xbcb92214	-0.022599258
59	0x3cc77697	0.02434854
60	0x3de3504a	0.11099298
61	0x3e26e45c	0.1629805
62	0xbdf3d523	-0.11905887
63	0x3d3d1752	0.046164818
64	0x3e202ddf	0.15642498
65	0xbe0c9a23	-0.13730673
66	0x3c0ea538	0.008706383
67	0xbd8f7f2c	-0.07006678
68	0x3e0772e6	0.13227424
69	0x3dd98290	0.10620606
70	0xbd5f56be	-0.054526083
71	0xbdbd82e6	-0.092534825
72	0xbd88d6e4	-0.06681612
73	0x3dd8f715	0.10594002
74	0x3d500f37	0.05079576
75	0x3d9fda7b	0.07805344
76	0xbd29dcb1	-0.041470233
77	0x3bb974eb	0.0056596897
78	0xbe2ef3ac	-0.17085141
79	0xbd1abe81	-0.037779335
80	0x3e0f51b5	0.13996013
81	0xbc82836a	-0.015931804
82	0x3d5f9749	0.054587636
83	0x3d90d3c6	0.070716426
84	0x3c59631d	0.013268259
85	0xbc7942f4	-0.015213717
86	0xbc7fc070	-0.0156098455
87	0x3e3e6838	0.18594444
88	0x3d300b13	0.04297931
89	0xbb959693	-0.004565069
90	0xbe0f0b94	-0.1396926
91	0xbdacdd08	-0.08440596
92	0xbe1c9c87	-0.15294085
93	0xbc221bf1	-0.009894357
94	0x3d610d68	0.054944426
95	0x3cf9be02	0.03048611
96	0x3d242f71	0.040084306
97	0x3a090a63	0.0005227683
98	0xbcb373f6	-0.02190588
99	0xbe23ab09	-0.15983213
100	0xbdea07c1	-0.1142726
101	0xbdcda8a5	-0.10041932
102	0x3ccc2999	0.024922179
103	0xbd08f576	-0.033437215
104	0x3e0ba5f6	0.13637528
105	0x3dcb005a	0.099121764
106	0xbdfece27	-0.12441664
107	0xbdc290ee	-0.095002994
108	0x3de2c88e	0.11073409
109	0xbe0d0eab	-0.13775127
110	0xbd04b980	-0.03240347
111	0x3e1926ba	0.1495618
112	0xbd440fca	-0.04786662
113	0xbe3003d5	-0.17188962
114	0x3ddca1ce	0.10773049
115	0x3d074d2b	0.033032577
116	0xbe1e6398	-0.1546768
117	0x3e1924fd	0.14955516
118	0xbda38d5b	-0.07985946
119	0xbd0cd8fd	-0.034386624
120	0x3ce0b8cb	0.027431866
121	0xbd54b942	-0.051934488
122	0x3e15fb85	0.14646728
123	0xbab1ce86	-0.0013565577
124	0x3ccb9df2	0.024855588
125	0xbdf12db1	-0.11776293
126	0x3e0c5ba8	0.13706839
127	0xbe1a2ac3	-0.15055375
128	0x3cbd240d	0.02308848
129	0xbcfa04e0	-0.030519903
130	0x3d9f4739	0.077772565
131	0xbd5685ac	-0.052373573
132	0x3e047943	0.12936883
133	0xbd37672f	-0.044776138
134	0x3dc864ce	0.09784852
135	0xbe2e616c	-0.17029351
136	0x3ce0bc25	0.027433464
137	0x3e0bdd26	0.1365858
138	0x3e3053d8	0.17219484
139	0x3d6b5969	0.057458315
140	0xbe18da22	-0.14926961
141	0xbdaf44eb	-0.08558067
142	0x3e0b1dcc	0.13585585
143	0x3e121e50	0.14269376
144	0x3ccfb527	0.025354935
145	0x3ddf9c1c	0.109184474
146	0x3de0cfb2	0.10977115
147	0xbd506257	-0.050875034
148	0x3d7bb2a1	0.06144965
149	0x3d3e709a	0.046494104
150	0xbb77976b	-0.003777946
151	0xbd504a13	-0.050851893
152	0xbe06b27c	-0.13154024
153	0xbe2c81c3	-0.16846375
154	0xbbd76de4	-0.0065743793
155	0xbe27eee5	-0.16399725
156	0x3cdf6942	0.02727187
157	0xbd7eb277	-0.062181916
158	0x3de4fff3	0.11181631
159	0x3e1633e5	0.14668234
160	0xbd83e19f	-0.06439518
161	0xbd753a90	-0.059870303
162	0x3e050796	0.12991175
163	0xbd39d751	-0.045371357
164	0xbdb093ae	-0.08621918
165	0xbe0a8142	-0.1352587
166	0x3e387028	0.18011534
167	0x3e462733	0.19350891
168	0xbd0a9b99	-0.033839796
169	0x3dc89d3d	0.09795616
170	0x3db976fc	0.090558976
171	0x3d833bba	0.06407876
172	0xbd8ff6df	-0.07029509
173	0xbd1d24f6	-0.038365327
174	0x3d950ca0	0.07277799
175	0x3b294a03	0.0025831468
176	0x3e377643	0.17916207
177	0xbdba41b4	-0.09094563
178	0xbe2f66d6	-0.17129073
179	0xbd5f8c0d	-0.054576922
180	0x3bf5f258	0.0075056963
181	0xbd10c358	-0.035342544
182	0x3e16c0f3	0.14722042
183	0xbd52a419	-0.051426027
184	0x3dc15909	0.0944081
185	0xbce6914c	-0.028145455
186	0xbd93f64f	-0.07224714
187	0x3c9ed051	0.019386442
188	0x3e4de1ff	0.20105742
189	0x3e0f3ad6	0.13987288
190	0xbe313b52	-0.17307785
191	0xbdb6fd63	-0.089350484
192	0xbdff5231	-0.12466849
193	0xbced646d	-0.02897855
194	0x3df25fae	0.11834656
195	0xbe026225	-0.12732752
196	0x3cc45b19	0.02396922
197	0x3e30c9f2	0.17264536
198	0xbccbca56	-0.024876755
199	0xbdffe0b1	-0.12494028
200	0x3d7d4963	0.061837565
201	0xbde7b975	-0.1131467
202	0xbe02a073	-0.12756519
203	0x3d99a385	0.07501892
204	0x3e1f9825	0.15585382
205	0xbdbeba1e	-0.09312843
206	0x3d5d9c7e	0.05410432
207	0xbe00c2ba	-0.12574282
208	0xbc9bd89e	-0.01902419
209	0x3e114f83	0.14190488
210	0xbd325911	-0.04354197
211	0x3caf5a5d	0.021405393
212	0xbda3dc28	-0.08000976
213	0xbe0519ab	-0.12998073
214	0xbe45960f	-0.19295524
215	0xbdae2478	-0.085030496
216	0xbe3560a1	-0.17712642
217	0xbd888d11	-0.06667531
218	0x3d25489a	0.04035244
219	0xbdf667bc	-0.120315045
220	0xbde96fc9	-0.113982745
221	0xbd9ebe89	-0.077511854
222	0xbd2b9d69	-0.041898165
223	0xbe2b3c9d	-0.16722341
224	0xbd526970	-0.051370084
225	0x3dfcfb36	0.12352602
226	0xbe06061b	-0.13088267
227	0xbb8eb967	-0.004355598
228	0xbe1ea360	-0.1549201
229	0xbe2fd118	-0.17169607
230	0x3dcac2ba	0.099004224
231	0xbda83976	-0.08214085
232	0x3d82216f	0.06354033
233	0x3e3b8f31	0.18316342
234	0xbe1aadb0	-0.15105319
235	0xbca39514	-0.019968547
236	0xbdc1a9fe	-0.094562516
237	0xbdf48976	-0.11940281
238	0xbd25e5f8	-0.04050252
239	0x3ba202d1	0.0049441834
240	0xbdbc568a	-0.091961935
241	0xbd388dc6	-0.04505708
242	0x3d245b41	0.04012609
243	0x3d58d1be	0.0529344
244	0xbcf79074	-0.030220248
245	0x3e111386	0.14167604
246	0x3d40d696	0.047079645
247	0xbd3ba325	-0.045809884
248	0x3d784eb4	0.060621932
249	0x3e4b2f85	0.19842346
250	0xbe19b4d2	-0.15010384
251	0xbd54bf33	-0.051940154
252	0x3e3f1297	0.18659435
253	0xbd0fcd4a	-0.03510789
254	0xbdd714c8	-0.105020106
255	0xbcbc07f4	-0.022953011

np.xy_to_z.input_to_hidden.0.bias f4 [32]
0	0x3e576978	0.21036327
1	0xbc265000	-0.010150909
2	0x3e409c9a	0.18809739
3	0xbe0db264	-0.13837582
4	0xbe257542	-0.16158012
5	0x3e43ae82	0.19109538
6	0x3d28f366	0.041247748
7	0x3e3e2e75	0.1857241
8	0xbdef110c	-0.11673173
9	0x3e4e361f	0.20137833
10	0x3d100e13	0.035169672
11	0x3ca2270a	0.019794006
12	0xbe2dfffa	-0.16992179
13	0xbdadc365	-0.08484534
14	0xbd86ff6e	-0.06591688
15	0x3e288888	0.16458333
16	0x3dc96527	0.098337464
17	0xbdce141f	-0.100624315
18	0xbd847e52	-0.06469406
19	0x3d81d9b9	0.063403554
20	0xbdc403bf	-0.09571027
21	0x3d5665ff	0.052343365
22	0xbd009d0c	-0.03139977
23	0x3e2d81dd	0.1694407
24	0xbccd2ec9	-0.025046723
25	0x3bbacbfd	0.005700587
26	0x3c86a66d	0.01643678
27	0xbe1ab60d	-0.1510851
28	0xbd9f5d4c	-0.07781467
29	0xbdb9877d	-0.090590455
30	0xbda54568	-0.08069879
31	0x3d920160	0.071291685

np.xy_to_z.input_to_hidden.3.weight f4 [16, 32]
0	0xbdaf97d7	-0.08573883
1	0xbe2d3bf8	-0.16917408
2	0x3cae81e7	0.021302177
3	0xbda47fa8	-0.08032161
4	0xbda14712	-0.07874884
5	0x3c7878ac	0.015165489
6	0x3e0d24a6	0.13783512
7	0x3e1ab88f	0.15109466
8	0xbdc58356	-0.09644191
9	0x3e07482c	0.13211125
10	0xbe14a3fc	-0.1451568
11	0xbd3e8f62	-0.04652346
12	0xbd5244ec	-0.05133526
13	0xbde96584	-0.11396316
14	0x3d2179c5	0.03942277
15	0x3db74fdf	0.08950781
16	0xbe32738d	-0.17426892
17	0xbc72d9e3	-0.014822456
18	0x3dcdcb4a	0.1004854
19	0x3e0b43c0	0.13600063
20	0x3dee95dc	0.11649677
21	0xbd89165c	-0.06693718
22	0xbc77e883	-0.015131119
23	0xbdce858e	-0.10084067
24	0x3d9f1e77	0.077694826
25	0xbe307d2c	-0.1723525
26	0xbd90743a	-0.070534185
27	0xbdf25143	-0.11831906
28	0x3db266d5	0.0871102
29	0xbe1bb13c	-0.15204328
30	0xbd5597e7	-0.05214682
31	0x3e0f5cda	0.14000264
32	0x3e4c4445	0.19947918
33	0x3e16f386	0.14741334
34	0xbd3c517d	-0.04597615
35	0x3d4d460e	0.050115637
36	0xbcfdb7c7	-0.03097142
37	0x3e0372a8	0.12836707
38	0xbdda7d7b	-0.10668465
39	0x3ddee60a	0.1088372
40	0x3e08051d	0.132832
41	0x3d154907	0.036446597
42	0xbd654880	-0.055977345
43	0x3e3fa48b	0.18715112
44	0x3d1e2eb3	0.038618755
45	0x3e3aaef0	0.18230796
46	0xbd98ffd6	-0.07470672
47	0x3d2ff414	0.04295738
48	0x3dea31b3	0.114352606
49	0xbda49092	-0.08035387
50	0x3d7bcf62	0.061477073
51	0x3e14fd62	0.14549783
52	0x3d885cfa	0.06658359
53	0x3c750a1e	0.014956025
54	0xbdcefcdc	-0.10106823
55	0x3d24fcd3	0.040280174
56	0xbdfb1eb2	-0.12261714
57	0x3e406e1d	0.18792005
58	0x3e023c04	0.12718207
59	0xbd29f042	-0.041488893
60	0xbaa9629e	-0.0012923067
61	0xbe1e792c	-0.15475911
62	0xbe2a0518	-0.16603506
63	0xbdb3bfd6	-0.08776824
64	0x3c72c8dd	0.014818397
65	0xbd9f6f87	-0.07784944
66	0x3e508b42	0.20365623
67	0x3e174ea7	0.14776097
68	0x3e1d6352	0.15369919
69	0xbd6319b7	-0.055444445
70	0x3df04e8a	0.1173373
71	0x3dce8f8a	0.10085972
72	0xbd52a36f	-0.051425394
73	0xbdbbdb62	-0.09172703
74	0xbd97851c	-0.073984355
75	0x3e63d200	0.22248077
76	0xbdde3ef0	-0.10851848
77	0xbc98c264	-0.01864738
78	0x3b6a8925	0.003578731
79	0x3e3f3520	0.1867261
80	0x3e40cbb4	0.18827707
81	0xbde85df2	-0.11346044
82	0x3e1eaa21	0.15494587
83	0x3e02c96c	0.12772149
84	0xbc131a4c	-0.008978438
85	0x3d7ec378	0.062198132
86	0x3e19bdbc	0.15013784
87	0x3df15e63	0.11785581
88	0xbd7fc1cb	-0.062440675
89	0x3d9bd597	0.076090984
90	0x3e255cee	0.16148731
91	0xbd3cdc73	-0.046108674
92	0x3d9b862a	0.07593949
93	0xbac8e8d3	-0.0015328176
94	0xbde42658	-0.11140126
95	0x3e271647	0.16317092
96	0x3e367b2b	0.17820422
97	0xbe26afe3	-0.16278033
98	0xbe039aaa	-0.12851968
99	0x3dcf7481	0.10129643
100	0xbe12c536	-0.14333043
101	0xbc760963	-0.015016886
102	0xbe02c1a0	-0.12769175
103	0x3de9473f	0.11390542
104	0x3e237582	0.15962794
105	0x3da87f0d	0.08227358
106	0x3cbbd9d3	0.022931015
107	0x3e46be86	0.19408616
108	0xbcd3c1a2	-0.025849167
109	0xbe02c4d6	-0.127704
110	0xbcd94335	-0.026521305
111	0x3e3f0e86	0.18657884
112	0x3e2b52ed	0.16730852
113	0xbe1d7752	-0.15377548
114	0x3ddbd194	0.10733333
115	0x3dd97ca7	0.10619479
116	0xbdf7bad6	-0.12096183
117	0x3d4a291a	0.049355604
118	0x3dc3edde	0.09566854
119	0xbe041560	-0.12898779
120	0x3d0351d2	0.03206045
121	0x3e22adce	0.15886614
122	0x3e67501f	0.22589158
123	0x3e247d9a	0.16063538
124	0x3da7d0fb	0.08194157
125	0xbacb59e8	-0.0015514465
126	0xbe46e2a9	-0.19422401
127	0xbd8d8312	-0.06909765
128	0xbdec273f	-0.11530923
129	0xbe02453a	-0.1272172
130	0xbe02f9bb	-0.12790577
131	0x3d3d979c	0.046287164
132	0x3cf7beb4	0.030242302
133	0x3e0ca552	0.1373494
134	0x3d2f2b4d	0.042765904
135	0xbe08db2d	-0.13364859
136	0xbd91e6c6	-0.07124095
137	0xbdbea648	-0.093090594
138	0xbd02e47c	-0.03195618
139	0xbdbac5aa	-0.09119733
140	0x3e07b195	0.13251336
141	0xbc62a150	-0.013832405
142	0x3e312cac	0.17302197
143	0xbe093360	-0.13398504
144	0x3d0c4f1d	0.034255136
145	0xbd792f2b	-0.060836
146	0xbcd3ca6e	-0.025853362
147	0x3d22cc65	0.039745707
148	0xbe343980	-0.1760006
149	0x3e0e1770	0.13876128
150	0xbdfde3ee	-0.1239699
151	0x3dfd7e53	0.1237761
152	0xbe11204c	-0.14172477
153	0xbd040b57	-0.032237377
154	0xbdfcfe65	-0.123532094
155	0xbc19ff0f	-0.00939919
156	0xbe144c14	-0.14482147
157	0x38d958d1	0.0001036391
158	0xbe21eddb	-0.15813391
159	0x3e3c408a	0.18383995
160	0x3d84aea0	0.064786196
161	0xbe072941	-0.13199331
162	0x3d12be5a	0.035826065
163	0x3df2af4f	0.11849844
164	0x3aa8a3b2	0.0012866168
165	0x3e59dfaf	0.21276735
166	0xbe087b91	-0.13328387
167	0xbdd7c2c9	-0.10535199
168	0x3e27d53d	0.16389938
169	0x3e4d499c	0.20047611
170	0x3d5e6006	0.054290794
171	0x3d33af26	0.043868206
172	0x3dab4704	0.083631545
173	0xbddf1f0c	-0.108945936
174	0x3dc43bc0	0.09581709
175	0xbd1c1475	-0.038105447
176	0xbccb1b65	-0.024793336
177	0x3db7a8c0	0.089677334
178	0x3e17bcc4	0.14818102
179	0x3df12a0a	0.117755964
180	0xbb8cb8f8	-0.004294511
181	0xbdbd8e2a	-0.09255631
182	0xbdac2208	-0.084049284
183	0x3c2f7483	0.010708931
184	0xbd2b4e4a	-0.04182271
185	0xbc4b74e1	-0.012418003
186	0xbcfc7ea5	-0.030822108
187	0x3ddd1bc9	0.10796315
188	0xbdf21a57	-0.1182143
189	0x3e10137f	0.14069937
190	0xbdc3ae38	-0.09554714
191	0x3e47fcfc	0.195301
192	0x3aaa8b37	0.001301146
193	0xbe114e6e	-0.14190075
194	0xbd87c049	-0.06628472
195	0x3e29fcd9	0.1660036
196	0x3d47b640	0.04875779
197	0x3c6bcf24	0.014392648
198	0x3e132afe	0.14371869
199	0x3b7c030e	0.003845397
200	0x3d63bbdf	0.05559909
201	0x3e00bf27	0.12572919
202	0x3df90ec6	0.12161021
203	0xbd87be26	-0.06628065
204	0x3dee057d	0.116221406
205	0x3c5388c4	0.012911025
206	0x3dccbe80	0.099972725
207	0xbd29194a	-0.041283883
208	0xbd598592	-0.0531059
209	0xbe1b24fb	-0.15150826
210	0x3de2c1de	0.110721335
211	0x3dc02fa8	0.0938409
212	0xbab5fdda	-0.0013884858
213	0xbdf982e5	-0.12183169
214	0xbe06de00	-0.13170624
215	0x3d87e511	0.06635488
216	0x3bc4004c	0.0059814807
217	0x3cc65616	0.02421097
218	0x3e0f9ddd	0.14025064
219	0x3d8f4483	0.069954894
220	0x3da797d0	0.08183253
221	0x3e2c7a1c	0.16843456
222	0x3b2b3a8c	0.0026127426
223	0x3df2f88d	0.118638135
224	0xbdaf4098	-0.08557242
225	0x3e09046c	0.13380593
226	0x3d6a3033	0.057174873
227	0x3dbcea15	0.09224335
228	0xbe323175	-0.17401679
229	0xbd957d82	-0.07299329
230	0xbcfeeb78	-0.03111814
231	0x3d88a671	0.06672371
232	0x3dd1540b	0.10221108
233	0x3cf05fb4	0.02934251
234	0xbdc4adb8	-0.09603447
235	0x3d73ae54	0.059492424
236	0x3e23be4a	0.15990558
237	0x3c6a6d97	0.014308355
238	0xbd56d949	-0.052453313
239	0x3de18d5b	0.110132895
240	0x3e179bb6	0.14805493
241	0xbde29a14	-0.11064544
242	0x3c6b1ce2	0.014350148
243	0xbdd95a2c	-0.10612902
244	0xbd6ef41e	-0.058338277
245	0x3d9d096d	0.076678135
246	0xbc7a4da9	-0.015277305
247	0x3e5a163c	0.21297544
248	0xbce36690	-0.027758867
249	0xbde786a4	-0.113049775
250	0xbd0f452e	-0.034978084
251	0x3daaf186	0.08346848
252	0xbd07edbe	-0.033185713
253	0xbe0f3e34	-0.13988572
254	0xbe386b44	-0.18009669
255	0x3e020b67	0.12699662

np.xy_to_z.input_to_hidden.3.bias f4 [16]
0	0xbdd14669	-0.10218508
1	0x3e275a4a	0.16343036
2	0x3e0b12c4	0.13581377
3	0x3e05cfb5	0.13067515
4	0x3e311260	0.17292166
5	0x3e0a0caf	0.13481401
6	0xbc8cfdb9	-0.017210828
7	0x3da7ad20	0.08187318
8	0x3d489c5a	0.048977233
9	0xbcef8606	-0.029238712
10	0xbd4ec010	-0.050476134
11	0x3c72b978	0.014814727
12	0x3e3265a3	0.17421584
13	0x3d6f6d65	0.058453936
14	0x3e0b122b	0.1358115
15	0x3e601ab5	0.21885188
