TaNP/save_model_dir/lastfm_20/film_1741709918/model_best.pt (torch, 809058 bytes, 40 tensors)

np.item_emb.first_embedding_layer.weight f4 [32, 3846]
000000 07 0c 34 3d 01 37 41 3c a9 b3 3a 3b ff 62 63 3c
       0.043956783 0.011792899 0.0028488433 0.013878583
000010 fe 9f 7f 3d b2 29 67 3c 85 2f 30 3d 9e 08 58 3d
       0.06240844 0.014109062 0.04301407 0.052742593
000020 a5 a7 0f 3d ae 79 d6 3b b2 92 0e 3d e9 3b 20 3c
       0.035071988 0.006545267 0.03480787 0.009779909
000030 3a b4 35 3d 4d c8 6c 3d 4d 47 12 3d e1 88 58 3d
       0.04436133 0.05780821 0.03571253 0.052864913
000040 e6 0a 24 3d ac 57 96 ba b0 ac 08 3b a8 b6 4e 3d
       0.040049456 -0.001147022 0.0020854883 0.050467163
000050 e4 0a 83 3c bc 81 28 3d 00 38 9d 3d 97 0c 73 3c
       0.015996404 0.04113935 0.07676697 0.014834545
000060 7a e5 8d 3d 72 f6 c8 3c 95 c4 c3 3b a3 b0 e3 3c
       0.06928535 0.024531577 0.005974362 0.027794188
000070 09 63 50 bb 9d bd e6 3b d6 19 fd 3c 71 39 ca 3c
       -0.003179731 0.0070416466 0.030896109 0.024685593
000080 25 2b 11 3d 2a f3 39 bc 8f f6 a0 3d 9e f8 43 3d
       0.035441536 -0.011349479 0.07859527 0.04784452
000090 f8 83 b8 3d 8a eb 6b 3d a2 d1 32 3d 0f 0e f4 3c
       0.09009546 0.057597674 0.043656953 0.02979186
0000a0 68 89 c1 3c ff d4 8c 3d 31 75 2a 3d 74 bb 4b 3d
       0.02362509 0.06876563 0.04161567 0.049739316
0000b0 73 20 39 3d d6 ce 1a 3d df 49 b7 3d 62 55 97 3d
       0.04519696 0.03779491 0.08949637 0.07389332
0000c0 7f 7e 85 3d 0d 97 ad 3b c9 d3 2c 3d 21 05 32 3d
       0.06518268 0.0052975477 0.04219416 0.043461923
0000d0 57 4f ac 3d ee 27 4f 3d 08 4e 97 3d 74 cb 47 3d
       0.084135704 0.05057519 0.0738793 0.048778012
0000e0 a7 7f a0 3d 9d ce 85 3d 5e 5e 30 3d 50 d6 85 bb
       0.07836848 0.06533549 0.043058746 -0.004084386
0000f0 92 44 18 3d eb 2c 6c 3d 8f 44 08 3d 8f e6 c5 3b
       0.03717477 0.057660025 0.033268508 0.0060394476
000100 4a 10 d5 3c 1f b3 58 3c ba 10 42 3d da de 11 3d
       0.026008744 0.0132263 0.047379233 0.03561292
000110 e3 0f 62 3c 61 e3 8c 3c 61 9f 4e 3d aa 9e d8 3b
       0.013797733 0.017198266 0.050444964 0.006610711
000120 dc 60 4b 3d 00 c7 5e 3d f4 85 43 3d ab ed 7d 3d
       0.04965292 0.054389 0.04773517 0.061994236
000130 4f 75 69 3b 9d 5c 51 3d 05 40 10 3d 39 fe 80 3d
       0.00356229 0.051113714 0.035217304 0.06298489
000140 f3 14 5c 3d 7f cd 65 3d d8 e5 83 3c 88 ae 25 bc
       0.053730916 0.05610418 0.016100809 -0.010112412
000150 9e eb 01 3c bd e7 28 3c 94 28 1b 3b 75 0b 7d 3d
       0.007929711 0.010309157 0.002367531 0.061778504
000160 4e 34 c8 3c b4 fa a5 bb ea 98 55 3d 65 6b 8a 3d
       0.024439003 -0.0050652865 0.052147783 0.06758765
000170 3e be 4c bc 5d b6 9a 3c 41 cc 21 bb 73 24 90 bb
       -0.012496529 0.018885786 -0.0024688395 -0.0043988763
000180 8f 24 5b 3d 92 5b 34 bc 10 e5 99 3d 09 df 1f 3d
       0.053501662 -0.01100816 0.07514393 0.039031062
000190 4f df 49 3d 42 59 45 3c 96 52 9f 3d bd 69 50 3c
       0.04928523 0.0120452065 0.07779424 0.0127205225
0001a0 aa 9e 5a 3d 00 bb 84 3d 91 88 31 3d 09 de 54 3d
       0.05337397 0.0648098 0.04334313 0.05196956
0001b0 ad 9d 87 bb 1f 9f 81 3d 83 6a 20 3d e1 0a a0 3d
       -0.0041386695 0.06329178 0.039164077 0.07814575
0001c0 64 cd 22 3d f0 04 48 3c e1 b8 d4 3c 14 4c 2e 3d
       0.039746657 0.012208208 0.025967063 0.042553023
0001d0 85 fd e3 3c b7 21 5c 3d de 58 87 3d 8b 87 c2 3c
       0.027830848 0.05374309 0.06608747 0.023746273
0001e0 0a 0d 47 bc 7b 37 ec 3b 67 5a 65 3b b2 a4 2b 3c
       -0.012149105 0.007208762 0.003499651 0.010476278
0001f0 98 f8 40 3d 9c 24 3f 3c c3 c5 29 3d b8 45 3d 3d
       0.047112077 0.011666443 0.041448366 0.046209067
000200 7a d5 8c 3d c3 70 c3 3c 7a 5d 54 3d 94 89 8f 3d
       0.06876655 0.02385748 0.05184696 0.07008663
000210 b9 f6 92 3d c0 69 1c 3d 4d 6e 5a 3d 82 99 63 3d
       0.07175965 0.03818679 0.053327847 0.05556632
000220 71 f3 87 3d 00 28 94 3d f1 5e cf 3b bd 65 65 3b
       0.0663823 0.07234192 0.0063284566 0.0035003268
000230 22 6e d0 3b 1d 68 48 3d b3 c9 08 3c 46 94 39 3d
       0.006360785 0.048927415 0.00834887 0.04530742
000240 12 72 9c 3c 35 3f cb 3c 5a ad c0 3c 4d 4e ef 3c
       0.019097362 0.024810413 0.02352016 0.029212141
000250 52 9d b4 3c 8b 85 fd 3c eb f6 37 3b 84 9d f1 3c
       0.022047672 0.030947467 0.0028070759 0.029494055
000260 3d 28 03 3d 9c 93 42 3c 08 b7 a6 3d a8 ec 7e 3d
       0.032020796 0.011876013 0.08140379 0.06223741
000270 30 55 89 3d ce c5 87 3d 19 ef 57 3d 1c 3f a3 3d
       0.06705701 0.06629525 0.052718256 0.079710215
000280 a5 b4 09 3d d0 4d 25 3d ff 95 76 bb ff e1 1d 3d
       0.03361954 0.04035741 -0.0037626026 0.038545605
000290 6b b8 3e 3d ce cb b5 3d ae f5 70 bc 7f 3d 29 3d
       0.046562593 0.08876763 -0.014707012 0.041318413
0002a0 dd 46 e0 bb d5 3c 41 3c b4 06 24 3c 98 95 22 3d
       -0.006844385 0.011794289 0.010011364 0.039693445
0002b0 3a 6c 6c bc e9 e1 75 bc bc 1d 26 bc e1 10 06 b9
       -0.0144301 -0.015007474 -0.010138925 -0.00012785524
0002c0 79 25 99 3c db cc 3e 3c ba df d2 bb d9 8e 4e bc
       0.018694626 0.011645521 -0.0064353617 -0.0126073
0002d0 97 3e 7a 3b 2f 57 8d 3c 68 8b 56 3c a2 d3 1d 3d
       0.003818428 0.017253486 0.0130947605 0.038531907
0002e0 90 ed 7d 3d b0 0b a2 3d 76 18 64 3c da 01 ae 3d
       0.061994135 0.079123855 0.013921848 0.08496447
0002f0 45 3a a6 3c 76 12 24 bb 39 1a 9c 3d fa e2 89 3c
       0.020291457 -0.0025035418 0.07622189 0.016831864
000300 2e c2 87 3d 89 cc 6f bc 1a a6 17 3c 66 39 ae 3c
       0.06628834 -0.014636167 0.00925591 0.021267604
000310 1a aa 6a 3d 10 97 80 3d 83 95 d8 3c e6 43 d5 3c
       0.057291128 0.06278813 0.02643848 0.026033353
000320 b8 1d 51 3d ea 15 10 bc ff e4 e5 3c 54 4b cb 3c
       0.051053733 -0.008794287 0.028063295 0.024816193
000330 a9 a3 0e 3c 50 95 6a 3c 83 ec 6d 3d bd a6 20 bc
       0.008706012 0.014317825 0.058086883 -0.0098053785
000340 cb 0d 58 3d 16 39 69 3d 4d ac 70 3d 5d 56 34 3d
       0.05274753 0.056939207 0.05875807 0.044027675
000350 86 74 2e 3d 73 a4 54 3b f0 82 6a 3c d8 65 79 3c
       0.042591594 0.0032446652 0.0143134445 0.015222035
000360 d7 1f fa 3c 14 b2 61 3d c1 7e cd 3c ae 75 7e 3c
       0.03053276 0.05510147 0.025084855 0.015530987
000370 bc 48 b7 3c f8 f4 80 3d 8a ae 52 3c 97 6a 48 3d
       0.02237355 0.06296724 0.012858996 0.048929777
000380 63 e2 5c 3d d6 65 2c bc 80 ff aa 3c ee e0 28 3d
       0.053926837 -0.010522326 0.020873785 0.041230135
000390 d0 c5 0c 3d 55 38 8f 3c af 04 b8 3c 0b aa b7 3c
       0.034368336 0.017482916 0.02246317 0.02241995
0003a0 5b a7 13 3d d5 c0 28 3d 60 fa 57 3c 01 ef 91 3d
       0.036048274 0.041199524 0.013182253 0.071256645
0003b0 ba a9 0a 3d f5 6c 2d 3d d4 ae 2b 3d 4b fb fc 3c
       0.03385327 0.042340238 0.041914776 0.030881545
0003c0 d9 bc 15 3b 41 8b 1c bb 65 dc 8a 3d 6f c1 2a 3c
       0.0022848158 -0.0023886713 0.06780318 0.010422095
0003d0 8c 61 7b 3c f1 54 3e 3d 8a 17 78 bb 69 3a ed 3b
       0.015343081 0.046467725 -0.0037855827 0.007239629
0003e0 51 60 dc b9 97 da 57 bc 5a ae 2b 3d 95 4f 05 bc
       -0.0004203343 -0.0131746745 0.04191432 -0.00813665
0003f0 5d bd 5d 3d a9 b1 84 3d 19 d5 17 3d 54 ad 61 3d
       0.05413567 0.064791985 0.03706846 0.05509694

np.item_emb.first_embedding_layer.bias f4 [32]
000000 73 6d 51 3d b2 5c 38 3d 1f 62 98 3d d6 a4 8c 39
       0.05112977 0.045010276 0.0744059 0.00026825693
000010 95 85 4b 3d 41 aa 74 3d 19 75 38 3d ff 0e 59 3d
       0.04968794 0.05973268 0.045033548 0.052992817
000020 77 10 2b 3d 58 11 59 3d ea e9 39 3d da 5d 82 3d
       0.04176375 0.052995056 0.045389093 0.06365557
000030 9a 79 9d 3c fa 67 86 3d 16 3a 4b 3d d8 2f 5c bc
       0.019223023 0.06562801 0.049615942 -0.013439141
000040 6c e2 89 3d 81 45 4f 3d b8 4b e1 3c f5 d4 04 3d
       0.0673264 0.050603393 0.027501926 0.032429654
000050 99 03 3a 3d b6 3f 4e 3d 76 8c 40 bc fe 5f d8 3c
       0.045413587 0.05035373 -0.0117522385 0.02641296
000060 b2 14 2c 3d 4d eb fc bb e5 94 04 3d 90 27 f3 3c
       0.042011924 -0.0077184797 0.03236856 0.02968195
000070 68 e5 03 3d 3a f2 44 3d 30 8a 32 3d 3f 84 64 3d
       0.0322012 0.048082568 0.043588817 0.055790182

np.item_emb.second_embedding_layer.weight f4 [16, 32]
000000 ed 36 19 bc 89 17 5b 3d ff 8d 2a bc d3 da 1d be
       -0.009351474 0.05348924 -0.010409831 -0.15415506
000010 98 4b 42 3d dd 46 30 bd c2 f5 2f 3e 9a 17 a7 bd
       0.047435373 -0.04303633 0.17183593 -0.081587985
000020 36 d1 f5 3c 3b 3a a5 3d 2c 4c b7 3d e4 49 77 bb
       0.030006986 0.08067747 0.089500755 -0.0037733251
000030 7b 25 81 3d 05 de ca 3c db 08 ac 3d 88 bf c5 3d
       0.06305977 0.02476407 0.084001265 0.09655672
000040 b1 f3 81 3d d7 6c 82 3d 07 c5 8d 3d a4 42 98 3d
       0.063453086 0.06368416 0.069223456 0.07434586
000050 6b c3 8b 3d 40 4b fa bd 06 30 e6 3c 10 f0 06 bd
       0.068243824 -0.12221384 0.028099071 -0.032943785
000060 3d 7b 31 be a1 fe 0a 3d c7 7a c7 3d 25 ca 2b 3e
       -0.17332168 0.03393424 0.09740215 0.16776331
000070 98 35 d1 bd e6 cb 8f bd 74 ad 1f 3e 82 da 89 3d
       -0.102153 -0.070213124 0.15593511 0.0673113
000080 5e 22 84 3d 7a 99 f0 3d fa 18 fb 3c 9e 1f 25 be
       0.064518675 0.11748023 0.030651558 -0.16125342
000090 2d d5 c3 3d 94 7d a8 3d c2 b1 0f 3e 39 0b 59 3d
       0.095621444 0.08227077 0.14032653 0.05298922
0000a0 2d 4e 41 3c 77 51 5e bd 25 b7 9c 3c 00 bd 83 3d
       0.011798424 -0.05427691 0.019130299 0.06432533
0000b0 1e ba 27 3e d4 2f 6d 3d 39 fa 6b 3e 85 c5 55 bd
       0.16379592 0.05790694 0.23044671 -0.052190322
0000c0 bf ff 90 bc 4e 5d 00 3e a4 c8 0d 3e be fc 2b 3e
       -0.017700074 0.12535593 0.1384607 0.16795632
0000d0 56 c2 0a 3d cb 55 06 3d 66 97 20 be c2 19 22 3e
       0.03387674 0.032796662 -0.15682754 0.15830138
0000e0 2d 92 35 bd 22 e6 c4 bd 76 d3 68 bc 5d 9e da 3d
       -0.044328857 -0.09614207 -0.0142105725 0.10674737
0000f0 90 c8 9f 3d de 5a 85 3e ce 2a 8b 3d fa 6b bc 3d
       0.07801926 0.2604589 0.06795274 0.092002824
000100 bc 27 9f 3d 65 c3 d0 bc 33 26 47 bd 89 7c 7d bd
       0.077712506 -0.025483796 -0.048620414 -0.061886344
000110 82 3b 4e bd 94 53 6a bc 5e b9 3e 3c ce 34 95 bd
       -0.05034972 -0.014302153 0.011640875 -0.07285462
000120 d4 0c b3 3d 5b e3 8f bc a6 b5 3b 3d ac 64 83 3c
       0.08742681 -0.017564466 0.04582753 0.016039215
000130 c3 8b 06 be 49 26 99 3c 57 62 ec 3d e4 0e f9 3d
       -0.13139252 0.018695014 0.11542194 0.12161043
000140 41 0f 5e 3d 8d 64 01 be 81 37 ab 3d b6 56 d6 3d
       0.054213766 -0.12636013 0.08360196 0.104657575
000150 ac a1 c2 3d 3c 89 80 bd 04 7b a2 3d e7 55 4c 3d
       0.09503493 -0.062761754 0.079336196 0.04988661
000160 80 8e 36 3d 4a a1 f6 3d 25 21 19 be 9a 99 f1 3d
       0.044569492 0.12042482 -0.1495405 0.11796875
000170 3d ce e6 3d 38 0b 1e 3e bb ba 9e bd f7 87 21 3e
       0.112698056 0.15433967 -0.0775046 0.15774523
000180 e7 77 97 3d 3d a7 24 3e 62 41 d3 3d ce fe 49 bc
       0.073959164 0.16079421 0.10315205 -0.012328817
000190 38 3a 36 bd 52 75 85 bd 34 e6 ff bd 2a 03 49 bd
       -0.044489115 -0.06516518 -0.1249508 -0.049075283
0001a0 7b 77 2a be 76 6e 02 3e a0 13 93 bd 18 df 1b bc
       -0.1664714 0.1273745 -0.071814775 -0.009513639
0001b0 62 7d 2e 3e a6 1d 9d 3b 34 24 9a bd 22 dd e8 bd
       0.17040017 0.004794794 -0.075264364 -0.11370303
0001c0 ca 84 af 3c 1d bb fd bd f9 9d 0c 3e b2 fb f4 bd
       0.021425623 -0.12389205 0.13732137 -0.119620696
0001d0 1e 2c 1d 3e 53 83 eb bc 76 9c 15 bd 54 76 e8 3c
       0.1534886 -0.028749144 -0.036526166 0.028376736
0001e0 b8 85 0d 3d 32 dc 1a 3e 8b 27 12 be 11 43 c1 3d
       0.034551352 0.1512306 -0.14272897 0.0943662
0001f0 6d 79 93 3d 1f f1 79 3c 1a 1f 1e bd 32 8f 34 3d
       0.072008945 0.015255242 -0.03860388 0.044081874
000200 d6 47 c4 3d b1 d3 b5 bd 41 36 d1 3d ed 49 0d be
       0.09584014 -0.088782676 0.10215426 -0.13797732
000210 f7 fe 44 3d b8 4a 01 3d 31 f1 ce 3c 58 f8 29 3d
       0.048094716 0.031565398 0.025261493 0.041496605
000220 f0 6c 8d bd 30 73 8c bd 2f 6d ce 3d 91 dd 08 be
       -0.06905544 -0.06857908 0.10079419 -0.13365771
000230 ff 64 04 3e 37 90 32 3e f1 d4 65 3b 75 d3 ee bc
       0.12929152 0.17437826 0.003506955 -0.029153565
000240 d1 aa 00 3e 2e 6c 43 bd 73 f3 ef bd cc 7c 22 be
       0.12565161 -0.04771059 -0.11716356 -0.15867919
000250 53 8f 84 bd 5c 4a 1a be 4c e2 ce bc 07 87 43 bd
       -0.064726494 -0.15067428 -0.025254391 -0.047736194
000260 fb 9b 7d bc 41 64 0b 3e ad 33 e5 3c b4 4d b3 bd
       -0.015479083 0.13612463 0.027978742 -0.08755055
000270 e5 8d 19 3e 1a c6 82 bd b0 30 13 be 29 a0 4a bd
       0.14995535 -0.06385441 -0.14374042 -0.049469147
000280 ec c9 20 bc d9 a9 d5 3d e5 6f 2b be 87 34 aa 3d
       -0.009813767 0.104327865 -0.16741903 0.083108
000290 92 09 63 3d d6 21 e4 3d ef 14 44 bd 2a 89 a3 bd
       0.05542905 0.11139266 -0.047871526 -0.07985146
0002a0 83 89 23 be 4d 35 52 bc d2 5a 2b be 41 88 00 be
       -0.15970425 -0.012830091 -0.16733864 -0.12551977
0002b0 1f 56 1a 3d 52 87 e6 bd 8b 79 f2 3b 0a a2 bf bd
       0.037679788 -0.11256279 0.007399743 -0.093570784
0002c0 91 db 21 be 70 40 27 3e db 7b 17 bc b7 ac ed bd
       -0.15806414 0.16333175 -0.009245838 -0.11605208
0002d0 93 1e 28 3e e9 f8 0a 3e 2f 7f 05 3e a3 9e 95 bd
       0.16417913 0.13571514 0.13036798 -0.07305648
0002e0 f9 5f cd bd c0 a0 6d 3c 83 c0 17 be 9f ee 5c bd
       -0.10028071 0.014503658 -0.14819531 -0.053938504
0002f0 28 8f 8b bd c5 fb 28 be be 85 72 bd 5e 79 6e bd
       -0.06814414 -0.16502292 -0.059209578 -0.058221214
000300 6d a9 19 3e a7 0c 4e 3e 27 7f dc bc c3 31 fd bc
       0.15006037 0.20122014 -0.0269161 -0.030907517
000310 22 45 7c 3d e7 8f 69 3e 5d 53 6f bc f0 25 68 3e
       0.061589368 0.228088 -0.014607278 0.22670722
000320 fd b6 3c 3e 05 1c ac bb 39 f7 31 3e 32 04 9f 3c
       0.1842918 -0.0052523636 0.17379464 0.01941118
000330 fa 25 0b 3d 28 0c ee 3d 50 71 8a 3d 1e 2e cf bd
       0.033971764 0.11623412 0.06759894 -0.10116218
000340 71 f0 57 3d 87 e7 1a 3e 83 ae 3a 3d 09 90 b3 bc
       0.052719537 0.15127383 0.045576584 -0.021919267
000350 78 ba 9d bc b3 7f 20 3e 25 4f 1d bd 8a 9f 4d 3e
       -0.019253954 0.15673713 -0.038405556 0.2008039
000360 25 f4 1a 3e 29 fd 08 be f2 c0 42 3d 40 2d e2 bd
       0.15132196 -0.13377823 0.04754729 -0.11043787
000370 19 aa 9c 3d 55 ef f1 3c 31 2c 65 3e c6 36 3f 3e
       0.07649631 0.029533068 0.22380139 0.18673238
000380 20 78 fe 3d 92 38 e9 3d 48 98 e5 3d a0 04 1d be
       0.12425256 0.11387743 0.11210686 -0.15333796
000390 1e a3 ea bc 8d 3c 4a 3e e4 ef 1f 3e b9 05 38 3e
       -0.028642233 0.19749661 0.15618855 0.17970933
0003a0 d5 b9 9d 3d 64 04 70 3e 3e 4c d0 3c 20 ef a9 3d
       0.0770146 0.23439175 0.02542698 0.082975626
0003b0 ac 37 85 3d 2d a6 ab 3d d5 a4 62 3e 1c 33 d3 3d
       0.06504759 0.08381305 0.22133191 0.10312483
0003c0 2c e3 4c 3c 4e dd 6a 3e ad f2 cc 3d 5e f2 a6 3d
       0.012505334 0.22935984 0.10007224 0.081516966
0003d0 99 8b 1a 3e dd e2 69 3e 51 62 f1 bd 58 cb 6f 3e
       0.15092315 0.22840448 -0.117863305 0.23417413
0003e0 83 ba fd 3d 10 7c 0b be 52 65 c0 bd 7c 70 bc 3d
       0.1238909 -0.13621545 -0.09394325 0.09201142
0003f0 89 1c b0 bd b6 28 83 bd 10 a6 45 3e 2d 35 49 3e
       -0.08599193 -0.06404249 0.19301629 0.19649191

np.item_emb.second_embedding_layer.bias f4 [16]
000000 37 2e c1 bd a1 58 c7 3d 42 f8 d9 bd 8e 55 36 bd
       -0.09432643 0.097337015 -0.106430545 -0.044515185
000010 11 a7 23 be 05 0f 32 bd b3 85 d9 3d 7f b9 66 3d
       -0.159817 -0.043471355 0.10621204 0.056329247
000020 75 ed 40 3e 7c 19 18 be b8 bb ed 3d 09 b7 84 3d
       0.18840583 -0.14853472 0.1160807 0.06480224
000030 f3 b3 13 3e 0e 17 2c be 75 09 db bd fb c5 15 3d
       0.14424114 -0.1680567 -0.10695163 0.036565762

np.user_emb.first_embedding_layer.weight f4 [32, 1872]
000000 52 62 74 bb 08 b7 b4 3c 6e e0 67 3c e1 37 58 bc
       -0.0037290049 0.022059932 0.014152629 -0.013196916
000010 92 23 8a 3c cd 64 3a 3c 47 a2 5a 3c b9 ea af 3a
       0.016862664 0.011376572 0.013344354 0.0013421393
000020 c7 ba cc 3b 81 b2 42 bc fa 0c 49 3c 89 f2 e9 bb
       0.0062478515 -0.011883379 0.01227116 -0.007139508
000030 df 34 71 3c 62 a7 f4 bb b4 3c 55 3c 87 9b 68 3c
       0.014722078 -0.0074662426 0.013014961 0.014197237
000040 bd bd 01 bc c3 ff 5b bc 26 1a 2a bc 41 b5 98 bc
       -0.007918772 -0.013427678 -0.010382211 -0.018641116
000050 ca 8b 23 3c de 52 61 bc 1b a2 13 3c 1d 28 b0 bc
       0.009982059 -0.013752667 0.009010817 -0.021503503
000060 a1 30 bd ba 54 2f 17 3c 4c fc b9 bb af 5f 9a 3b
       -0.0014434048 0.0092275925 -0.005675828 0.0047111134
000070 5a 32 8d 3c e2 56 a1 ba 57 d3 51 3c 38 cf 9f bb
       0.017235924 -0.0012309218 0.012806735 -0.0048769973
000080 52 51 88 3c cb 97 86 bc 4d e3 4d bc 04 21 99 3c
       0.016640339 -0.016429802 -0.0125664 0.0186925
000090 20 33 fc 3b 73 d4 ad 3c 79 86 05 bb 31 e9 a6 bc
       0.0076965243 0.021219468 -0.0020374341 -0.020374866
0000a0 6b 78 af 3c 56 db 9d 3c ba 4d d5 3b c9 a0 b5 bc
       0.021419724 0.019269627 0.00650951 -0.022171395
0000b0 92 4f f5 bb 6d c2 ae 3c 23 9f 09 3c 2e 92 fd bb
       -0.007486292 0.021332944 0.008399758 -0.0077383732
0000c0 14 46 cd 38 b5 06 a5 bb 24 22 21 bb 7c b3 a7 bb
       9.788215e-05 -0.0050362 -0.0024587 -0.0051178318
0000d0 37 a8 09 bc 38 5a 1c 3c 07 d1 a9 3c d7 e9 8a 3c
       -0.008401922 0.009542994 0.020729555 0.016957207
0000e0 97 d2 bf 3c 1e e6 5b bb c3 ed e4 bb 79 3e 92 bc
       0.023415847 -0.0033553909 -0.006986351 -0.017852055
0000f0 09 12 6b bc 55 43 03 3c 58 5b e8 3b 76 84 b2 3c
       -0.014347562 0.008011659 0.007090967 0.021791678
000100 fb 7d 32 3a f1 3e e9 3b 57 94 48 3c bb e6 4b bc
       0.00068089337 0.007118099 0.012242398 -0.012445147
000110 25 f8 61 3c 75 4f aa 3b a2 e6 18 3d 5c 49 86 3b
       0.013792072 0.0051974603 0.037329324 0.0040981006
000120 46 ea b7 bc 71 64 bc 3c 1d e8 0b 3c 06 2e 75 3c
       -0.022450577 0.022997113 0.008539227 0.014964586
000130 72 52 68 3b ab 57 9e 3c 0b a8 62 3c e8 07 9b 3c
       0.0035449532 0.019328913 0.01383401 0.018924668
000140 10 b0 9e 3c eb b4 ff 3c a4 ee 91 3b 63 62 63 3c
       0.019371063 0.031214198 0.004453497 0.013878438
000150 a3 26 15 bc 9d ae ac 3c cb 55 55 3c 43 3c c1 3c
       -0.00910345 0.021079356 0.013020943 0.023588305
000160 56 2a 50 3c 88 48 8b 3c a5 6a 8c 3c a1 db 21 bc
       0.012705406 0.017002359 0.017140696 -0.009879024
000170 d5 e6 14 3d 39 ed ed bb 69 84 00 bc e0 c7 89 3c
       0.03635295 -0.007260945 -0.007844069 0.01681894
000180 06 75 dc bb 66 7d 1f bb c5 ce 56 bc a9 c3 aa 3c
       -0.0067278175 -0.0024336218 -0.013110821 0.020845251
000190 0c da d6 3c 74 ef ac ba 8e 56 a7 3c bb 9d 16 3d
       0.02622702 -0.0013193921 0.020427015 0.036771517
0001a0 e4 e9 99 3c cc ec 32 3c 55 3b aa bc b1 64 33 bc
       0.018788286 0.010920715 -0.020780245 -0.0109493
0001b0 76 8b 8f bc 26 be dc 3b 6d 97 46 bb bd f9 aa bc
       -0.017522555 0.0067365346 -0.003030266 -0.020871038
0001c0 80 5d 9c 3b 41 7c b5 3c 57 23 b3 3c 5a b9 08 3b
       0.0047718883 0.022153975 0.021867437 0.0020862431
0001d0 16 32 02 3b 6f 12 b2 3c ca d4 93 ba 02 c2 a5 3c
       0.001986628 0.021737305 -0.0011278626 0.020234112
0001e0 2e e3 38 bb f1 b2 a5 ba 23 53 78 3c 1c 2c 53 3c
       -0.0028211582 -0.001264183 0.01515654 0.012888934
0001f0 36 3c 7a 3c d1 e1 80 bc 99 4b bb 3c 0c 88 4e bc
       0.0152731445 -0.015732678 0.022863196 -0.012605678
000200 20 4a 99 3b c0 7f 0c bb f6 e3 a4 bc 90 cd 8c bc
       0.004678026 -0.002143845 -0.020128231 -0.017187864
000210 54 29 a3 3c 0f 6e 92 bb b6 be d7 bb 31 6a 61 3c
       0.019917168 -0.0044686864 -0.006584014 0.013758228
000220 f9 1b 85 3b 77 6a b9 bc 01 38 aa bc aa 85 25 bc
       0.0040621725 -0.022633774 -0.020778658 -0.010102669
000230 f4 06 2a 3a a3 aa bb 3c 0c a5 c9 bb 7b af 5d 3c
       0.00064860214 0.022908514 -0.0061537083 0.013530607
000240 aa 55 20 3c 7d da 11 bb d6 b0 99 3c 5a 0b 70 bc
       0.009786049 -0.0022255473 0.01876108 -0.014651144
000250 89 f4 0b 3c 06 bd df 3b 67 b1 19 3c c9 c9 fe 3c
       0.008542188 0.0068279533 0.009380675 0.031102078
000260 ad fe 8a 3b a9 e5 af bb c6 31 b3 bb 69 e4 ba bc
       0.0042417855 -0.005367954 -0.00546858 -0.022813993
000270 9d 33 b7 bc 8e f6 a9 3c e0 19 8a bc 1c 7c b6 b8
       -0.022363478 0.02074745 -0.016858041 -8.7015535e-05
000280 47 12 3a 3b b4 2c 21 3c 18 ae 90 3c 39 52 4d bc
       0.0028392242 0.009837318 0.01766114 -0.01253181
000290 ad fd de ba c9 54 2e 3c 77 33 0b 3d c4 9c fb 3b
       -0.0017012857 0.010640332 0.033984628 0.0076786
0002a0 4f 88 37 bb cc fb 24 3a 73 83 94 3b cd e5 4a bc
       -0.002800483 0.0006293624 0.0045322715 -0.01238389
0002b0 43 c7 b4 bb 94 46 e2 3b 91 e7 a8 3c bc 92 40 3c
       -0.005516918 0.006905386 0.020618232 0.011753734
0002c0 68 ff 72 3a 32 ca 36 3c cc 7f 22 3c 72 95 35 3c
       0.0009269626 0.011156606 0.009918164 0.011082994
0002d0 c1 e6 26 bc 7b 34 ca 3b 6d bd a9 bc b2 fd b4 3c
       -0.010186852 0.006170807 -0.020720208 0.022093628
0002e0 02 15 a1 bc 49 d1 b0 3c f6 21 b0 3b 4e 87 52 bc
       -0.019663338 0.02158417 0.005375142 -0.012849642
0002f0 6b 79 9c 3b a9 96 b3 39 01 00 dd bb f5 f6 8e bc
       0.0047752163 0.0003425379 -0.006744385 -0.017451743
000300 c0 73 27 3c b6 40 46 3c c2 10 29 bc f3 a9 b5 ba
       0.010220468 0.012100389 -0.010318937 -0.0013859853
000310 33 1a ac 3c ea 77 38 bc 07 36 b9 3c 2a 47 78 bc
       0.021008587 -0.0112590585 0.02260877 -0.015153686
000320 5e e3 10 bc a6 1a 78 bb f6 2d a7 bb bc 99 74 bc
       -0.008843271 -0.003785768 -0.0051019145 -0.014929231
000330 38 83 a0 bb ba 3b 8d 3c 03 95 9a 3c 15 c9 96 3c
       -0.004898455 0.017240394 0.018869882 0.01840643
000340 8f aa 90 3b 61 2d ef ba 5f 98 a8 3c 82 23 8a 3c
       0.0044148634 -0.0018247777 0.020580469 0.016862635
000350 bb 19 f7 3a 67 a5 63 3c 28 3f bf 3b 87 9c b0 bb
       0.0018852273 0.013894415 0.0058363862 -0.0053897533
000360 9e 64 18 3b 1b 28 58 bc 74 b9 8a bb ed 2a a0 3b
       0.0023253332 -0.013193156 -0.0042335335 0.0048879297
000370 ef 26 6a bc 01 fa a7 3c fe 7b 8a 3c 5e 0e 72 3c
       -0.014291509 0.020504953 0.016904827 0.014773933
000380 69 46 16 bc db 6a 8f bc 2c 86 9c bc 2a 71 4c 3b
       -0.0091720605 -0.017507007 -0.019106947 0.003119538
000390 a3 bd 92 3b e4 64 b4 3c 2f 47 b7 3c 9d b7 44 bb
       0.004478173 0.022020765 0.02237281 -0.0030016669
0003a0 1d 58 7b ba 71 8d 56 bb c5 47 fb 3b 20 e2 a6 bc
       -0.000958802 -0.0032738114 0.0076684677 -0.020371497
0003b0 a2 34 94 3c d9 88 9e bc 39 ee 10 3d d0 a6 0a 3c
       0.018091504 -0.019352363 0.035383437 0.008462623
0003c0 19 1d 88 3c 66 d0 15 bc ec dc 29 3c 02 b5 fe b9
       0.016615437 -0.009143924 0.010367613 -0.00048581517
0003d0 16 ea 19 3c 93 26 02 3c 63 af 16 bc c4 09 cf 3b
       0.009394189 0.007943767 -0.009197089 0.006318303
0003e0 22 16 37 ba 25 64 65 bc 70 26 82 bc ee 63 96 bc
       -0.0006984194 -0.014000927 -0.015887469 -0.018358197
0003f0 45 25 2b 3b ca 69 90 bc ca 5e 09 3b b7 1f 99 bb
       0.0026114744 -0.01762857 0.002096104 -0.00467297

np.user_emb.first_embedding_layer.bias f4 [32]
000000 ac de 64 3d 42 a3 8a bc 69 55 05 3d f2 38 9a bc
       0.05587642 -0.01692355 0.032552157 -0.018825982
000010 63 92 19 3d 2b 77 98 3c e4 ad 97 3d 20 0a 37 3d
       0.03749312 0.018611511 0.07406214 0.04468739
000020 ee 25 6b 39 5d 4f 58 3d 83 2e 38 3d 1d 6d 8f 3d
       0.00022425476 0.05281006 0.044966232 0.070032336
000030 9e e4 bb bc 43 27 a9 bc 5c b2 01 3d 5c 1e 90 3c
       -0.022936162 -0.020648604 0.031664237 0.017592601
000040 f8 87 f4 3c 5f 93 2d 3d 08 0e 48 3d 89 35 28 3d
       0.029849991 0.042376872 0.048841506 0.04106668
000050 eb db b8 bc cb 6d ff 3c 65 25 78 3d f3 92 1c 3d
       -0.022565803 0.031180283 0.060582537 0.03822608
000060 52 12 0e 3d d4 62 32 3d 96 f6 8d bc fb 22 8d 3d
       0.03468544 0.04355128 -0.017329495 0.068914376
000070 cd 51 2d bc fe 16 20 3d 6e 8a 88 bc df 1f 90 bc
       -0.010578585 0.039084427 -0.01666757 -0.017593322

np.user_emb.second_embedding_layer.weight f4 [16, 32]
000000 2c 20 bc bd e4 1c 7d bb e5 b9 dc bd 71 5e d3 3d
       -0.09185824 -0.0038621956 -0.10777644 0.10320748
000010 56 c0 e0 bd 5b e6 0c be 59 b5 a3 bd 5e bb 39 be
       -0.10974185 -0.13759749 -0.07993574 -0.18137881
000020 51 01 3c be cf 5f 42 bb ba 31 68 3d 04 0e c8 3d
       -0.18359877 -0.0029659157 0.056688048 0.09768298
000030 c2 38 82 bd 41 f0 a3 bd 46 fb 18 be 6b a3 f9 3d
       -0.06358482 -0.08004809 -0.14939603 0.12189373
000040 e9 07 a6 bd a2 d9 44 be b7 2d 07 3e be 92 c3 bd
       -0.081069775 -0.19223645 0.13201033 -0.09549473
000050 eb 16 dc 3b 05 15 df 3d 69 47 1f be 28 9d 19 3d
       0.006716599 0.10892681 -0.15554585 0.03750339
000060 be e2 0e 3e b4 2c 1a be 8f 1f 38 bc 26 17 b6 3d
       0.13953683 -0.15056115 -0.011237993 0.08891134
000070 65 5f 1a 3e 03 b6 3c be 0a ff eb 3d 70 32 12 bd
       0.15075453 -0.18428807 0.11523254 -0.035692632
000080 fd 37 58 3e 90 2a 14 be f7 db 85 bd 40 d4 89 3d
       0.21115108 -0.14469361 -0.065360956 0.067299366
000090 f4 e0 89 3d e3 b2 54 3d a8 b8 12 3e 2d d8 95 3d
       0.067323595 0.051928412 0.14328253 0.07316623
0000a0 fc 1f 67 bd d2 e5 23 3e 0d 7b 65 3e 77 04 41 3e
       -0.056426987 0.16005638 0.22410221 0.1884936
0000b0 16 b0 58 bd a3 53 82 3b f5 18 81 bd 95 07 50 3d
       -0.052902304 0.0039772554 -0.06303588 0.05078848
0000c0 23 65 5e 3e f6 b3 62 3d cc 0e ee 3b 0e ef 2a bd
       0.21718268 0.055347405 0.0072649475 -0.041731887
0000d0 e0 46 e7 bd 39 8a 89 bd 1c e9 11 3e 9d 67 b8 3d
       -0.11292815 -0.06715817 0.1424908 0.09004138
0000e0 ef e6 ae bd 38 d8 3a 3e 64 5e e5 b8 c4 6f 28 3e
       -0.08540141 0.18246543 -0.000109371525 0.16448885
0000f0 91 da ef bd 72 b5 5b 3d 12 2c a6 3d 3a 26 04 ba
       -0.1171161 0.053639837 0.081138745 -0.00050410966
000100 f7 15 11 be 36 8a 09 be 23 0a 3e 3e 27 d3 14 3c
       -0.14168535 -0.1343163 0.18558554 0.009083546
000110 87 58 16 3e ac 5a 12 3e e5 ec 0c 3e 34 cf 33 bd
       0.14682208 0.14292401 0.13762243 -0.043898776
000120 cf bc e8 bd 42 5d aa 3d 31 e3 0b 3e 6e 1b db bd
       -0.113641374 0.08318569 0.13660885 -0.10698591
000130 35 4e 0e 3e 56 73 8d 3c c8 64 0b 3e 16 69 28 3e
       0.13897021 0.01726691 0.13612664 0.16446337
000140 f4 a7 43 bd a1 21 d4 bc be b6 ca 3d 70 7d ad 3b
       -0.047767594 -0.025894942 0.098981366 0.0052944943
000150 5e 9a 12 be 1d ee be 3d 07 15 15 3e 66 91 47 bb
       -0.14316699 0.0932276 0.14558803 -0.0030451654
000160 52 3e 08 be 2b b9 19 3e 58 f0 38 bd 30 6a 1a bb
       -0.13305023 0.15012042 -0.045151085 -0.0023561828
000170 66 62 ae 3d 07 7a 31 3e cb 81 c9 3d 62 f9 b9 bd
       0.08514862 0.17331706 0.09839209 -0.09080769
000180 87 88 0a be 95 e7 de 3d a6 96 d4 bc 3b d8 6e 3d
       -0.13528644 0.108840145 -0.025950741 0.058311682
000190 be ba 8f bc 0d 03 b5 bd 82 85 5b bd 82 93 8f bd
       -0.0175451 -0.088384725 -0.05359412 -0.07010557
0001a0 f0 6e 08 be 7c f9 40 3c be 7c a1 3d 5a 8e 13 3e
       -0.1332357 0.011778232 0.07885121 0.14409772
0001b0 75 16 2b be f7 ed fc 3d de 90 8f 3d 30 95 b1 bd
       -0.16707785 0.12350076 0.07010053 -0.086710334
0001c0 82 b8 9c bd 83 e9 4c 3d cb 69 2e 3e 1a 9e 96 bd
       -0.076523796 0.05002738 0.17032544 -0.07354374
0001d0 1a 31 eb bd 4f 13 ab 3d 5f 51 21 be e1 56 fe 3c
       -0.11483975 0.08353292 -0.15753697 0.031047286
0001e0 ab 34 e1 bc 98 26 29 3e 45 40 a2 bd f1 16 5a 3d
       -0.027490934 0.16518629 -0.07922415 0.053244535
0001f0 b7 4a 0d be 4e 91 60 bd de e5 e5 bd f4 6e 34 bc
       -0.13798033 -0.054826073 -0.11225484 -0.011012781
000200 90 3a 9b bd ff 92 8a 3d 10 52 e4 3d 3e 33 b9 3d
       -0.07579529 0.067663185 0.11148465 0.09042977
000210 28 9f 91 bd 4c 78 d2 3c bf fa 8d bc d5 ce ef 3b
       -0.07110435 0.025692128 -0.01733148 0.0073183575
000220 45 b5 73 3c 48 6c da 3d b6 28 07 be 0a 9e c8 bd
       0.014874761 0.10665184 -0.13199124 -0.097957686
000230 80 3c 20 bc 7e 17 8c 3d 3c 88 cb 3d ed 41 0b be
       -0.009780049 0.06840418 0.09938094 -0.13599367
000240 ed f3 17 3e 41 ba f0 3c 77 7b 19 be f1 5a 03 3e
       0.14839144 0.029385688 -0.14988504 0.1282766
000250 ca b9 31 3d 08 54 60 3c f3 dd ef 3d 1f ad 00 bd
       0.043390073 0.01369191 0.11712255 -0.0314151
000260 53 48 3d 3d fc 2e d1 bd ea c3 13 3d 97 52 97 bd
       0.046211552 -0.1021404 0.03607551 -0.073888
000270 c1 60 a6 3c bd ff 96 3d c9 94 cb bd 2b d4 c1 3d
       0.020309808 0.07372997 -0.09940488 0.09464296
000280 ae e4 a9 3d 17 08 91 3d ed e6 6c bd 3f c8 45 bd
       0.0829557 0.07081621 -0.057837415 -0.048286673
000290 e6 da e9 3d 01 11 8b 3d 6a df 12 3e da 84 1c 3e
       0.11418705 0.067903526 0.14343038 0.15285054
0002a0 3a a0 87 bd 1c 99 4a bc d9 5f 27 3c 49 f6 1d 3e
       -0.06622358 -0.012365606 0.010215723 0.15425982
0002b0 49 8d 3a 3d e7 60 75 bd 98 b4 7d 3d 23 4e 4e 3d
       0.045544896 -0.059906866 0.061939806 0.050367486
0002c0 17 14 b6 bd 20 ba bc 3d e9 61 15 3e 19 c9 d4 3d
       -0.088905506 0.09215188 0.14588131 0.10389919
0002d0 17 07 12 3d 75 29 6c 3e 1e ac 64 bd d6 43 ae 3d
       0.035651293 0.2306269 -0.055828206 0.085090324
0002e0 c0 12 04 3e 91 1f ce 3d af ce b7 bd 81 67 33 3e
       0.12897778 0.100646146 -0.08974969 0.17519952
0002f0 57 3d fb 3d f9 3f 56 3d 46 d2 3e 3d d9 d6 f4 bd
       0.12267559 0.052307103 0.04658725 -0.119550414
000300 03 fb f0 bd 1c c2 08 3e 08 44 b0 bd b8 c3 f7 3d
       -0.11766627 0.13355297 -0.08606726 0.12097877
000310 28 79 c6 bc f0 35 0e 3e 0d 14 2c be e3 43 86 bd
       -0.024227694 0.13887763 -0.16804524 -0.06555917
000320 82 a0 e2 3d bd 6a 89 bd 93 b6 1a be eb 13 51 bc
       0.11065771 -0.06709812 -0.15108709 -0.0127610965
000330 e8 c5 5a 3d 82 78 76 3d a6 95 03 3e f3 d1 f3 3d
       0.053411394 0.06017352 0.12850055 0.11905279
000340 c8 03 41 3d 32 f9 0c 3e a7 7b a5 bb da 7a 15 3d
       0.047122747 0.13766935 -0.005050141 0.036494114
000350 c4 5d fb 3d 4e 89 10 3c 01 cc 30 3e bd 31 0b 3e
       0.12273744 0.0088217985 0.17265321 0.13593192
000360 c9 18 ef bd 79 15 09 be be c0 fa bb 06 02 19 be
       -0.11674649 -0.13387097 -0.007652371 -0.14942178
000370 93 b6 c4 3d 6e 18 10 3e b9 ea c0 bd 80 0d 21 3e
       0.09605136 0.14071819 -0.0941977 0.15727806
000380 18 fb 37 3d fa 70 af 3d ed 39 16 3e 7a 7e fc bd
       0.044917196 0.085664704 0.14670534 -0.12328811
000390 75 a2 fa bd d3 05 bf 3d 69 80 12 3b 28 2a 90 3c
       -0.122380175 0.09327283 0.002235437 0.017598227
0003a0 d1 54 29 3e 22 c3 66 3d a8 94 96 3d 4d 56 3c bd
       0.16536261 0.056338437 0.07352573 -0.04598074
0003b0 8e 61 1b 3e cb fb fd bd c4 f9 ae 3d 8c 44 0a be
       0.15173933 -0.12401541 0.08543733 -0.13502711
0003c0 e2 83 eb 3d 16 76 3b bd 5b e6 d4 3d 1f a9 f7 3d
       0.11499764 -0.045766912 0.10395499 0.12092804
0003d0 78 87 b7 3c 87 93 8e 3d 65 ec 39 bd 53 0b e9 3d
       0.022403464 0.06961732 -0.04539146 0.11379113
0003e0 9c 54 2b 3e 3c 75 bc bd 57 02 2e bd 54 b8 a9 3d
       0.16731495 -0.09202048 -0.0424827 0.08287111
0003f0 35 bf 9c bd e3 a4 9c bc ae 1e b0 bd 83 b0 ea bd
       -0.07653657 -0.019121593 -0.08599602 -0.11459448

np.user_emb.second_embedding_layer.bias f4 [16]
000000 bd 24 5f 3c 8b c6 91 3d 45 a1 41 3e 85 0f f7 bd
       0.013619599 0.07117947 0.18909176 -0.12063507
000010 56 74 1e be a1 c4 09 3e 8d 03 0c be 0c dc 1a 3e
       -0.15474066 0.13453914 -0.1367323 0.15123004
000020 1a d0 f9 3d 1a 76 17 be df 96 c7 bd a6 59 2b be
       0.12197895 -0.14791146 -0.09745573 -0.16733417
000030 20 57 2c 3e 86 04 5e 3e 38 81 02 be 06 11 bf 3d
       0.1683011 0.21681413 -0.12744606 0.09329419

np.xy_to_z.input_to_hidden.0.weight f4 [32, 33]
000000 ed 8f 9b bd 15 f6 19 3d 41 a5 80 bd 7b d4 8b bd
       -0.07595811 0.037588198 -0.0628152 -0.06827637
000010 d1 98 be bd 09 4c 49 3c 7d 7c f1 3d f3 a0 3e 3e
       -0.09306491 0.012286195 0.117913224 0.18616085
000020 43 2c 21 3d 5d ea a5 bd 23 56 37 3e 7e 54 c6 bc
       0.039348852 -0.08101342 0.17903952 -0.02421021
000030 28 2e 6b 3d 07 aa 8b 3d 80 74 21 bd 68 27 e1 3d
       0.057417065 0.068195395 -0.039417744 0.10993844
000040 7e 7d 1e 3e 7c cb 97 bc 96 ea 5f bd 0c 39 70 3d
       0.15477559 -0.018529646 -0.054667078 0.058648154
000050 e9 6a 1c 3d ef 55 80 bc e8 06 1d 3e 4b 7c 8e bd
       0.038187895 -0.015665976 0.15334666 -0.06957301
000060 60 d7 45 3e 67 23 29 bd 0b 95 52 bd be 86 0e bd
       0.1932044 -0.041293528 -0.05141167 -0.03479647
000070 e5 ea a4 3c 48 6c 44 bd d8 75 86 3d d7 4e ec bd
       0.020131538 -0.047954828 0.06565446 -0.11538475
000080 75 52 2a 3e 9d 70 2a be a6 99 12 be 42 33 2e be
       0.16633017 -0.16644521 -0.14316425 -0.17011741
000090 b6 f4 aa 3d c1 9d 4d bd 1b 80 c1 bd 1c bd ab 3d
       0.08347456 -0.050199274 -0.09448262 0.08385679
0000a0 a9 ce 80 bb ea 87 8d 3d ce c4 fe 3b 03 f7 99 3c
       -0.003930886 0.06910689 0.007774926 0.018794542
0000b0 af 59 2a 3e cf 6a 97 bd 11 04 2f 3e 0a c7 d3 3d
       0.16635774 -0.07393419 0.17091395 0.10340698
0000c0 0d ff af 3d f1 72 28 be 0e 51 dc bd 3b b8 31 be
       0.08593569 -0.16450097 -0.107576475 -0.17355435
0000d0 5a 85 0f 3c 5f 9e 82 bd 5e 8e 0d be 7c f1 0a be
       0.008759821 -0.06377863 -0.1382384 -0.13568681
0000e0 46 c0 ba 3d 7a 86 2b be 14 22 b9 bc 97 76 c7 3c
       0.091187045 -0.16750517 -0.022599258 0.02434854
0000f0 4a 50 e3 3d 5c e4 26 3e 23 d5 f3 bd 52 17 3d 3d
       0.11099298 0.1629805 -0.11905887 0.046164818
000100 df 2d 20 3e 23 9a 0c be b4 a2 0e 3c 31 05 dd bd
       0.15642498 -0.13730673 0.008705784 -0.10792006
000110 3e 0d ad 3d c8 7b d9 3d be 56 5f bd e6 82 bd bd
       0.08449791 0.106193125 -0.054526083 -0.092534825
000120 5e bb d1 bd 45 7f 94 3d 18 82 ba 3b 7b da 9f 3d
       -0.102408156 0.07250837 0.005691778 0.07805344
000130 77 23 a0 bd b2 1f a5 bd d5 04 5b be 81 be 1a bd
       -0.078192644 -0.08062686 -0.21388562 -0.037779335
000140 b5 51 0f 3e b4 0c 48 bd e1 7f de 3c 28 00 1a 3b
       0.13996013 -0.04884024 0.027160587 0.0023498628
000150 f9 34 49 bd f4 42 79 bc 70 c0 7f bc c6 63 fe 3d
       -0.049122784 -0.015213717 -0.0156098455 0.12421374
000160 13 0b 30 3d 4b 73 8a bd e4 d2 45 be 08 dd ac bd
       0.04297931 -0.06760272 -0.1931873 -0.08440596
000170 87 9c 1c be f1 1b 22 bc a1 f8 ca bb 2f 1e 0a bd
       -0.15294085 -0.009894357 -0.0061941897 -0.03372019
000180 71 2f 24 3d 61 3c 60 bd 01 19 0f bd 09 ab 23 be
       0.040084306 -0.05474508 -0.034935955 -0.15983213
000190 c1 07 ea bd a5 a8 cd bd 99 29 cc 3c 76 f5 08 bd
       -0.1142726 -0.10041932 0.024922179 -0.033437215
0001a0 f6 a5 0b 3e 5a 00 cb 3d 27 ce fe bd ee 90 c2 bd
       0.13637528 0.099121764 -0.12441664 -0.095002994
0001b0 8e c8 e2 3d ab 0e 0d be 80 b9 04 bd ba 26 19 3e
       0.11073409 -0.13775127 -0.03240347 0.1495618
0001c0 ca 0f 44 bd d5 03 30 be ce a1 dc 3d 2b 4d 07 3d
       -0.04786662 -0.17188962 0.10773049 0.033032577
0001d0 98 63 1e be fd 24 19 3e 5b 8d a3 bd fd d8 0c bd
       -0.1546768 0.14955516 -0.07985946 -0.034386624
0001e0 cb b8 e0 3c 42 b9 54 bd 85 fb 15 3e 86 ce b1 ba
       0.027431866 -0.051934488 0.14646728 -0.0013565577
0001f0 f2 9d cb 3c b1 2d f1 bd a8 5b 0c 3e c3 2a 1a be
       0.024855588 -0.11776293 0.13706839 -0.15055375
000200 0d 24 bd 3c e0 04 fa bc 39 47 9f 3d ac 85 56 bd
       0.02308848 -0.030519903 0.077772565 -0.052373573
000210 43 79 04 3e 2f 67 37 bd ce 64 c8 3d 6c 61 2e be
       0.12936883 -0.044776138 0.09784852 -0.17029351
000220 25 bc e0 3c 26 dd 0b 3e d8 53 30 3e 69 59 6b 3d
       0.027433464 0.1365858 0.17219484 0.057458315
000230 22 da 18 be eb 44 af bd cc 1d 0b 3e 50 1e 12 3e
       -0.14926961 -0.08558067 0.13585585 0.14269376
000240 27 b5 cf 3c 1c 9c df 3d b2 cf e0 3d 57 62 50 bd
       0.025354935 0.109184474 0.10977115 -0.050875034
000250 a1 b2 7b 3d 9a 70 3e 3d 6b 97 77 bb 13 4a 50 bd
       0.06144965 0.046494104 -0.003777946 -0.050851893
000260 7c b2 06 be c3 81 2c be e4 6d d7 bb e5 ee 27 be
       -0.13154024 -0.16846375 -0.0065743793 -0.16399725
000270 42 69 df 3c 77 b2 7e bd f3 ff e4 3d e5 33 16 3e
       0.02727187 -0.062181916 0.11181631 0.14668234
000280 9f e1 83 bd 90 3a 75 bd 96 07 05 3e 51 d7 39 bd
       -0.06439518 -0.059870303 0.12991175 -0.045371357
000290 ae 93 b0 bd ec 82 0a be 65 da 46 3e fd 1a 07 3e
       -0.08621918 -0.13526505 0.19419248 0.13193889
0002a0 be a7 0a bd 3d 9d c8 3d fc 76 b9 3d f3 c9 a1 3d
       -0.033851378 0.09795616 0.090558976 0.07899847
0002b0 e3 1f 7f bd 2e 74 d6 bc a0 0c 95 3d 74 6e 9b 3c
       -0.06228627 -0.026178446 0.07277799 0.018973567
0002c0 0a 2d 2d 3e 4b 8b a4 bd d6 66 2f be 0d 8c 5f bd
       0.16911712 -0.080343805 -0.17129073 -0.054576922
0002d0 ab 99 5d 3b 2c 02 b1 bd 28 ea 1e 3e a4 92 36 bd
       0.0033813517 -0.086429924 0.15519011 -0.04457344
0002e0 09 59 c1 3d 4c 91 e6 bc 89 6a 80 bd 51 d0 9e 3c
       0.0944081 -0.028145455 -0.0627032 0.019386442
0002f0 ff ad 52 3e 2b 35 1b 3e 52 3b 31 be 63 fd b6 bd
       0.20574187 0.15157 -0.17307785 -0.089350484
000300 31 52 ff bd 03 f5 af bc f5 2d ff 3d 25 62 02 be
       -0.12466849 -0.021479135 0.124599375 -0.12732752
000310 c0 ad 04 3d 42 90 1a 3e 31 c1 cb bc 13 7a 36 bd
       0.032392263 0.15094092 -0.024872394 -0.044550013
000320 af 9a 82 3d 75 b9 e7 bd 73 a0 02 be 85 a3 99 3d
       0.0637716 -0.1131467 -0.12756519 0.07501892
000330 59 17 70 3e a4 24 57 bc 4c 5c 0e 3e ba c2 00 be
       0.23446406 -0.013131294 0.13902396 -0.12574282
000340 07 84 87 3d 8c da 55 3e 9b 49 2a 3d 5d 5a af 3c
       0.06616979 0.2088415 0.041574102 0.021405393
000350 28 dc a3 bd 2a 5d 83 bd 9b 99 24 be 2c 00 0c bb
       -0.08000976 -0.06414254 -0.16074221 -0.0021362407
000360 4d 8d b5 bd 11 8d 88 bd 9a 48 25 3d 0d 2a 05 bd
       -0.088648416 -0.06667531 0.04035244 -0.032510806
000370 c9 6f e9 bd e4 58 26 3c 4d 52 38 3d 9d 3c 2b be
       -0.113982745 0.010153029 0.045000363 -0.16722341
000380 70 69 52 bd 36 fb fc 3d 7f 38 2d bd 17 42 ae 3d
       -0.051370084 0.12352602 -0.042290207 0.085086994
000390 60 a3 1e be 7a 38 b0 bd 3c 7b 12 3e b6 35 a8 bd
       -0.1549201 -0.08604522 0.14304823 -0.082133695
0003a0 72 4b b1 3d ec 53 0c 3e d1 b6 1a be 14 95 a3 bc
       0.08656968 0.13703889 -0.15108801 -0.019968547
0003b0 fe a9 c1 bd a8 5e b8 bd 35 ee d7 bc 72 d0 d3 3c
       -0.094562516 -0.09002429 -0.026358703 0.02585623
0003c0 8a 56 bc bd 31 21 a7 bc 9d f3 b9 3c cf 60 93 3d
       -0.091961935 -0.02040157 0.022699172 0.07196199
0003d0 74 90 f7 bc 86 13 11 3e 8c ae 75 3d 8b 43 bc bd
       -0.030220248 0.14167604 0.059980914 -0.0919257
0003e0 bb fd 8e 3d 20 09 58 3e d2 b4 19 be 33 bf 54 bd
       0.06981989 0.21097231 -0.15010384 -0.051940154
0003f0 c3 f6 4b 3e 4a cd 0f bd 45 bf c3 bd b6 88 0a bc
       0.19918351 -0.03510789 -0.09557966 -0.008455446

np.xy_to_z.input_to_hidden.0.bias f4 [32]
000000 e1 d7 4e 3e 00 50 26 bc 74 82 f7 3d 64 b2 0d be
       0.20199539 -0.010150909 0.12085429 -0.13837582
000010 42 75 25 be 9f 3d 48 3e be 3b 06 3e 92 ed 4b 3e
       -0.16158012 0.19554757 0.13108727 0.19914845
000020 0c 11 ef bd db 1d bf 3d 3e 18 07 3d 54 4e cf bc
       -0.11673173 0.09331866 0.032982104 -0.025305904
000030 fa ff 2d be 8b 18 7d 3c 6e ff 86 bd 79 2b c4 3d
       -0.16992179 0.015447746 -0.06591688 0.09578604
000040 0d 9b b4 3d 46 0b ff bd 23 33 a2 bd 7a 5e 8b 3d
       0.08818636 -0.12453322 -0.0791991 0.06805129
000050 bf 03 c4 bd f8 f4 d6 3d 0c 9d 00 bd c8 e9 4b 3e
       -0.09571027 0.10495943 -0.03139977 0.19913399
000060 ad 20 04 bd 8e d6 fd 39 3a 3e 84 bc 0d b6 1a be
       -0.032257725 0.00048415776 -0.016142953 -0.1510851
000070 4c 5d 9f bd 7d 87 b9 bd d9 11 5d bd bf ed aa 3d
       -0.07781467 -0.090590455 -0.0539721 0.08346128

np.xy_to_z.input_to_hidden.3.weight f4 [16, 32]
000000 d7 97 af bd f8 3b 2d be e7 81 ae 3c a8 7f a4 bd
       -0.08573883 -0.16917408 0.021302177 -0.08032161
000010 12 47 a1 bd ac 78 78 3c a6 24 0d 3e 8f b8 1a 3e
       -0.07874884 0.015165489 0.13783512 0.15109466
000020 56 83 c5 bd 2c 48 07 3e fc a3 14 be 62 8f 3e bd
       -0.09644191 0.13211125 -0.1451568 -0.04652346
000030 ec 44 52 bd 84 65 e9 bd c5 79 21 3d df 4f b7 3d
       -0.05133526 -0.11396316 0.03942277 0.08950781
000040 8d 73 32 be e3 d9 72 bc 4a cb cd 3d c0 43 0b 3e
       -0.17426892 -0.014822456 0.1004854 0.13600063
000050 dc 95 ee 3d 5c 16 89 bd 83 e8 77 bc 8e 85 ce bd
       0.11649677 -0.06693718 -0.015131119 -0.10084067
000060 77 1e 9f 3d 2c 7d 30 be 3a 74 90 bd 43 51 f2 bd
       0.077694826 -0.1723525 -0.070534185 -0.11831906
000070 d5 66 b2 3d 3c b1 1b be e7 97 55 bd da 5c 0f 3e
       0.0871102 -0.15204328 -0.05214682 0.14000264
000080 25 ea 29 3e 86 f3 16 3e 97 0d bc bd 0e 46 4d 3d
       0.16593225 0.14741334 -0.091822796 0.050115637
000090 c7 b7 fd bc e7 63 bf 3d 9c f5 e4 bd 1a 90 c2 3d
       -0.03097142 0.09345227 -0.11179659 0.095001414
0000a0 1d 05 08 3e 4e bd ff bb 90 5e a4 bd da e6 16 3e
       0.132832 -0.0078045493 -0.08025849 0.147365
0000b0 b3 2e 1e 3d 8d 17 3d 3e d6 ff 98 bd 90 e3 10 3d
       0.038618755 0.18466015 -0.07470672 0.03537327
0000c0 be 3b 99 3d 1e b8 52 bd 72 dc c2 3c 0a ed f7 3d
       0.07482098 -0.05144512 0.023786757 0.121057585
0000d0 fa 5c 88 3d 8e 0e 3f bc dc fc ce bd 11 cd 42 3c
       0.06658359 -0.011661185 -0.10106823 0.011889712
0000e0 8f 8b 04 be 65 1d 25 3e 86 9c d0 3d 42 f0 29 bd
       -0.12943862 0.16124494 0.101861045 -0.041488893
0000f0 9e 62 a9 ba 2c 79 1e be ba 57 a3 bd 25 c4 d1 bd
       -0.0012923067 -0.15475911 -0.07975717 -0.1024249
000100 dd 24 c5 3b 87 6f 9f bd 9e f6 3d 3e a7 4e 17 3e
       0.0060163573 -0.07784944 0.18551108 0.14776097
000110 52 63 1d 3e fc 37 86 bd 18 c1 0e 3e 61 d4 e5 3d
       0.15369919 -0.06553647 0.13940847 0.11222149
000120 6f a3 52 bd 77 81 e7 bd bd 1b 93 bd ad c7 32 3e
       -0.051425394 -0.1130399 -0.07183025 0.17458983
000130 f0 3e de bd 1e 3a 29 3c 25 89 6a 3b 63 25 53 3e
       -0.10851848 0.010328798 0.003578731 0.2061973
000140 fc 87 27 3e 41 7b c4 bd 80 9d f6 3d 76 46 f6 3d
       0.16360468 -0.09593821 0.120417595 0.12025158
000150 4c 1a 13 bc ab d9 67 3d bc bd 19 3e 21 e9 f2 3d
       -0.008978438 0.05660407 0.15013784 0.11860872
000160 ee ba 4b bd e6 b6 94 3d ea a1 14 3e 73 dc 3c bd
       -0.049738817 0.072614476 0.1451489 -0.046108674
000170 2a 86 9b 3d d3 e8 c8 ba c9 98 1c bc 3c dc 24 3e
       0.07593949 -0.0015328176 -0.009557911 0.16099638
000180 93 bd f2 3d e3 af 26 be 42 f6 45 be 81 74 cf 3d
       0.11852565 -0.16278033 -0.19332221 0.10129643
000190 36 c5 12 be df 40 9c bd ae 32 1c be b5 1d 34 3d
       -0.14333043 -0.07629561 -0.15253708 0.043973643
0001a0 82 75 23 3e 9d 1f 54 3c fd da c4 bc 52 bc 1b 3e
       0.15962794 0.01294699 -0.024030203 0.15208557
0001b0 a2 c1 d3 bc 89 b6 25 be 35 43 d9 bc d0 cf f7 3d
       -0.025849167 -0.16182913 -0.026521305 0.12100184
0001c0 f3 9f ef 3d 4f 5d 06 be 0b ee 87 3d 00 cb 18 3d
       0.1170043 -0.13121532 0.066372 0.03730297
0001d0 d6 ba f7 bd d5 ff 32 bb de ed c3 3d f3 65 45 be
       -0.12096183 -0.0027313132 0.09566854 -0.19277172
0001e0 28 28 40 b9 9c bb bf 3d a1 70 2b 3e 9a 7d 24 3e
       -0.00018325506 0.093619555 0.16742183 0.16063538
0001f0 fb d0 a7 3d e8 59 cb ba 01 26 40 be 85 7c 1c be
       0.08194157 -0.0015514465 -0.18764497 -0.15281875
000200 8d ae 53 bd 3a 45 02 be a4 5c ba bd 9c 97 3d 3d
       -0.051680136 -0.1272172 -0.09099701 0.046287164
000210 b4 be f7 3c 08 a8 45 3e b8 e7 df 3d 72 9b 93 bd
       0.030242302 0.1930238 0.10932869 -0.07207383
000220 c6 e6 91 bd c0 a7 7f bd 63 1c ed 3c 71 c4 ff bd
       -0.07124095 -0.06241584 0.0289442 -0.1248864
000230 95 b1 07 3e 1b 7f 8b 3d ac 2c 31 3e 9b ad 72 bd
       0.13251336 0.06811353 0.17302197 -0.059247594
000240 4a 9d b5 3d c6 69 0d bd a8 75 af 3c 23 d3 c7 3d
       0.08867891 -0.0345247 0.021418408 0.09757068
000250 80 39 34 be 23 ef 4d 3e ee e3 fd bd 32 6c 3f 3e
       -0.1760006 0.20110755 -0.1239699 0.18693617
000260 fd 89 b9 bd c7 fd 02 3d 35 74 87 bd 0f ff 19 bc
       -0.09059522 0.031980302 -0.066139616 -0.00939919
000270 14 4c 14 be d1 58 d9 38 bd e9 82 bc d9 86 6a 3e
       -0.14482147 0.0001036391 -0.015980596 0.22903003
000280 e2 e5 2f b9 41 29 07 be 66 c7 27 bd 4f af f2 3d
       -0.00016774939 -0.13199331 -0.040961646 0.11849844
000290 b2 a3 a8 3a ad 37 16 3e 30 b0 13 be f9 93 40 be
       0.0012866168 0.14669676 -0.14422679 -0.18806447
0002a0 3d d5 27 3e d8 b4 f0 3d 8a af 36 ba 83 04 7c bc
       0.16389938 0.11753243 -0.00069689064 -0.015381935
0002b0 04 47 ab 3d fd 69 12 be c0 3b c4 3d 35 b1 ec bd
       0.083631545 -0.14298244 0.09581709 -0.11557237
0002c0 07 b5 a6 bd f0 66 8b 3d ef cb c9 3d f8 41 1d 3d
       -0.08139997 0.06806743 0.0985335 0.03839299
0002d0 f8 b8 8c bb 8b b1 13 be 08 22 ac bd a3 8f 88 bd
       -0.004294511 -0.14423196 -0.084049284 -0.066680215
0002e0 ad 35 92 bd bd 6f b9 bd 5e f9 cf bd c9 1b dd 3d
       -0.07139144 -0.090545155 -0.10154985 0.10796315
0002f0 57 1a f2 bd 7f 13 10 3e 72 cf f7 bd 7a 98 c2 3d
       -0.1182143 0.14069937 -0.12100114 0.09501739
000300 ef 0a f4 ba 6e 4e 11 be c8 08 cb bd d9 fc 29 3e
       -0.0018618981 -0.14190075 -0.09913784 0.1660036
000310 40 b6 47 3d 69 09 a4 3b 1d aa 16 3e 7c 46 da ba
       0.04875779 0.0050060046 0.1471333 -0.0016653086
000320 df bb 63 3d e4 57 c4 3d 32 86 df 3d 39 26 a5 bd
       0.05559909 0.09587076 0.109142676 -0.08063931
000330 7d 05 ee 3d b4 cb cc 3c 80 be cc 3d 27 22 06 bd
       0.116221406 0.024999477 0.099972725 -0.032747414
000340 37 1c 79 bd fd 15 26 be 45 28 ca 3d 94 23 bc 3d
       -0.060817923 -0.16219325 0.09870962 0.091864735
000350 da fd b5 ba 11 37 f9 bd 00 de 06 be 12 69 81 3d
       -0.0013884858 -0.12168706 -0.13170624 0.06318869
000360 54 58 cb 3b 2e b3 ce 3c ee ba 13 3e 83 44 8f 3d
       0.006205598 0.025231924 0.14426777 0.069954894
000370 d0 97 a7 3d 1c 7a 2c 3e 10 44 91 3d e5 f7 fc 3d
       0.08183253 0.16843456 0.0709306 0.1235197
000380 13 70 0a be 6c 04 09 3e 7f 3f be bb 15 ea bc 3d
       -0.13519315 0.13380593 -0.005805909 0.09224335
000390 75 31 32 be 9c 5c 03 be c8 40 48 bd e3 5d 4b 3b
       -0.17401679 -0.12828296 -0.048889905 0.0031031303
0003a0 0b 54 d1 3d 41 96 07 bd f1 80 09 be 23 1b e7 3c
       0.10221108 -0.033102278 -0.13428093 0.028211182
0003b0 4a be 23 3e d7 db 29 bc 49 d9 56 bd f3 f9 50 3d
       0.15990558 -0.010367355 -0.052453313 0.05101962
0003c0 57 bb dd 3d 4b a5 90 bd 6a 85 71 bc 11 42 28 be
       0.10826748 -0.07062777 -0.014741281 -0.16431452
0003d0 1e f4 6e bd 69 03 08 3d a9 4d 7a bc 9e ab 21 3e
       -0.058338277 0.033206377 -0.015277305 0.15788123
0003e0 26 17 61 bd 4b 14 2a be c8 95 ac bd 86 f1 aa 3d
       -0.054953717 -0.16609304 -0.08427006 0.08346848
0003f0 be ed 07 bd 34 3e 0f be 50 37 16 be f9 55 50 3d
       -0.033185713 -0.13988572 -0.14669538 0.05086324

np.xy_to_z.input_to_hidden.3.bias f4 [16]
000000 69 46 d1 bd 36 20 0e 3e 94 fa 12 3e c5 83 88 3d
       -0.10218508 0.13879475 0.143534 0.06665758
000010 21 df 74 3e 22 1c 73 3d 6d 29 da bc 88 9b bd 3c
       0.23913242 0.059353 -0.026631081 0.023145452
000020 4f bb 5e 3c 9d 92 7f bd a8 cd af 3a d5 28 6d 3a
       0.013594463 -0.06239568 0.0013412731 0.0009046917
000030 de 99 2a 3e fa 27 64 3c 30 e5 53 3e 84 b1 78 3e
       0.16660258 0.013925547 0.20692897 0.24286467
