TaNP/save_model_dir/lastfm_20/film_1741709918/model_last_epoch.pt (torch, 809392 bytes, 40 tensors)

np.item_emb.first_embedding_layer.weight f4 [32, 3846]
000000 dc be 6c 3d c1 dc 01 3d a9 b3 3a 3b 1f ea 96 3c
       0.057799205 0.031704668 0.0028488433 0.018422185
000010 6c ce af 3d df 95 88 3c a3 de 43 3d b6 c9 95 3d
       0.08584294 0.016673027 0.047819745 0.07313864
000020 5f c9 6b 3d 2b 96 66 bc 67 28 2a 3d e9 3b 20 3c
       0.05756509 -0.014073889 0.041542437 0.009779909
000030 27 c3 a2 3d b0 cd a8 3d e5 4d 77 3d 0a 00 ac 3d
       0.079473786 0.08242357 0.06037702 0.08398445
000040 0d 07 4f 3d ce a8 62 bc 75 e7 e0 3b 15 cc ac 3d
       0.050543834 -0.0138341915 0.0068635293 0.08437363
000050 44 d2 bd 3c f4 bb 5e 3d 9b 8a c1 3d e8 d1 57 3c
       0.023171552 0.054378465 0.09450265 0.013172604
000060 57 e4 ad 3d f2 05 01 3d 2d ac 64 3c fd 56 99 3c
       0.08490818 0.03149981 0.0139570655 0.018718237
000070 b6 15 d8 bc 1e 1b 88 bc 86 2a c2 3c 91 5b 85 bb
       -0.02637754 -0.016614493 0.023701917 -0.0040697535
000080 55 e0 8e 3d cc 51 19 bd b7 6c c2 3d 5f 63 76 3d
       0.06976382 -0.037431523 0.09493392 0.06015336
000090 d6 b9 c6 3d 01 53 a0 3d a3 b5 a0 3d e6 f3 2d 3d
       0.09703414 0.07828332 0.078471445 0.042468928
0000a0 0a 1f fe 3c 93 41 c9 3d a6 81 70 3d d7 02 65 3d
       0.03102066 0.098269604 0.058717392 0.05591091
0000b0 32 b9 4d 3d d3 54 8a 3d 32 ec ce 3d 6d a2 b1 3d
       0.050225444 0.0675446 0.101036444 0.086735584
0000c0 9a 08 c0 3d 0d 97 ad 3b 8d 6f 15 3d b2 e2 3b 3d
       0.093766406 0.0052975477 0.036483336 0.04587049
0000d0 67 d1 c7 3d 6d e8 89 3d 19 80 c3 3d 18 72 70 3d
       0.09756737 0.06733785 0.09545917 0.05870256
0000e0 45 20 c9 3d 42 3f a9 3d 87 8b 42 3d f6 57 f3 bc
       0.09820608 0.082640186 0.047496345 -0.029705029
0000f0 25 1e 66 3d ea 8a b6 3d 39 62 8e 3d 34 f3 8b bc
       0.05618109 0.089132145 0.06952328 -0.017083742
000100 c8 7b 5d 3d 8f e6 33 bc af fa 97 3d ed fb 6f 3d
       0.054073125 -0.010980262 0.07420861 0.058589865
000110 5b 27 50 bc 2e 68 f2 bb 08 66 89 3d e4 dd 63 bc
       -0.012704696 -0.007397673 0.06708914 -0.013907883
000120 3a 44 8a 3d 59 36 9a 3d 6a 4d 80 3d 26 ce a5 3d
       0.067512944 0.07529897 0.062647656 0.0809596
000130 77 50 b3 bc 82 34 95 3d 06 6f 4f 3d cc 34 a6 3d
       -0.021888955 0.07285406 0.05064299 0.08115539
000140 64 d5 92 3d 03 72 af 3d 4a f0 32 bc 88 ae 25 bc
       0.07169607 0.08566668 -0.010921547 -0.010112412
000150 59 83 91 bc 28 71 87 bc 5b 63 ce bc c7 25 a2 3d
       -0.017762827 -0.01653345 -0.02519386 0.07917362
000160 cc 0f 48 3d a7 86 d7 bc c4 0f 8c 3d dd 17 ce 3d
       0.04884319 -0.026309324 0.068389446 0.10063145
000170 ad 99 11 bd f1 d0 9f 3c cf ef dc bc 73 24 90 bb
       -0.035546947 0.01950881 -0.026969818 -0.0043988763
000180 d2 c7 84 3d ae 8a 15 bd 5e 2e c3 3d 7f 78 4e 3d
       0.06483425 -0.03650921 0.09530328 0.050407883
000190 88 fa 90 3d a4 2d 87 3c 3e 38 c8 3d bd 69 50 3c
       0.07079035 0.016501255 0.09776352 0.0127205225
0001a0 a6 5b 96 3d 07 75 a4 3d 9b 96 9c 3d 0b 31 85 3d
       0.07341699 0.08030134 0.07645913 0.06503495
0001b0 7a c2 ff b9 c1 65 a7 3d 5f 97 7e 3d 07 75 c5 3d
       -0.00048782286 0.08173705 0.062156077 0.09641462
0001c0 b9 a8 7e 3d 07 30 85 3b e1 c1 8c 3c 0a 31 a6 3d
       0.062172625 0.004064563 0.017182292 0.08114822
0001d0 4e c2 c0 3c f9 dd 9c 3d c6 28 95 3d d4 b4 18 3d
       0.023530152 0.076595254 0.072831675 0.037281826
0001e0 93 73 11 bd 3b 86 8d bc 5e d4 85 bc c5 46 62 bc
       -0.03551061 -0.01727592 -0.016336616 -0.013810818
0001f0 64 f6 69 3d 9c 24 3f 3c 43 7c 60 3d 2c 22 87 3d
       0.057119742 0.011666443 0.054806005 0.06598315
000200 30 93 ad 3d 38 67 1f 3d 4d 30 8d 3d d4 6e a3 3d
       0.084753394 0.038916796 0.06893978 0.07980123
000210 a1 4a af 3d 4a b0 44 3d 02 b0 85 3d 7c ae 89 3d
       0.08559156 0.048019685 0.065277115 0.067227334
000220 21 20 b2 3d ac fc ae 3d ff ee 02 3d 09 75 bd 3b
       0.08697534 0.08544287 0.031966206 0.005781774
000230 51 6b 05 3d 6c 47 a7 3d b7 3a 07 3d 45 a6 9f 3d
       0.032573048 0.081679195 0.03301498 0.07795385
000240 53 cf fe 3c b2 4f 0a 3d d4 d8 6b 3d 0a b4 2d 3d
       0.03110472 0.03376741 0.05757983 0.042408027
000250 e2 29 b3 3b 6b 08 69 3d 71 13 72 3b ac 6d 36 3d
       0.0054676393 0.056892794 0.0036937858 0.044538185
000260 15 de 0d 3d e3 31 76 3c 78 2e cd 3d 5b 08 9a 3d
       0.034635622 0.015026542 0.10018629 0.07521125
000270 a7 71 a9 3d 3d 8f b7 3d cc b8 91 3d 18 9c c6 3d
       0.082736306 0.089628674 0.07115325 0.09697741
000280 1f 2a 8f 3d 74 b0 62 3d ff 95 76 bb 7f 9b 64 3d
       0.06990456 0.05534406 -0.0037626026 0.055812355
000290 60 01 88 3d 84 6e ce 3d b9 5b 32 bd 19 14 3d 3d
       0.06640887 0.10079673 -0.043544505 0.046161745
0002a0 65 a3 04 bd d5 3c 41 3c f4 e4 8a bc 33 c3 53 3d
       -0.032382388 0.011794289 -0.016954876 0.05169983
0002b0 06 68 12 bd b5 15 23 bd 50 ef 30 bd e1 10 06 b9
       -0.035743736 -0.039815623 -0.043196976 -0.00012785524
0002c0 d6 2f 08 bc db cc 3e 3c c4 59 10 bd 60 3d 24 bd
       -0.008312186 0.011645521 -0.035241857 -0.040097594
0002d0 97 3e 7a 3b 52 5c b4 bb e5 f5 05 bc 04 91 48 3d
       0.003818428 -0.0055041695 -0.008176302 0.048966423
0002e0 76 fc a5 3d 39 cc c1 3d 44 71 52 bc 0b 37 c9 3d
       0.08104794 0.094627805 -0.012844387 0.09824952
0002f0 9a 02 cf 3b f9 11 cb bc a5 a5 c9 3d b9 64 2f 3d
       0.006317449 -0.024788843 0.09846047 0.042820666
000300 1d 23 b9 3d 89 cc 6f bc 1a a6 17 3c a6 7f 92 3c
       0.090399005 -0.014636167 0.00925591 0.017883133
000310 10 4c 8b 3d 1a 26 af 3d e7 a0 43 3d 8f 5e 36 3d
       0.06801617 0.08552189 0.04776087 0.04452377
000320 cb 54 a7 3d a9 80 09 bd 0a 2e fd 3c 14 6c 73 3d
       0.0817047 -0.033569966 0.030905742 0.059429243
000330 8d 1d 61 bc 50 95 6a 3c ad cb 9e 3d 4d bd 19 bd
       -0.013739956 0.014317825 0.07753692 -0.037534047
000340 22 63 82 3d 74 db a1 3d eb ef a0 3d de 47 69 3d
       0.06366564 0.079031855 0.07858261 0.056953304
000350 4b 8a 78 3d 73 a4 54 3b f0 82 6a 3c a0 9c b2 bb
       0.06067876 0.0032446652 0.0143134445 -0.0054508
000360 c4 c5 3b 3d 56 eb b4 3d 2f 05 d3 3c 86 ab 48 3c
       0.0458429 0.08833949 0.025759308 0.012247926
000370 d6 de e2 3c 14 00 ab 3d fc dd 42 3d fe f2 62 3d
       0.027694147 0.08349624 0.047574982 0.055407517
000380 7d 43 a7 3d 65 ae fd bc ba 7e b9 3c 3c 01 9b 3d
       0.08167169 -0.030966947 0.022643436 0.07568595
000390 a9 ae 4e 3d cc 85 18 bc 41 9d 19 3d 16 07 d6 3c
       0.050459538 -0.009309243 0.037503485 0.026126426
0003a0 ed 11 4c 3d a1 11 a6 3d 60 fa 57 3c 9c 66 bb 3d
       0.049821783 0.08108831 0.013182253 0.091504306
0003b0 4a b2 19 3d 77 fd 76 3d 31 c9 87 3d 16 8e 72 3d
       0.037523545 0.060300317 0.06630171 0.059217535
0003c0 bd 42 b4 bc 0b f5 e0 bc 65 e4 b1 3d d2 28 8c 3c
       -0.02200448 -0.027460596 0.08686141 0.017109308
0003d0 72 88 36 bc 89 d8 6f 3d 8a 17 78 bb 69 3a ed 3b
       -0.01114093 0.058556113 -0.0037855827 0.007239629
0003e0 ed c6 cb bc 97 da 57 bc 67 56 39 3d 95 4f 05 bc
       -0.024875129 -0.0131746745 0.045248415 -0.00813665
0003f0 1c d2 a7 3d eb 5a a4 3d 55 1a 51 3d a3 f1 b7 3d
       0.08194372 0.08025154 0.051050503 0.089816354

np.item_emb.first_embedding_layer.bias f4 [32]
000000 90 41 71 3d 82 5b 65 3d 5d 65 a8 3d ff 6b 22 3d
       0.058900416 0.05599547 0.082224585 0.039653774
000010 e5 bd 79 3d 80 67 8d 3d 91 f3 5a 3d 5d cc 7a 3d
       0.060972113 0.06904507 0.05345494 0.061230052
000020 69 22 52 3d 73 ab 81 3d f7 9c 65 3d 6a 88 94 3d
       0.051302347 0.063315295 0.056057896 0.072525814
000030 ea 98 4e 3d 93 2f 98 3d d3 c5 71 3d d8 2f 5c bc
       0.0504388 0.07430949 0.05902655 -0.013439141
000040 7b 2c 9e 3d 18 7e 6e 3d 44 ba 6d 3d 3d e7 42 3d
       0.07723328 0.05822572 0.058038965 0.047583807
000050 85 90 6b 3d 21 f7 71 3d 76 8c 40 bc d7 b8 69 3d
       0.05751087 0.05907357 -0.0117522385 0.057061043
000060 78 9c 4f 3d 4d eb fc bb 50 13 44 3d e8 d6 31 3d
       0.05068633 -0.0077184797 0.04786998 0.04341784
000070 d3 65 84 3d a6 81 68 3d f2 ed 5a 3d 46 ad 84 3d
       0.06464734 0.056764267 0.05344958 0.06478362

np.item_emb.second_embedding_layer.weight f4 [16, 32]
000000 74 d7 c6 38 e9 c0 80 3d be 25 08 bb a1 80 f2 bd
       9.481507e-05 0.06286795 -0.002077445 -0.1184094
000010 98 79 6a 3d aa 11 0c bd 0f 59 38 3e da 74 94 bd
       0.057244867 -0.034196533 0.18002723 -0.0724885
000020 f2 7a 23 3d 50 f6 b6 3d b5 da cf 3d 43 93 7c 3b
       0.03991217 0.08933699 0.10149137 0.0038539923
000030 ac fb 8f 3d e1 9e 09 3d 1f 92 c0 3d 88 bf c5 3d
       0.070304245 0.033598784 0.094028704 0.09655672
000040 c5 b9 94 3d ca 1d 95 3d 14 a6 a3 3d 69 50 ac 3d
       0.07261995 0.072810724 0.07990661 0.084137745
000050 eb 22 9f 3d 1b 78 e4 bd 06 30 e6 3c 73 24 c5 bc
       0.07770332 -0.11155721 0.028099071 -0.024065232
000060 55 f8 28 be a1 fe 0a 3d ed 97 db 3d b0 f4 33 3e
       -0.16500981 0.03393424 0.10722337 0.1757381
000070 5f 47 bf bd 4a 44 76 bd cf 3e 29 3e ba 7b 9c 3d
       -0.09339785 -0.06012372 0.16527866 0.076407865
000080 b9 14 f7 3d 5d 38 34 3e f0 e3 a5 3d 93 27 80 be
       0.120644994 0.17599626 0.08100116 -0.25030193
000090 bd 7b 1b 3e ad 84 0b 3e ba 95 4a 3e 6c e8 dc 3d
       0.15183921 0.1362483 0.19783679 0.107865185
0000a0 02 8a 90 3d c0 30 70 3b 21 e9 9d 3d 09 81 f2 3d
       0.07057573 0.003665015 0.077104814 0.11841018
0000b0 ad a2 6d 3e 14 d3 e1 3d 82 27 93 3e 85 c5 55 bd
       0.23206587 0.11026588 0.2874108 -0.052190322
0000c0 16 2b 16 3d b9 ea 38 3e 68 28 4f 3e e7 4c 6c 3e
       0.036662184 0.1805829 0.20230258 0.23076211
0000d0 f2 fd bd 3d e2 34 b3 3d 66 97 20 be ca 31 65 3e
       0.09276952 0.08750321 -0.15682754 0.22382274
0000e0 b1 0e 7a 3c 22 e6 c4 bd e7 a8 43 3d e8 77 2e 3e
       0.015262292 -0.09614207 0.0477685 0.17037928
0000f0 50 13 13 3e 01 f5 a2 3e a2 de 01 3e 6f 08 16 3e
       0.14362836 0.31827548 0.12682584 0.14651655
000100 06 47 9f 3d 08 28 ce bc ed 42 47 bd e9 a4 87 bd
       0.077772185 -0.025165573 -0.04864781 -0.06623251
000110 01 e5 4c bd 2b c8 6c bc 22 b1 41 3c 00 84 94 bd
       -0.050023083 -0.014452021 0.011822017 -0.072517395
000120 14 61 b3 3d cc 55 8f bc c9 c1 39 3d 90 47 89 3c
       0.087587506 -0.017496966 0.045350824 0.016757756
000130 d7 fa 06 be 64 c5 9c 3c 7f 24 ed 3d e4 0e f9 3d
       -0.13181625 0.019137092 0.11579227 0.12161043
000140 52 8b 60 3d 8f dd 00 be 4a 27 ac 3d 7e 42 d7 3d
       0.054820366 -0.12584518 0.08405931 0.10510729
000150 24 ff c3 3d 61 e9 80 bd 04 7b a2 3d d0 c6 49 3d
       0.095701486 -0.062945135 0.079336196 0.049261868
000160 27 6f 36 3d 4a a1 f6 3d be 50 19 be 62 81 f1 3d
       0.044539597 0.12042482 -0.14972207 0.11792256
000170 25 d2 e7 3d df 11 1e 3e e8 ee 9e bd 64 c0 21 3e
       0.11319379 0.15436505 -0.077604115 0.15796047
000180 e7 77 97 3d 3d a7 24 3e 62 41 d3 3d ce fe 49 bc
       0.073959164 0.16079421 0.10315205 -0.012328817
000190 38 3a 36 bd 52 75 85 bd 34 e6 ff bd 2a 03 49 bd
       -0.044489115 -0.06516518 -0.1249508 -0.049075283
0001a0 7b 77 2a be 76 6e 02 3e a0 13 93 bd 18 df 1b bc
       -0.1664714 0.1273745 -0.071814775 -0.009513639
0001b0 62 7d 2e 3e a6 1d 9d 3b 34 24 9a bd 22 dd e8 bd
       0.17040017 0.004794794 -0.075264364 -0.11370303
0001c0 ca 84 af 3c 1d bb fd bd f9 9d 0c 3e b2 fb f4 bd
       0.021425623 -0.12389205 0.13732137 -0.119620696
0001d0 1e 2c 1d 3e 53 83 eb bc 76 9c 15 bd 54 76 e8 3c
       0.1534886 -0.028749144 -0.036526166 0.028376736
0001e0 b8 85 0d 3d 32 dc 1a 3e 8b 27 12 be 11 43 c1 3d
       0.034551352 0.1512306 -0.14272897 0.0943662
0001f0 6d 79 93 3d 1f f1 79 3c 1a 1f 1e bd 32 8f 34 3d
       0.072008945 0.015255242 -0.03860388 0.044081874
000200 d6 47 c4 3d b1 d3 b5 bd 41 36 d1 3d ed 49 0d be
       0.09584014 -0.088782676 0.10215426 -0.13797732
000210 f7 fe 44 3d b8 4a 01 3d 31 f1 ce 3c 58 f8 29 3d
       0.048094716 0.031565398 0.025261493 0.041496605
000220 f0 6c 8d bd 30 73 8c bd 2f 6d ce 3d 91 dd 08 be
       -0.06905544 -0.06857908 0.10079419 -0.13365771
000230 ff 64 04 3e 37 90 32 3e f1 d4 65 3b 75 d3 ee bc
       0.12929152 0.17437826 0.003506955 -0.029153565
000240 d1 aa 00 3e 2e 6c 43 bd 73 f3 ef bd cc 7c 22 be
       0.12565161 -0.04771059 -0.11716356 -0.15867919
000250 53 8f 84 bd 5c 4a 1a be 4c e2 ce bc 07 87 43 bd
       -0.064726494 -0.15067428 -0.025254391 -0.047736194
000260 fb 9b 7d bc 41 64 0b 3e ad 33 e5 3c b4 4d b3 bd
       -0.015479083 0.13612463 0.027978742 -0.08755055
000270 e5 8d 19 3e 1a c6 82 bd b0 30 13 be 29 a0 4a bd
       0.14995535 -0.06385441 -0.14374042 -0.049469147
000280 ec c9 20 bc d9 a9 d5 3d e5 6f 2b be 87 34 aa 3d
       -0.009813767 0.104327865 -0.16741903 0.083108
000290 92 09 63 3d d6 21 e4 3d ef 14 44 bd 2a 89 a3 bd
       0.05542905 0.11139266 -0.047871526 -0.07985146
0002a0 83 89 23 be 4d 35 52 bc d2 5a 2b be 41 88 00 be
       -0.15970425 -0.012830091 -0.16733864 -0.12551977
0002b0 1f 56 1a 3d 52 87 e6 bd 8b 79 f2 3b 0a a2 bf bd
       0.037679788 -0.11256279 0.007399743 -0.093570784
0002c0 91 db 21 be 70 40 27 3e db 7b 17 bc b7 ac ed bd
       -0.15806414 0.16333175 -0.009245838 -0.11605208
0002d0 93 1e 28 3e e9 f8 0a 3e 2f 7f 05 3e a3 9e 95 bd
       0.16417913 0.13571514 0.13036798 -0.07305648
0002e0 f9 5f cd bd c0 a0 6d 3c 83 c0 17 be 9f ee 5c bd
       -0.10028071 0.014503658 -0.14819531 -0.053938504
0002f0 28 8f 8b bd c5 fb 28 be be 85 72 bd 5e 79 6e bd
       -0.06814414 -0.16502292 -0.059209578 -0.058221214
000300 40 de 43 3e fc ce 7b 3e f7 c7 f3 3b c7 e8 f4 bd
       0.1912775 0.24590677 0.007439609 -0.11958461
000310 f3 fd d2 3d 67 90 88 3e 9b 60 e5 3c c3 4e 88 3e
       0.10302343 0.2667267 0.028000167 0.2662259
000320 d2 3d 6b 3e 23 f2 1f 3d 36 58 60 3e 89 97 6c 3d
       0.22972801 0.03904928 0.2190865 0.057761703
000330 46 5b cd 3d 58 79 1c 3e 2e fd e1 3d 1e 2e cf bd
       0.10027175 0.15280664 0.11034618 -0.10116218
000340 11 95 bc 3d fd ba 43 3e 9d 46 db 3d 67 34 fd 3c
       0.0920812 0.19114299 0.10706828 0.030908776
000350 5a 78 da 3c 48 2e 49 3e 25 4f 1d bd bb 0d 87 3e
       0.026668716 0.19646561 -0.038405556 0.26377663
000360 18 de 49 3e 29 fd 08 be 35 34 cb 3d 53 a8 69 bd
       0.19713628 -0.13377823 0.09922067 -0.057045292
000370 e3 fe 0e 3e d2 bc 95 3d ef 9d 89 3e 0a 6a 67 3e
       0.13964419 0.07311405 0.26878306 0.22599044
000380 9c 86 20 3e b3 8a 19 3e 84 d2 0d 3e c0 52 75 be
       0.1567635 0.14994316 0.13849837 -0.23957348
000390 e7 fa 8e 3b 09 34 69 3e f4 b4 42 3e ff c4 57 3e
       0.004363406 0.22773756 0.1901434 0.21071242
0003a0 b0 16 e9 3d f6 2d 8a 3e a4 9d 7e 3d 04 3e e7 3d
       0.113812804 0.2698819 0.062162057 0.112911254
0003b0 e8 86 03 3e 8a c4 e5 3d c7 c1 82 3e 1c 33 d3 3d
       0.12844431 0.112191275 0.25538465 0.10312483
0003c0 8c 69 31 3d 34 7c 85 3e 0f f4 21 3e 3d 66 01 3e
       0.043313548 0.26071322 0.15815757 0.12636657
0003d0 63 b5 40 3e 0d f5 84 3e 51 62 f1 bd d5 58 96 3e
       0.18819194 0.2596821 -0.117863305 0.29364648
0003e0 a2 d1 24 3e 10 7c 0b be f1 68 4e bd 10 93 0c 3e
       0.16095594 -0.13621545 -0.05039305 0.13727975
0003f0 d9 25 d7 bc 7c eb ee bc 86 dc 6a 3e e3 c5 68 3e
       -0.026263164 -0.029165022 0.22935686 0.22731738

np.item_emb.second_embedding_layer.bias f4 [16]
000000 dc bb c9 bd a9 85 c2 3d 80 c5 d8 bd 8e 55 36 bd
       -0.098502845 0.0949815 -0.10584545 -0.044515185
000010 11 a7 23 be 05 0f 32 bd 2c f1 e6 3d 6a 66 82 3d
       -0.159817 -0.043471355 0.11276469 0.0636719
000020 7f c4 45 3e 7c 19 18 be 0b d6 f5 3d c5 33 93 3d
       0.19313239 -0.14853472 0.12003716 0.07187609
000030 9a 71 1b 3e 0e 17 2c be 75 09 db bd 6f 04 2f 3d
       0.15180054 -0.1680567 -0.10695163 0.042728838

np.user_emb.first_embedding_layer.weight f4 [32, 1872]
000000 52 62 74 bb 08 b7 b4 3c 6e e0 67 3c e1 37 58 bc
       -0.0037290049 0.022059932 0.014152629 -0.013196916
000010 92 23 8a 3c cd 64 3a 3c 47 a2 5a 3c b9 ea af 3a
       0.016862664 0.011376572 0.013344354 0.0013421393
000020 c7 ba cc 3b 81 b2 42 bc fa 0c 49 3c 22 4f 23 ba
       0.0062478515 -0.011883379 0.01227116 -0.0006229748
000030 cf ef 9e 3c 62 a7 f4 bb b4 3c 55 3c 87 9b 68 3c
       0.019401459 -0.0074662426 0.013014961 0.014197237
000040 bd bd 01 bc c3 ff 5b bc 26 1a 2a bc 41 b5 98 bc
       -0.007918772 -0.013427678 -0.010382211 -0.018641116
000050 ca 8b 23 3c de 52 61 bc 1b a2 13 3c 1d 28 b0 bc
       0.009982059 -0.013752667 0.009010817 -0.021503503
000060 a1 30 bd ba 54 2f 17 3c 4c fc b9 bb af 5f 9a 3b
       -0.0014434048 0.0092275925 -0.005675828 0.0047111134
000070 5a 32 8d 3c e2 56 a1 ba 57 d3 51 3c 38 cf 9f bb
       0.017235924 -0.0012309218 0.012806735 -0.0048769973
000080 52 51 88 3c cb 97 86 bc 4d e3 4d bc 04 21 99 3c
       0.016640339 -0.016429802 -0.0125664 0.0186925
000090 20 33 fc 3b 7d aa e3 3c 79 86 05 bb 31 e9 a6 bc
       0.0076965243 0.027791256 -0.0020374341 -0.020374866
0000a0 6b 78 af 3c 56 db 9d 3c ba 4d d5 3b c9 a0 b5 bc
       0.021419724 0.019269627 0.00650951 -0.022171395
0000b0 92 4f f5 bb 6d c2 ae 3c 23 9f 09 3c 25 53 00 bc
       -0.007486292 0.021332944 0.008399758 -0.007832323
0000c0 14 46 cd 38 b5 06 a5 bb 24 22 21 bb 7c b3 a7 bb
       9.788215e-05 -0.0050362 -0.0024587 -0.0051178318
0000d0 d6 97 6d bc 38 5a 1c 3c 07 d1 a9 3c d7 e9 8a 3c
       -0.014501533 0.009542994 0.020729555 0.016957207
0000e0 84 af e0 3c 1e e6 5b bb c3 ed e4 bb 79 3e 92 bc
       0.027427442 -0.0033553909 -0.006986351 -0.017852055
0000f0 09 12 6b bc 55 43 03 3c 58 5b e8 3b 76 84 b2 3c
       -0.014347562 0.008011659 0.007090967 0.021791678
000100 fb 7d 32 3a 5e a3 6f 3c dd b5 b5 3c bb e6 4b bc
       0.00068089337 0.014626352 0.022181446 -0.012445147
000110 25 f8 61 3c 75 4f aa 3b 6b 32 4b 3d 5c 49 86 3b
       0.013792072 0.0051974603 0.04960863 0.0040981006
000120 46 ea b7 bc 71 64 bc 3c 1d e8 0b 3c 06 2e 75 3c
       -0.022450577 0.022997113 0.008539227 0.014964586
000130 72 52 68 3b 3c 12 ec 3c da f0 3a 3c 99 3f 3c 3c
       0.0035449532 0.028817289 0.011409963 0.011489772
000140 10 b0 9e 3c ad d6 13 3d a4 ee 91 3b 63 62 63 3c
       0.019371063 0.036093403 0.004453497 0.013878438
000150 a3 26 15 bc 9d ae ac 3c cb 55 55 3c f9 1d 7f 3c
       -0.00910345 0.021079356 0.013020943 0.015571111
000160 56 2a 50 3c 88 48 8b 3c a5 6a 8c 3c a1 db 21 bc
       0.012705406 0.017002359 0.017140696 -0.009879024
000170 ca 9d 13 3d 39 ed ed bb 69 84 00 bc e0 c7 89 3c
       0.03603915 -0.007260945 -0.007844069 0.01681894
000180 06 75 dc bb 66 7d 1f bb c5 ce 56 bc a9 c3 aa 3c
       -0.0067278175 -0.0024336218 -0.013110821 0.020845251
000190 c7 65 c4 3c 74 ef ac ba 8e 56 a7 3c 6a e4 0c 3d
       0.023974312 -0.0013193921 0.020427015 0.03439752
0001a0 e4 e9 99 3c cc ec 32 3c 55 3b aa bc b1 64 33 bc
       0.018788286 0.010920715 -0.020780245 -0.0109493
0001b0 76 8b 8f bc 26 be dc 3b 5e 11 e3 ba bd f9 aa bc
       -0.017522555 0.0067365346 -0.0017323901 -0.020871038
0001c0 80 5d 9c 3b eb cd 0f 3d 57 23 b3 3c 5a b9 08 3b
       0.0047718883 0.035108488 0.021867437 0.0020862431
0001d0 16 32 02 3b 05 23 df 3c ca d4 93 ba 02 c2 a5 3c
       0.001986628 0.027238378 -0.0011278626 0.020234112
0001e0 2e e3 38 bb f1 b2 a5 ba 23 53 78 3c 1c 2c 53 3c
       -0.0028211582 -0.001264183 0.01515654 0.012888934
0001f0 36 3c 7a 3c d1 e1 80 bc 99 4b bb 3c 0c 88 4e bc
       0.0152731445 -0.015732678 0.022863196 -0.012605678
000200 20 4a 99 3b 6e 4f 2d 3c f6 e3 a4 bc 90 cd 8c bc
       0.004678026 0.01057802 -0.020128231 -0.017187864
000210 54 29 a3 3c 0f 6e 92 bb b6 be d7 bb 8a a0 a2 3c
       0.019917168 -0.0044686864 -0.006584014 0.019851942
000220 f9 1b 85 3b 77 6a b9 bc 01 38 aa bc aa 85 25 bc
       0.0040621725 -0.022633774 -0.020778658 -0.010102669
000230 f4 06 2a 3a 11 64 87 3c 0c a5 c9 bb 7b af 5d 3c
       0.00064860214 0.016527208 -0.0061537083 0.013530607
000240 aa 55 20 3c 7d da 11 bb d6 b0 99 3c 5a 0b 70 bc
       0.009786049 -0.0022255473 0.01876108 -0.014651144
000250 89 f4 0b 3c 06 bd df 3b 67 b1 19 3c 75 51 0f 3d
       0.008542188 0.0068279533 0.009380675 0.034989793
000260 ad fe 8a 3b a9 e5 af bb c6 31 b3 bb 69 e4 ba bc
       0.0042417855 -0.005367954 -0.00546858 -0.022813993
000270 9d 33 b7 bc 8e f6 a9 3c e0 19 8a bc 1c 7c b6 b8
       -0.022363478 0.02074745 -0.016858041 -8.7015535e-05
000280 47 12 3a 3b b4 2c 21 3c 18 ae 90 3c 39 52 4d bc
       0.0028392242 0.009837318 0.01766114 -0.01253181
000290 ad fd de ba c9 54 2e 3c 2d 62 32 3d 1c 2d 79 3c
       -0.0017012857 0.010640332 0.04355066 0.015208509
0002a0 4f 88 37 bb cc fb 24 3a 73 83 94 3b cd e5 4a bc
       -0.002800483 0.0006293624 0.0045322715 -0.01238389
0002b0 43 c7 b4 bb 94 46 e2 3b e9 7b 91 3c bc 92 40 3c
       -0.005516918 0.006905386 0.01775928 0.011753734
0002c0 68 ff 72 3a 32 ca 36 3c cc 7f 22 3c 72 95 35 3c
       0.0009269626 0.011156606 0.009918164 0.011082994
0002d0 c1 e6 26 bc 7b 34 ca 3b 6d bd a9 bc b2 fd b4 3c
       -0.010186852 0.006170807 -0.020720208 0.022093628
0002e0 02 15 a1 bc 49 d1 b0 3c f6 21 b0 3b 4e 87 52 bc
       -0.019663338 0.02158417 0.005375142 -0.012849642
0002f0 6b 79 9c 3b a9 96 b3 39 ee 1c 0a ba f5 f6 8e bc
       0.0047752163 0.0003425379 -0.0005268593 -0.017451743
000300 c0 73 27 3c b6 40 46 3c c2 10 29 bc fb e4 24 3b
       0.010220468 0.012100389 -0.010318937 0.0025160897
000310 33 1a ac 3c ea 77 38 bc 56 14 d9 3c 2a 47 78 bc
       0.021008587 -0.0112590585 0.026498955 -0.015153686
000320 5e e3 10 bc a6 1a 78 bb f6 2d a7 bb bc 99 74 bc
       -0.008843271 -0.003785768 -0.0051019145 -0.014929231
000330 38 83 a0 bb ba 3b 8d 3c 03 95 9a 3c 15 c9 96 3c
       -0.004898455 0.017240394 0.018869882 0.01840643
000340 8f aa 90 3b 61 2d ef ba 5f 98 a8 3c 82 23 8a 3c
       0.0044148634 -0.0018247777 0.020580469 0.016862635
000350 bb 19 f7 3a 67 a5 63 3c 28 3f bf 3b 87 9c b0 bb
       0.0018852273 0.013894415 0.0058363862 -0.0053897533
000360 9e 64 18 3b 1b 28 58 bc 74 b9 8a bb 1d ff 81 3c
       0.0023253332 -0.013193156 -0.0042335335 0.015868718
000370 ef 26 6a bc 01 fa a7 3c fe 7b 8a 3c 5e 0e 72 3c
       -0.014291509 0.020504953 0.016904827 0.014773933
000380 69 46 16 bc db 6a 8f bc 2c 86 9c bc 2a 71 4c 3b
       -0.0091720605 -0.017507007 -0.019106947 0.003119538
000390 a3 bd 92 3b 25 d2 c2 3c 49 5b 03 3d 9d b7 44 bb
       0.004478173 0.023781845 0.03206948 -0.0030016669
0003a0 1d 58 7b ba 71 8d 56 bb c5 47 fb 3b 20 e2 a6 bc
       -0.000958802 -0.0032738114 0.0076684677 -0.020371497
0003b0 a2 34 94 3c d9 88 9e bc 90 07 23 3d d0 a6 0a 3c
       0.018091504 -0.019352363 0.039802134 0.008462623
0003c0 19 1d 88 3c 66 d0 15 bc 52 12 b3 3c 02 b5 fe b9
       0.016615437 -0.009143924 0.021859322 -0.00048581517
0003d0 16 ea 19 3c 93 26 02 3c 63 af 16 bc c4 09 cf 3b
       0.009394189 0.007943767 -0.009197089 0.006318303
0003e0 22 16 37 ba 25 64 65 bc 70 26 82 bc ee 63 96 bc
       -0.0006984194 -0.014000927 -0.015887469 -0.018358197
0003f0 45 25 2b 3b ca 69 90 bc ca 5e 09 3b b7 1f 99 bb
       0.0026114744 -0.01762857 0.002096104 -0.00467297

np.user_emb.first_embedding_layer.bias f4 [32]
000000 d8 60 98 3d 42 a3 8a bc b4 21 60 3d f2 38 9a bc
       0.074403465 -0.01692355 0.05471964 -0.018825982
000010 1d c8 6c 3d f4 c9 37 3d 4f 3a b9 3d 55 34 7a 3d
       0.05780803 0.044870332 0.090443246 0.061085064
000020 ff a5 9f 3c db ae 8c 3d 2e f1 7b 3d 7e 96 b0 3d
       0.019488333 0.068692885 0.061509304 0.08622454
000030 9e e4 bb bc 43 27 a9 bc c9 7d 52 3d df 5f 44 3d
       -0.022936162 -0.020648604 0.05138949 0.047942992
000040 a0 a8 50 3d bc 7d 7b 3d 73 2c 91 3d 2d da 6d 3d
       0.050942063 0.061399207 0.07088556 0.058069397
000050 eb db b8 bc cf 5c 4a 3d 97 bb 9e 3d bf 67 67 3d
       -0.022565803 0.049404915 0.07750624 0.056495424
000060 56 a7 a9 3d a4 dc 72 3d 96 f6 8d bc f2 15 b0 3d
       0.0828387 0.05929245 -0.017329495 0.08597936
000070 f8 ee 26 bc dd 25 7e 3d 6e 8a 88 bc df 1f 90 bc
       -0.0101888105 0.062047828 -0.01666757 -0.017593322

np.user_emb.second_embedding_layer.weight f4 [16, 32]
000000 2c 20 bc bd e4 1c 7d bb e5 b9 dc bd 71 5e d3 3d
       -0.09185824 -0.0038621956 -0.10777644 0.10320748
000010 56 c0 e0 bd 5b e6 0c be 59 b5 a3 bd 5e bb 39 be
       -0.10974185 -0.13759749 -0.07993574 -0.18137881
000020 51 01 3c be cf 5f 42 bb ba 31 68 3d 04 0e c8 3d
       -0.18359877 -0.0029659157 0.056688048 0.09768298
000030 c2 38 82 bd 41 f0 a3 bd 46 fb 18 be 6b a3 f9 3d
       -0.06358482 -0.08004809 -0.14939603 0.12189373
000040 e9 07 a6 bd a2 d9 44 be b7 2d 07 3e be 92 c3 bd
       -0.081069775 -0.19223645 0.13201033 -0.09549473
000050 eb 16 dc 3b 05 15 df 3d 69 47 1f be 28 9d 19 3d
       0.006716599 0.10892681 -0.15554585 0.03750339
000060 be e2 0e 3e b4 2c 1a be 8f 1f 38 bc 26 17 b6 3d
       0.13953683 -0.15056115 -0.011237993 0.08891134
000070 65 5f 1a 3e 03 b6 3c be 0a ff eb 3d 70 32 12 bd
       0.15075453 -0.18428807 0.11523254 -0.035692632
000080 85 79 6a 3e 90 2a 14 be 52 5f 24 bd 40 d4 89 3d
       0.22897919 -0.14469361 -0.040129967 0.067299366
000090 5f 9b b3 3d 4b 63 ab 3d c6 df 22 3e cf b9 b8 3d
       0.08769869 0.08368548 0.15905675 0.09019815
0000a0 54 6a 36 bd 3e 8c 35 3e b4 07 79 3e 62 68 51 3e
       -0.044534996 0.1772928 0.24319345 0.20449975
0000b0 16 b0 58 bd a3 53 82 3b 87 19 1f bd 0f de 9d 3d
       -0.052902304 0.0039772554 -0.038842704 0.0770837
0000c0 5a fd 74 3e 40 30 9a 3d fa 36 dc 3c cd 89 ad bc
       0.23924771 0.07528734 0.026881684 -0.021183873
0000d0 e0 46 e7 bd b2 38 2f bd 26 1e 22 3e dd 88 e4 3d
       -0.11292815 -0.04277868 0.15831813 0.11158917
0000e0 d0 35 3e bd d4 f9 4d 3e 64 5e e5 b8 49 47 3a 3e
       -0.04643804 0.20114833 -0.000109371525 0.18191256
0000f0 8c 24 f0 bd 95 fc 98 3d 12 2c a6 3d 3a 26 04 ba
       -0.11725721 0.07470051 0.081138745 -0.00050410966
000100 9b 33 f7 bd 36 8a 09 be f5 d1 5a 3e 27 d3 14 3c
       -0.1207039 -0.1343163 0.21369155 0.009083546
000110 66 f6 2d 3e e8 f5 33 3e 1a 85 20 3e 53 bd b2 bc
       0.16988525 0.17574275 0.15675774 -0.021818792
000120 69 1b ae bd 14 a2 d3 3d d8 09 22 3e 26 02 b3 bd
       -0.08501322 0.10333648 0.15824068 -0.08740644
000130 35 4e 0e 3e 56 73 8d 3c f8 6b 26 3e ae b4 47 3e
       0.13897021 0.01726691 0.16252124 0.19502518
000140 48 f1 be bc 88 63 41 bb 08 74 f9 3d c9 52 e8 3c
       -0.023308411 -0.0029508788 0.12180334 0.028359788
000150 5e 9a 12 be 27 21 f6 3d 75 b1 28 3e 82 71 af 3c
       -0.14316699 0.12018042 0.16473944 0.02141643
000160 61 ec b4 bd a2 a2 2f 3e 58 f0 38 bd 04 2a 95 3c
       -0.08834148 0.17151883 -0.045151085 0.018208511
000170 69 16 ae 3d e2 03 4a 3e cb 81 c9 3d 62 f9 b9 bd
       0.08500368 0.19728044 0.09839209 -0.09080769
000180 87 88 0a be 95 e7 de 3d a6 96 d4 bc 3b d8 6e 3d
       -0.13528644 0.108840145 -0.025950741 0.058311682
000190 be ba 8f bc 0d 03 b5 bd 82 85 5b bd 82 93 8f bd
       -0.0175451 -0.088384725 -0.05359412 -0.07010557
0001a0 f0 6e 08 be 7c f9 40 3c be 7c a1 3d 5a 8e 13 3e
       -0.1332357 0.011778232 0.07885121 0.14409772
0001b0 75 16 2b be f7 ed fc 3d de 90 8f 3d 30 95 b1 bd
       -0.16707785 0.12350076 0.07010053 -0.086710334
0001c0 82 b8 9c bd 83 e9 4c 3d cb 69 2e 3e 1a 9e 96 bd
       -0.076523796 0.05002738 0.17032544 -0.07354374
0001d0 1a 31 eb bd 4f 13 ab 3d 5f 51 21 be e1 56 fe 3c
       -0.11483975 0.08353292 -0.15753697 0.031047286
0001e0 ab 34 e1 bc 98 26 29 3e 45 40 a2 bd f1 16 5a 3d
       -0.027490934 0.16518629 -0.07922415 0.053244535
0001f0 b7 4a 0d be 4e 91 60 bd de e5 e5 bd f4 6e 34 bc
       -0.13798033 -0.054826073 -0.11225484 -0.011012781
000200 90 3a 9b bd ff 92 8a 3d 10 52 e4 3d 3e 33 b9 3d
       -0.07579529 0.067663185 0.11148465 0.09042977
000210 28 9f 91 bd 4c 78 d2 3c bf fa 8d bc d5 ce ef 3b
       -0.07110435 0.025692128 -0.01733148 0.0073183575
000220 45 b5 73 3c 48 6c da 3d b6 28 07 be 0a 9e c8 bd
       0.014874761 0.10665184 -0.13199124 -0.097957686
000230 80 3c 20 bc 7e 17 8c 3d 3c 88 cb 3d ed 41 0b be
       -0.009780049 0.06840418 0.09938094 -0.13599367
000240 ed f3 17 3e 41 ba f0 3c 77 7b 19 be f1 5a 03 3e
       0.14839144 0.029385688 -0.14988504 0.1282766
000250 ca b9 31 3d 08 54 60 3c f3 dd ef 3d 1f ad 00 bd
       0.043390073 0.01369191 0.11712255 -0.0314151
000260 53 48 3d 3d fc 2e d1 bd ea c3 13 3d 97 52 97 bd
       0.046211552 -0.1021404 0.03607551 -0.073888
000270 c1 60 a6 3c bd ff 96 3d c9 94 cb bd 2b d4 c1 3d
       0.020309808 0.07372997 -0.09940488 0.09464296
000280 bd 8f d1 3d 17 08 91 3d f2 30 fb bc 3f c8 45 bd
       0.10232494 0.07081621 -0.030662987 -0.048286673
000290 cf a8 0b 3e fc b2 cc 3d 2e fa 24 3e 64 e1 30 3e
       0.13638614 0.09995076 0.16111061 0.1727348
0002a0 3d 23 1d bd 4b 69 d3 3b a4 3b fa 3c 88 89 30 3e
       -0.038363684 0.006451761 0.030546017 0.17239964
0002b0 49 8d 3a 3d e7 60 75 bd 31 b3 b3 3d 6b 8c a6 3d
       0.045544896 -0.059906866 0.087744124 0.08132251
0002c0 85 b5 86 bd 7b ae e9 3d 78 c4 2b 3e d6 ed 00 3e
       -0.06577591 0.11410233 0.16774166 0.12590727
0002d0 17 07 12 3d 41 cc 83 3e a4 07 1c bd e1 06 df 3d
       0.035651293 0.2574177 -0.038093224 0.10889984
0002e0 ac 6d 33 3e c3 43 f7 3d af ce b7 bd 23 b4 46 3e
       0.17522305 0.120734714 -0.08974969 0.19404654
0002f0 be 38 fb 3d 90 f8 98 3d 46 d2 3e 3d d9 d6 f4 bd
       0.12266682 0.074692845 0.04658725 -0.119550414
000300 03 fb f0 bd 1c c2 08 3e 08 44 b0 bd b8 c3 f7 3d
       -0.11766627 0.13355297 -0.08606726 0.12097877
000310 28 79 c6 bc f0 35 0e 3e 0d 14 2c be e3 43 86 bd
       -0.024227694 0.13887763 -0.16804524 -0.06555917
000320 82 a0 e2 3d bd 6a 89 bd 93 b6 1a be eb 13 51 bc
       0.11065771 -0.06709812 -0.15108709 -0.0127610965
000330 e8 c5 5a 3d 82 78 76 3d a6 95 03 3e f3 d1 f3 3d
       0.053411394 0.06017352 0.12850055 0.11905279
000340 c8 03 41 3d 32 f9 0c 3e a7 7b a5 bb da 7a 15 3d
       0.047122747 0.13766935 -0.005050141 0.036494114
000350 c4 5d fb 3d 4e 89 10 3c 01 cc 30 3e bd 31 0b 3e
       0.12273744 0.0088217985 0.17265321 0.13593192
000360 c9 18 ef bd 79 15 09 be be c0 fa bb 06 02 19 be
       -0.11674649 -0.13387097 -0.007652371 -0.14942178
000370 93 b6 c4 3d 6e 18 10 3e b9 ea c0 bd 80 0d 21 3e
       0.09605136 0.14071819 -0.0941977 0.15727806
000380 82 96 8c 3d fa 70 af 3d c5 6a 36 3e 7a 7e fc bd
       0.068646446 0.085664704 0.17814167 -0.12328811
000390 e2 b7 c4 bd 93 3f 05 3e 5f 48 c4 3c 1f c7 2a 3d
       -0.09605385 0.13012533 0.02396029 0.041693803
0003a0 91 60 43 3e 77 97 a2 3d 37 7a c9 3d 18 dd c2 bc
       0.19079806 0.07939046 0.09837764 -0.023787066
0003b0 8e 61 1b 3e cb fb fd bd 8d ca ec 3d 8f c8 d0 bd
       0.15173933 -0.12401541 0.11562071 -0.101945035
0003c0 d3 45 12 3e 64 2a 9f bc 16 0f 05 3e ce cf 16 3e
       0.14284448 -0.019429393 0.12994036 0.14727709
0003d0 78 87 b7 3c 26 9f cd 3d cc 0f c1 bc e0 21 11 3e
       0.022403464 0.10040121 -0.023567103 0.14173079
0003e0 ac 2a 5d 3e 58 30 8a bd 57 02 2e bd 50 70 d9 3d
       0.2159831 -0.06747502 -0.0424827 0.10617125
0003f0 f5 fc 9c bd a5 4d 02 3c ae 1e b0 bd 83 b0 ea bd
       -0.07665435 0.007953082 -0.08599602 -0.11459448

np.user_emb.second_embedding_layer.bias f4 [16]
000000 bd 24 5f 3c a9 45 a9 3d 5b bf 51 3e 85 0f f7 bd
       0.013619599 0.0826524 0.20483153 -0.12063507
000010 56 74 1e be 32 1c 18 3e 8d 03 0c be 01 8e 2c 3e
       -0.15474066 0.14854506 -0.1367323 0.16851045
000020 ba 73 07 3e 1a 76 17 be df 96 c7 bd a6 59 2b be
       0.1322774 -0.14791146 -0.09745573 -0.16733417
000030 2f c2 37 3e 4c 57 6d 3e 38 81 02 be 4c 63 e3 3d
       0.17945169 0.23177832 -0.12744606 0.11102924

np.xy_to_z.input_to_hidden.0.weight f4 [32, 33]
000000 dc d0 b5 bd 97 84 f0 3c f2 8e 89 bd 7b d4 8b bd
       -0.088777274 0.029360099 -0.06716718 -0.06827637
000010 d1 98 be bd 09 4c 49 3c d2 25 e6 3d 0b c9 36 3e
       -0.09306491 0.012286195 0.112376824 0.1785013
000020 19 db 0e 3d 5d ea a5 bd c0 df 35 3e 57 8c f3 bc
       0.034876917 -0.08101342 0.17761135 -0.029730005
000030 9a f9 55 3d 07 aa 8b 3d 80 74 21 bd e6 29 d0 3d
       0.05223999 0.068195395 -0.039417744 0.101642415
000040 7e 7d 1e 3e d4 dc 53 bc 8d 9a 47 bd 0c 39 70 3d
       0.15477559 -0.0129310675 -0.048731375 0.058648154
000050 e9 6a 1c 3d 76 4f 11 bc e8 06 1d 3e 2c e0 7e bd
       0.038187895 -0.008869043 0.15334666 -0.062225506
000060 26 8a 4b 3e 67 23 29 bd 0b 95 52 bd be 86 0e bd
       0.19876918 -0.041293528 -0.05141167 -0.03479647
000070 20 da d8 3c 8a 04 28 bd d8 75 86 3d 83 32 d9 bd
       0.026471198 -0.041019954 0.06565446 -0.106053375
000080 13 fe 16 3e 9d 70 2a be a6 99 12 be 42 33 2e be
       0.14745359 -0.16644521 -0.14316425 -0.17011741
000090 b6 f4 aa 3d c1 9d 4d bd 1b 80 c1 bd 1c bd ab 3d
       0.08347456 -0.050199274 -0.09448262 0.08385679
0000a0 a9 ce 80 bb ea 87 8d 3d ce c4 fe 3b 03 f7 99 3c
       -0.003930886 0.06910689 0.007774926 0.018794542
0000b0 af 59 2a 3e cf 6a 97 bd 11 04 2f 3e 0a c7 d3 3d
       0.16635774 -0.07393419 0.17091395 0.10340698
0000c0 0d ff af 3d f1 72 28 be 0e 51 dc bd 3b b8 31 be
       0.08593569 -0.16450097 -0.107576475 -0.17355435
0000d0 5a 85 0f 3c 5f 9e 82 bd 5e 8e 0d be 7c f1 0a be
       0.008759821 -0.06377863 -0.1382384 -0.13568681
0000e0 46 c0 ba 3d 7a 86 2b be 14 22 b9 bc 97 76 c7 3c
       0.091187045 -0.16750517 -0.022599258 0.02434854
0000f0 4a 50 e3 3d 5c e4 26 3e 23 d5 f3 bd 52 17 3d 3d
       0.11099298 0.1629805 -0.11905887 0.046164818
000100 df 2d 20 3e 23 9a 0c be b4 a2 0e 3c 31 05 dd bd
       0.15642498 -0.13730673 0.008705784 -0.10792006
000110 3e 0d ad 3d c8 7b d9 3d be 56 5f bd e6 82 bd bd
       0.08449791 0.106193125 -0.054526083 -0.092534825
000120 5e bb d1 bd 45 7f 94 3d 18 82 ba 3b 7b da 9f 3d
       -0.102408156 0.07250837 0.005691778 0.07805344
000130 77 23 a0 bd b2 1f a5 bd d5 04 5b be 81 be 1a bd
       -0.078192644 -0.08062686 -0.21388562 -0.037779335
000140 b5 51 0f 3e b4 0c 48 bd e1 7f de 3c 28 00 1a 3b
       0.13996013 -0.04884024 0.027160587 0.0023498628
000150 f9 34 49 bd f4 42 79 bc 70 c0 7f bc c6 63 fe 3d
       -0.049122784 -0.015213717 -0.0156098455 0.12421374
000160 13 0b 30 3d 4b 73 8a bd e4 d2 45 be 08 dd ac bd
       0.04297931 -0.06760272 -0.1931873 -0.08440596
000170 87 9c 1c be f1 1b 22 bc a1 f8 ca bb 2f 1e 0a bd
       -0.15294085 -0.009894357 -0.0061941897 -0.03372019
000180 71 2f 24 3d 61 3c 60 bd 01 19 0f bd 09 ab 23 be
       0.040084306 -0.05474508 -0.034935955 -0.15983213
000190 c1 07 ea bd a5 a8 cd bd 99 29 cc 3c 76 f5 08 bd
       -0.1142726 -0.10041932 0.024922179 -0.033437215
0001a0 f6 a5 0b 3e 5a 00 cb 3d 27 ce fe bd ee 90 c2 bd
       0.13637528 0.099121764 -0.12441664 -0.095002994
0001b0 8e c8 e2 3d ab 0e 0d be 80 b9 04 bd ba 26 19 3e
       0.11073409 -0.13775127 -0.03240347 0.1495618
0001c0 ca 0f 44 bd d5 03 30 be ce a1 dc 3d 2b 4d 07 3d
       -0.04786662 -0.17188962 0.10773049 0.033032577
0001d0 98 63 1e be fd 24 19 3e 5b 8d a3 bd fd d8 0c bd
       -0.1546768 0.14955516 -0.07985946 -0.034386624
0001e0 cb b8 e0 3c 42 b9 54 bd 85 fb 15 3e 86 ce b1 ba
       0.027431866 -0.051934488 0.14646728 -0.0013565577
0001f0 f2 9d cb 3c b1 2d f1 bd a8 5b 0c 3e c3 2a 1a be
       0.024855588 -0.11776293 0.13706839 -0.15055375
000200 0d 24 bd 3c e0 04 fa bc 39 47 9f 3d ac 85 56 bd
       0.02308848 -0.030519903 0.077772565 -0.052373573
000210 43 79 04 3e 2f 67 37 bd ce 64 c8 3d 6c 61 2e be
       0.12936883 -0.044776138 0.09784852 -0.17029351
000220 25 bc e0 3c 26 dd 0b 3e d8 53 30 3e 69 59 6b 3d
       0.027433464 0.1365858 0.17219484 0.057458315
000230 22 da 18 be eb 44 af bd cc 1d 0b 3e 50 1e 12 3e
       -0.14926961 -0.08558067 0.13585585 0.14269376
000240 27 b5 cf 3c 1c 9c df 3d b2 cf e0 3d 57 62 50 bd
       0.025354935 0.109184474 0.10977115 -0.050875034
000250 a1 b2 7b 3d 9a 70 3e 3d 6b 97 77 bb 13 4a 50 bd
       0.06144965 0.046494104 -0.003777946 -0.050851893
000260 7c b2 06 be c3 81 2c be e4 6d d7 bb e5 ee 27 be
       -0.13154024 -0.16846375 -0.0065743793 -0.16399725
000270 42 69 df 3c 77 b2 7e bd f3 ff e4 3d e5 33 16 3e
       0.02727187 -0.062181916 0.11181631 0.14668234
000280 9f e1 83 bd 90 3a 75 bd 96 07 05 3e 51 d7 39 bd
       -0.06439518 -0.059870303 0.12991175 -0.045371357
000290 ae 93 b0 bd 50 05 19 be 31 35 3d 3e 6c 0c 02 3e
       -0.08621918 -0.14943433 0.18477322 0.12700051
0002a0 be a7 0a bd 3d 9d c8 3d fc 76 b9 3d 58 55 94 3d
       -0.033851378 0.09795616 0.090558976 0.072428405
0002b0 1b b3 91 bd a6 6a 01 bd a0 0c 95 3d 96 74 89 3c
       -0.0711424 -0.03159585 0.07277799 0.016779225
0002c0 5f 71 26 3e aa 30 b1 bd d6 66 2f be 0d 8c 5f bd
       0.16254185 -0.0865186 -0.17129073 -0.054576922
0002d0 4e 15 ca bb 2c 02 b1 bd a6 63 24 3e 46 ef 1e bd
       -0.0061670905 -0.086429924 0.16053638 -0.038802408
0002e0 09 59 c1 3d 4c 91 e6 bc 52 93 65 bd 51 d0 9e 3c
       0.0944081 -0.028145455 -0.0560487 0.019386442
0002f0 5f 14 5a 3e c0 b2 20 3e 52 3b 31 be 63 fd b6 bd
       0.21296833 0.15693188 -0.17307785 -0.089350484
000300 31 52 ff bd 54 cf 79 bc b6 9b 06 3e 25 62 02 be
       -0.12466849 -0.015247185 0.13145337 -0.12732752
000310 ce 5c 2a 3d 68 90 04 3e 12 4d 1b bd ee 51 53 bd
       0.04159241 0.12945712 -0.037915297 -0.051591806
000320 c9 5a 6c 3d 75 b9 e7 bd 73 a0 02 be 85 a3 99 3d
       0.057703767 -0.1131467 -0.12756519 0.07501892
000330 29 99 6b 3e 65 90 a3 bc 8e ff 0a 3e ba c2 00 be
       0.23007645 -0.019966314 0.13574049 -0.12574282
000340 17 d1 87 3d 25 4e 51 3e 68 9b 19 3d 5d 5a af 3c
       0.066316776 0.20439966 0.037501723 0.021405393
000350 28 dc a3 bd 18 9f 92 bd 9b 99 24 be fd bf b3 3b
       -0.08000976 -0.07159251 -0.16074221 0.0054855333
000360 ac 19 a5 bd 11 8d 88 bd 9a 48 25 3d 8e ed bf bc
       -0.08061537 -0.06667531 0.04035244 -0.023428705
000370 c9 6f e9 bd f2 b1 a2 3c fc 96 57 3d 9d 3c 2b be
       -0.113982745 0.019860242 0.052634224 -0.16722341
000380 70 69 52 bd 36 fb fc 3d 9b 3a 0a bd 17 20 c1 3d
       -0.051370084 0.12352602 -0.033747297 0.09429949
000390 60 a3 1e be ee 3c 99 bd ea e5 f6 3d 40 51 c5 bd
       -0.1549201 -0.074823245 0.120555714 -0.09634638
0003a0 76 7a a6 3d 5f 58 06 3e d1 b6 1a be 14 95 a3 bc
       0.08128826 0.13119648 -0.15108801 -0.019968547
0003b0 fe a9 c1 bd b7 2e bd bd 19 d6 02 bd 1d 5d cb 3c
       -0.094562516 -0.09237426 -0.03194246 0.024824673
0003c0 8a 56 bc bd 81 5c 89 bc fc d8 a5 3c 7e 28 8f 3d
       -0.091961935 -0.016767742 0.020245068 0.06990145
0003d0 74 90 f7 bc 86 13 11 3e 34 35 5c 3d 8b 43 bc bd
       -0.030220248 0.14167604 0.053761676 -0.0919257
0003e0 d6 1a aa 3d 56 1f 66 3e d2 b4 19 be 33 bf 54 bd
       0.083059 0.22472891 -0.15010384 -0.051940154
0003f0 05 68 5b 3e 4a cd 0f bd d3 4d a3 bd 93 a2 9e 3b
       0.21426399 -0.03510789 -0.07973828 0.0048411577

np.xy_to_z.input_to_hidden.0.bias f4 [32]
000000 20 26 55 3e 00 50 26 bc 74 82 f7 3d 64 b2 0d be
       0.20815325 -0.010150909 0.12085429 -0.13837582
000010 42 75 25 be 99 a5 4e 3e 53 f4 0e 3e 7a e7 5a 3e
       -0.16158012 0.20180358 0.1396039 0.21377364
000020 0c 11 ef bd db 1d bf 3d 3e 18 07 3d a3 0c be bc
       -0.11673173 0.09331866 0.032982104 -0.023199385
000030 fa ff 2d be d1 c5 c7 3c 6e ff 86 bd a5 d5 ea 3d
       -0.16992179 0.024386318 -0.06591688 0.11466531
000040 65 b7 c2 3d 9b 9c 04 be 4d 6a 96 bd 31 b7 9f 3d
       0.09507636 -0.12950365 -0.07344494 0.07798613
000050 bf 03 c4 bd 0d f7 ec 3d 0c 9d 00 bd 11 c8 53 3e
       -0.09571027 0.11570559 -0.03139977 0.20681788
000060 23 b6 9a ba 1c 65 0f 3c dc 47 0a bc 0d b6 1a be
       -0.0011803549 0.008752134 -0.008439984 -0.1510851
000070 4c 5d 9f bd 7d 87 b9 bd a1 d6 de bc 5d 50 c1 3d
       -0.07781467 -0.090590455 -0.027201952 0.09439156

np.xy_to_z.input_to_hidden.3.weight f4 [16, 32]
000000 d7 97 af bd f8 3b 2d be e7 81 ae 3c a8 7f a4 bd
       -0.08573883 -0.16917408 0.021302177 -0.08032161
000010 12 47 a1 bd ac 78 78 3c a6 24 0d 3e 8f b8 1a 3e
       -0.07874884 0.015165489 0.13783512 0.15109466
000020 56 83 c5 bd 2c 48 07 3e fc a3 14 be 62 8f 3e bd
       -0.09644191 0.13211125 -0.1451568 -0.04652346
000030 ec 44 52 bd 84 65 e9 bd c5 79 21 3d df 4f b7 3d
       -0.05133526 -0.11396316 0.03942277 0.08950781
000040 8d 73 32 be e3 d9 72 bc 4a cb cd 3d c0 43 0b 3e
       -0.17426892 -0.014822456 0.1004854 0.13600063
000050 dc 95 ee 3d 5c 16 89 bd 83 e8 77 bc 8e 85 ce bd
       0.11649677 -0.06693718 -0.015131119 -0.10084067
000060 77 1e 9f 3d 2c 7d 30 be 3a 74 90 bd 43 51 f2 bd
       0.077694826 -0.1723525 -0.070534185 -0.11831906
000070 d5 66 b2 3d 3c b1 1b be e7 97 55 bd da 5c 0f 3e
       0.0871102 -0.15204328 -0.05214682 0.14000264
000080 af e8 23 3e 86 f3 16 3e 97 0d bc bd 0e 46 4d 3d
       0.1600673 0.14741334 -0.091822796 0.050115637
000090 c7 b7 fd bc af 51 bd 3d b8 8d f0 bd 5f 13 da 3d
       -0.03097142 0.092440955 -0.11745781 0.10648226
0000a0 1d 05 08 3e 4e bd ff bb 90 5e a4 bd 83 d9 f1 3d
       0.132832 -0.0078045493 -0.08025849 0.11809065
0000b0 b3 2e 1e 3d 05 64 3b 3e d6 ff 98 bd bd cc 88 3d
       0.038618755 0.18299873 -0.07470672 0.06679676
0000c0 69 a3 83 3d 5a f4 c1 bd 16 23 15 3c 61 c2 06 3e
       0.064276524 -0.094704345 0.009102603 0.13160087
0000d0 fa 5c 88 3d a0 56 74 bc dc fc ce bd a6 7c 60 3c
       0.06658359 -0.014913231 -0.10106823 0.0137015935
0000e0 2d 19 a5 bd f2 e3 23 3e 06 ac cc 3d 42 f0 29 bd
       -0.080614425 0.16004923 0.09993748 -0.041488893
0000f0 9e 62 a9 ba 2c 79 1e be bc 44 50 bd a8 9c c0 bd
       -0.0012923067 -0.15475911 -0.0508468 -0.0940488
000100 8a c5 0b 3b 87 6f 9f bd 9e f6 3d 3e a7 4e 17 3e
       0.002132746 -0.07784944 0.18551108 0.14776097
000110 52 63 1d 3e 26 f4 83 bd f9 fa 0a 3e bf f7 00 3e
       0.15369919 -0.06443052 0.13572301 0.12594508
000120 6f a3 52 bd 77 81 e7 bd bd 1b 93 bd f0 a4 13 3e
       -0.051425394 -0.1130399 -0.07183025 0.14418387
000130 f0 3e de bd da c4 31 3c 25 89 6a 3b 5b e6 75 3e
       -0.10851848 0.010850156 0.003578731 0.24013655
000140 74 7b 1e 3e 3e 56 0c be 1e 0e db 3d 90 3f 08 3e
       0.15476781 -0.13704774 0.10696052 0.13305497
000150 4c 1a 13 bc 38 39 63 3d bc bd 19 3e 2d 1a fb 3d
       -0.008978438 0.05547449 0.15013784 0.12260852
000160 3a 59 a6 ba c5 c2 96 3d 69 e3 14 3e 73 dc 3c bd
       -0.0012691387 0.07361368 0.14539875 -0.046108674
000170 2a 86 9b 3d d3 e8 c8 ba 13 4c b9 3c eb c3 2f 3e
       0.07593949 -0.0015328176 0.022619283 0.1716458
000180 93 bd f2 3d e3 af 26 be 42 f6 45 be 81 74 cf 3d
       0.11852565 -0.16278033 -0.19332221 0.10129643
000190 36 c5 12 be df 40 9c bd ae 32 1c be b5 1d 34 3d
       -0.14333043 -0.07629561 -0.15253708 0.043973643
0001a0 82 75 23 3e 9d 1f 54 3c fd da c4 bc 52 bc 1b 3e
       0.15962794 0.01294699 -0.024030203 0.15208557
0001b0 a2 c1 d3 bc 89 b6 25 be 35 43 d9 bc d0 cf f7 3d
       -0.025849167 -0.16182913 -0.026521305 0.12100184
0001c0 f3 9f ef 3d 4f 5d 06 be 0b ee 87 3d 00 cb 18 3d
       0.1170043 -0.13121532 0.066372 0.03730297
0001d0 d6 ba f7 bd d5 ff 32 bb de ed c3 3d f3 65 45 be
       -0.12096183 -0.0027313132 0.09566854 -0.19277172
0001e0 28 28 40 b9 9c bb bf 3d a1 70 2b 3e 9a 7d 24 3e
       -0.00018325506 0.093619555 0.16742183 0.16063538
0001f0 fb d0 a7 3d e8 59 cb ba 01 26 40 be 85 7c 1c be
       0.08194157 -0.0015514465 -0.18764497 -0.15281875
000200 86 0f 65 bd 3a 45 02 be a4 5c ba bd 9c 97 3d 3d
       -0.055923007 -0.1272172 -0.09099701 0.046287164
000210 b4 be f7 3c de 5e 46 3e 66 9c d7 3d 43 af 71 bd
       0.030242302 0.19372126 0.105278775 -0.059005033
000220 c6 e6 91 bd c0 a7 7f bd 63 1c ed 3c b0 78 20 be
       -0.07124095 -0.06241584 0.0289442 -0.15671039
000230 95 b1 07 3e 62 8c 8b 3d ac 2c 31 3e 04 32 d5 bc
       0.13251336 0.06813885 0.17302197 -0.026024826
000240 00 ec a2 3d 51 d6 9d bd aa 8e fc 3b f9 e6 e0 3d
       0.0795517 -0.07706893 0.0077074366 0.109815545
000250 80 39 34 be e0 53 4c 3e ee e3 fd bd 5e 00 43 3e
       -0.1760006 0.19953871 -0.1239699 0.19043109
000260 1d 33 2e bd 8f ea 04 3d 25 0c 88 bd 0f ff 19 bc
       -0.042529214 0.032450255 -0.066429414 -0.00939919
000270 14 4c 14 be d1 58 d9 38 0f 58 7f 3c c2 bb 74 3e
       -0.14482147 0.0001036391 0.01558496 0.23899749
000280 e2 e5 2f b9 41 29 07 be 66 c7 27 bd 4f af f2 3d
       -0.00016774939 -0.13199331 -0.040961646 0.11849844
000290 b2 a3 a8 3a ad 37 16 3e 30 b0 13 be f9 93 40 be
       0.0012866168 0.14669676 -0.14422679 -0.18806447
0002a0 3d d5 27 3e d8 b4 f0 3d 8a af 36 ba 83 04 7c bc
       0.16389938 0.11753243 -0.00069689064 -0.015381935
0002b0 04 47 ab 3d fd 69 12 be c0 3b c4 3d 35 b1 ec bd
       0.083631545 -0.14298244 0.09581709 -0.11557237
0002c0 07 b5 a6 bd f0 66 8b 3d ef cb c9 3d f8 41 1d 3d
       -0.08139997 0.06806743 0.0985335 0.03839299
0002d0 f8 b8 8c bb 8b b1 13 be 08 22 ac bd a3 8f 88 bd
       -0.004294511 -0.14423196 -0.084049284 -0.066680215
0002e0 ad 35 92 bd bd 6f b9 bd 5e f9 cf bd c9 1b dd 3d
       -0.07139144 -0.090545155 -0.10154985 0.10796315
0002f0 57 1a f2 bd 7f 13 10 3e 72 cf f7 bd 7a 98 c2 3d
       -0.1182143 0.14069937 -0.12100114 0.09501739
000300 a6 ce d5 bb 6e 4e 11 be c8 08 cb bd d9 fc 29 3e
       -0.0065248786 -0.14190075 -0.09913784 0.1660036
000310 40 b6 47 3d 72 6e ac 3b 8b 13 12 3e 70 89 3b 3c
       0.04875779 0.0052621895 0.14265268 0.011446342
000320 df bb 63 3d e4 57 c4 3d 32 86 df 3d 53 07 e6 bd
       0.05559909 0.09587076 0.109142676 -0.11231866
000330 7d 05 ee 3d 4a 2d c9 3c 80 be cc 3d 08 d6 84 3a
       0.116221406 0.024557728 0.099972725 0.0010134587
000340 52 13 90 bd b3 83 50 be 6c 4a ad 3d df c9 d4 3d
       -0.07034935 -0.2036274 0.084614605 0.10390066
000350 da fd b5 ba 6b 6f fd bd 00 de 06 be 49 e6 87 3d
       -0.0013884858 -0.12374767 -0.13170624 0.0663572
000360 5b 68 72 3d a4 aa ce 3c d2 f4 12 3e 83 44 8f 3d
       0.059181552 0.025227852 0.14351204 0.069954894
000370 d0 97 a7 3d 1c 7a 2c 3e a2 21 d1 3d ea b1 08 3e
       0.08183253 0.16843456 0.10211493 0.13349119
000380 13 70 0a be 6c 04 09 3e 7f 3f be bb 15 ea bc 3d
       -0.13519315 0.13380593 -0.005805909 0.09224335
000390 75 31 32 be 9c 5c 03 be c8 40 48 bd e3 5d 4b 3b
       -0.17401679 -0.12828296 -0.048889905 0.0031031303
0003a0 0b 54 d1 3d 41 96 07 bd f1 80 09 be 23 1b e7 3c
       0.10221108 -0.033102278 -0.13428093 0.028211182
0003b0 4a be 23 3e d7 db 29 bc 49 d9 56 bd f3 f9 50 3d
       0.15990558 -0.010367355 -0.052453313 0.05101962
0003c0 57 bb dd 3d 4b a5 90 bd 6a 85 71 bc 11 42 28 be
       0.10826748 -0.07062777 -0.014741281 -0.16431452
0003d0 1e f4 6e bd 69 03 08 3d a9 4d 7a bc 9e ab 21 3e
       -0.058338277 0.033206377 -0.015277305 0.15788123
0003e0 26 17 61 bd 4b 14 2a be c8 95 ac bd 86 f1 aa 3d
       -0.054953717 -0.16609304 -0.08427006 0.08346848
0003f0 be ed 07 bd 34 3e 0f be 50 37 16 be f9 55 50 3d
       -0.033185713 -0.13988572 -0.14669538 0.05086324

np.xy_to_z.input_to_hidden.3.bias f4 [16]
000000 69 46 d1 bd 5d 35 16 3e 8b 32 1d 3e c5 83 88 3d
       -0.10218508 0.14668794 0.15351312 0.06665758
000010 dc 76 7e 3e 22 1c 73 3d fc b1 8c bc 88 9b bd 3c
       0.24850029 0.059353 -0.017174713 0.023145452
000020 4f bb 5e 3c 3c 79 5b bd 77 e9 2e 3c d5 28 6d 3a
       0.013594463 -0.053582415 0.01067578 0.0009046917
000030 20 00 36 3e 44 fc 30 3c 2e 44 66 3e 62 4c 81 3e
       0.17773485 0.010802332 0.22486946 0.25253588
